c2cvae/adult_income_vae.pth (torch, 6774 bytes, 10 tensors)

encoder.fc1.weight f4 [16, 12]
000000 25 53 5a 09 46 20 51 8a c0 5b 5a 8a 10 60 5c 0a
       2.627989e-33 -1.0069054e-32 -1.05135745e-32 1.0610682e-32
000010 9f e4 4a 8a de 33 5a 0a 8f c9 56 8a 8a 58 49 8a
       -9.768945e-33 1.0506073e-32 -1.0341634e-32 -9.69445e-33
000020 5f 72 4e 8a e0 01 4f 8a 58 9a 54 8a 46 05 5a 8a
       -9.94005e-33 -9.96704e-33 -1.02364575e-32 -1.049731e-32
000030 70 69 45 8a ce 2c 5c 8a 5a ec 51 8a 3d 6d 4c 8a
       -9.5050356e-33 -1.06010415e-32 -1.0107437e-32 -9.842788e-33
000040 5d 45 48 8a 09 69 48 8a 0c fe 52 8a 01 8d 49 8a
       -9.6426955e-33 -9.649405e-33 -1.0158913e-32 -9.704318e-33
000050 18 50 54 8a e2 cf 60 8a 2d b3 5c 8a 77 a3 71 8a
       -1.0222493e-32 -1.0824306e-32 -1.0626314e-32 -1.1634472e-32
000060 ef 26 54 8a f4 60 5a 8a 67 a0 48 8a 0b b7 48 8a
       -1.0214751e-32 -1.0514553e-32 -9.659818e-33 -9.664076e-33
000070 27 2a 53 8a e6 d5 4b 8a 4a c8 52 8a 91 3a 49 8a
       -1.01672084e-32 -9.814324e-33 -1.01488024e-32 -9.688813e-33
000080 c1 b2 44 8a 95 72 71 8a a5 5d 4c 8a 4d 39 4c 8a
       -9.4706766e-33 -1.16252784e-32 -9.839855e-33 -9.83302e-33
000090 90 7b 65 8a 0a 99 53 8a 77 92 5d 0a 9a b6 63 8a
       -1.10491885e-32 -1.0188064e-32 1.066831e-32 -1.0963996e-32
0000a0 28 63 69 8a 28 82 5d 0a 2a 51 5f 8a 87 65 49 8a
       -1.1237191e-32 1.06652426e-32 -1.0752325e-32 -9.696893e-33
0000b0 a4 ef 5c 8a 35 30 6a 8a ee b6 50 8a b0 58 60 8a
       -1.0637686e-32 -1.1275757e-32 -1.0049241e-32 -1.0801888e-32
0000c0 50 1c 59 0a 3d 95 51 8a d9 56 52 8a 7a 88 5a 8a
       1.0453495e-32 -1.00910526e-32 -1.01274664e-32 -1.05219866e-32
0000d0 cf 82 54 8a c5 4a 53 8a 6b f0 69 8a 3c 50 4a 8a
       -1.0232031e-32 -1.0173343e-32 -1.12637595e-32 -9.7410366e-33
0000e0 f4 b8 67 0a 43 31 5d 8a f7 fc 57 8a 36 ca 5d 8a
       1.1157031e-32 -1.0650028e-32 -1.0399451e-32 -1.06787946e-32
0000f0 0a 7c 31 8a 9b 86 27 8a a5 ea 5f 8a ea 39 53 8a
       -8.545569e-33 -8.066074e-33 -1.0781191e-32 -1.0170173e-32
000100 89 31 51 8a 7f 28 56 8a 4a 14 1d 8a 48 4f 40 8a
       -1.00723005e-32 -1.0311342e-32 -7.563091e-33 -9.259375e-33
000110 24 0c 5d 0a d5 21 63 8a a1 08 53 8a eb c5 21 8a
       1.0643046e-32 -1.09360155e-32 -1.01609034e-32 -7.789092e-33
000120 a8 93 65 8a 59 a4 53 8a 04 2b 5b 0a 13 a5 56 8a
       -1.105372e-32 -1.0190191e-32 1.0552557e-32 -1.0334772e-32
000130 b1 41 70 8a fd d3 5b 8a 93 69 5a 8a 89 a3 6e 8a
       -1.1567935e-32 -1.0584337e-32 -1.05161745e-32 -1.1490041e-32
000140 a7 65 5b 8a f9 c4 54 0a 86 e4 54 0a e5 2e 4c 8a
       -1.0563585e-32 1.0244475e-32 1.0250409e-32 -9.8310626e-33
000150 55 71 58 8a bd 2a 67 8a 88 57 5b 8a c7 e7 49 8a
       -1.0421337e-32 -1.11302836e-32 -1.0560929e-32 -9.7213904e-33
000160 8b d5 55 0a 37 c3 54 8a c4 1e 55 8a 3f 37 56 8a
       1.029574e-32 -1.02441445e-32 -1.0261363e-32 -1.0314116e-32
000170 c6 01 6c 0a 20 28 59 0a 69 d8 44 8a c0 54 59 8a
       1.136332e-32 1.04557166e-32 -9.477759e-33 -1.046411e-32
000180 2a f4 5a 8a cc d0 50 8a 02 7e 4f 8a f1 f8 50 8a
       -1.054224e-32 -1.0054106e-32 -9.990387e-33 -1.00616564e-32
000190 68 8d 5a 8a ab 61 47 8a e5 ef 4d 8a 00 00 63 8a
       -1.0522914e-32 -9.599871e-33 -9.91551e-33 -1.09296524e-32
0001a0 76 3a 5c 8a ff 52 6f 8a 61 43 57 8a df 67 4a 8a
       -1.060361e-32 -1.1523041e-32 -1.0364546e-32 -9.745482e-33
0001b0 f5 17 58 8a 59 51 5c 8a 9f 36 5a 0a cc 53 57 0a
       -1.04045275e-32 -1.06079145e-32 1.0506591e-32 1.0367634e-32
0001c0 ba 70 4c 8a f0 d9 5e 8a f2 c5 5a 8a ee ac 24 8a
       -9.843444e-33 -1.0729901e-32 -1.05335476e-32 -7.928837e-33
0001d0 f3 21 5a 8a 6f 48 67 0a 0d e4 4a 8a e4 19 4a 8a
       -1.0502703e-32 1.1135869e-32 -9.768838e-33 -9.730816e-33
0001e0 d0 24 51 8a c5 95 41 8a f7 a0 4b 8a 91 68 59 8a
       -1.00699076e-32 -9.3207805e-33 -9.8043686e-33 -1.0467837e-32
0001f0 d0 49 3a 8a 97 42 4a 8a 58 f0 3c 8a 60 91 56 8a
       -8.969457e-33 -9.7384704e-33 -9.0970744e-33 -1.0331067e-32
000200 26 1b 6b 8a 72 24 5e 8a 0e dd 59 8a 65 51 4f 8a
       -1.13199445e-32 -1.0695766e-32 -1.0489746e-32 -9.981996e-33
000210 72 1f 58 8a ed 86 4b 8a 1a b9 55 8a 4b 78 5b 8a
       -1.0405936e-32 -9.799471e-33 -1.0290391e-32 -1.0567091e-32
000220 43 c3 51 8a 87 10 5b 8a 0d e4 49 8a 5a 46 57 8a
       -1.00997086e-32 -1.0547575e-32 -9.7206896e-33 -1.0365105e-32
000230 2e b2 59 8a 12 de 50 8a 91 e5 5a 8a 8d 18 5b 8a
       -1.0481682e-32 -1.00566025e-32 -1.0539495e-32 -1.0549084e-32
000240 47 0a 5a 8a f6 3c 4e 8a a6 ab 5c 8a 84 78 4a 8a
       -1.0498251e-32 -9.930005e-33 -1.0624898e-32 -9.748613e-33
000250 93 ba 4f 8a fa 1a 5f 8a 99 95 5d 0a e1 4b 52 09
       -1.0001778e-32 -1.0742133e-32 1.0668899e-32 2.5313509e-33
000260 34 d8 5a 0a a6 19 6b 8a 37 27 44 8a 4c 89 67 8a
       1.05369815e-32 -1.1319662e-32 -9.444432e-33 -1.1148068e-32
000270 b9 72 47 8a 8b 3c 53 8a 85 98 4d 8a 77 2b 50 8a
       -9.6030784e-33 -1.0170667e-32 -9.899077e-33 -1.00230105e-32
000280 14 98 5b 8a 59 69 5b 8a d0 46 51 8a 63 5c 55 8a
       -1.0573069e-32 -1.056428e-32 -1.0076302e-32 -1.0272953e-32
000290 42 ac 51 8a 40 3b 4d 8a f5 60 4f 8a aa 54 57 8a
       -1.0095382e-32 -9.881535e-33 -9.984923e-33 -1.0367797e-32
0002a0 dd 37 48 8a bd 6e 50 8a 97 6f 5c 8a 85 89 50 8a
       -9.6401564e-33 -1.0035663e-32 -1.06136024e-32 -1.00407e-32
0002b0 6b c6 58 8a c9 39 48 8a 78 db 59 8a 48 52 4c 8a
       -1.043734e-32 -9.640518e-33 -1.04894474e-32 -9.837718e-33
0002c0 8d 15 56 8a b5 b2 48 8a e5 06 45 8a 3d bb 47 8a
       -1.03077785e-32 -9.663261e-33 -9.486502e-33 -9.616717e-33
0002d0 5c ad 73 8a b4 1a 5f 8a 8a 11 57 8a 34 2e 54 8a
       -1.173263e-32 -1.0742082e-32 -1.0355172e-32 -1.02161185e-32
0002e0 f5 83 58 8a b3 ef 4c 8a 1a b4 6e 8a 7a 0d 59 8a
       -1.042484e-32 -9.867325e-33 -1.14931565e-32 -1.04507046e-32
0002f0 5a bb 54 0a 11 7c 5a 8a 69 da 44 8a a7 2d 45 8a
       1.02426656e-32 -1.05196525e-32 -9.478135e-33 -9.493791e-33

encoder.fc1.bias f4 [16]
000000 cc 5a 4a 8a 42 17 55 8a 12 ec 56 0a 87 66 58 8a
       -9.743023e-33 -1.0259951e-32 1.0348125e-32 -1.0419305e-32
000010 86 8e 4c 8a fc 99 50 8a 40 50 4d 8a bf 53 44 8a
       -9.8490484e-33 -1.0043797e-32 -9.885484e-33 -9.4528076e-33
000020 d6 87 52 0a 66 8d 56 8a 70 86 4b 8a 58 b8 53 8a
       1.013668e-32 -1.0330319e-32 -9.799379e-33 -1.0193952e-32
000030 91 46 4b 8a ab 81 4b 0a e2 5b 50 0a 57 81 57 8a
       -9.7873665e-33 9.798482e-33 1.0032117e-32 -1.03761996e-32

encoder.fc2.weight f4 [6, 16]
000000 4a 8a 52 8a 7b 52 5b 0a fb 2e 5b 8a 99 38 50 0a
       -1.01371415e-32 1.0559979e-32 -1.05533025e-32 1.00254805e-32
000010 c7 01 47 0a aa 4b 5a 8a db 7e 58 8a d1 7b 4a 0a
       9.581836e-33 -1.0510549e-32 -1.04238806e-32 9.7492335e-33
000020 09 51 58 0a 37 03 50 0a c9 eb 29 0a 76 f0 5b 0a
       1.0415263e-32 1.001544e-32 8.1814e-33 1.0589692e-32
000030 55 c3 1f 0a 69 02 56 8a 03 41 4b 0a 8c a7 5a 0a
       7.6923094e-33 -1.03041785e-32 9.786322e-33 1.052783e-32
000040 eb 5f 58 8a cf 33 5c 0a 75 01 61 8a 53 b4 5a 8a
       -1.0418062e-32 1.0602359e-32 -1.083363e-32 -1.05302334e-32
000050 dc 51 58 8a b7 79 4e 0a 92 99 53 0a 45 f3 4c 8a
       -1.0415418e-32 9.941431e-33 1.0188164e-32 -9.8679966e-33
000060 bd b4 5d 8a 4b 67 5f 0a 81 29 49 8a c4 f9 5a 0a
       -1.0674756e-32 1.0756487e-32 -9.685604e-33 1.0543294e-32
000070 52 6f 58 8a 06 0b 4a 0a 38 ef 59 8a f4 6d 4c 0a
       -1.0420959e-32 9.7280195e-33 -1.0493162e-32 9.8429226e-33
000080 f7 c1 58 8a 08 26 5b 0a 63 00 59 0a 49 18 5b 8a
       -1.04365024e-32 1.0551619e-32 1.0448243e-32 -1.0549034e-32
000090 0d ce 4f 8a 9f 79 50 8a f4 5f 5a 8a d2 74 4c 0a
       -1.0005441e-32 -1.003771e-32 -1.0514365e-32 9.844214e-33
0000a0 17 f6 4d 8a 46 e0 5a 8a b1 42 48 0a fc d0 59 0a
       -9.916675e-33 -1.0538499e-32 9.642193e-33 1.04874755e-32
0000b0 1e 68 5b 0a 7c c0 52 0a 7f 33 5c 0a 64 43 50 8a
       1.0564049e-32 1.01473345e-32 1.06023e-32 -1.00275105e-32
0000c0 e7 66 58 0a 4a bc 59 0a 54 22 4f 0a 91 f3 53 0a
       1.04193755e-32 1.0483583e-32 9.973144e-33 1.020509e-32
0000d0 aa 95 49 0a 97 d7 5f 0a 25 27 4f 0a b0 ab 9c 09
       9.705947e-33 1.07776074e-32 9.97405e-33 3.7717088e-33
0000e0 62 f1 60 0a 42 c2 5a 8a 40 77 5b 0a 51 22 59 8a
       1.0830607e-32 -1.0532854e-32 1.0566895e-32 -1.0454624e-32
0000f0 76 cb 5e 0a 62 6b 50 0a f0 4b 55 8a 16 de 4a 0a
       1.0727178e-32 1.0035032e-32 -1.0269859e-32 9.767716e-33
000100 82 d9 46 0a 17 e0 46 8a 36 89 4b 8a 18 ce 49 0a
       9.574262e-33 -9.5755e-33 -9.799901e-33 9.71656e-33
000110 18 90 5b 8a 89 1b 52 8a 14 2b 4c 0a e6 ef 4c 8a
       -1.05715675e-32 -1.0116311e-32 9.830345e-33 -9.8673626e-33
000120 c2 be 5e 8a c7 e7 59 8a d1 eb 51 0a ae ad 5b 8a
       -1.0724789e-32 -1.04917624e-32 1.0107336e-32 -1.0577132e-32
000130 7e b8 5a 0a 44 dd 4c 0a 89 42 57 0a ca 84 4f 8a
       1.0531017e-32 9.863858e-33 1.0364387e-32 -9.991662e-33
000140 48 fc 5a 0a 5e b4 5d 0a ac 3d 62 8a d0 25 58 0a
       1.0543767e-32 1.0674686e-32 -1.08931034e-32 1.04071334e-32
000150 82 6c 5b 0a 0a 13 57 8a 6d 50 57 8a a3 d0 59 8a
       1.05648745e-32 -1.0355454e-32 -1.0367e-32 -1.048741e-32
000160 21 68 5d 8a 59 95 59 8a e0 40 23 0a f3 ae 1f 09
       -1.06603474e-32 -1.0476259e-32 7.860366e-33 1.922119e-33
000170 b6 2f 53 8a 0c 3c 5e 0a fe fd 4a 8a 97 bf 5a 8a
       -1.0168254e-32 1.0700205e-32 -9.773717e-33 -1.0532352e-32

encoder.fc2.bias f4 [6]
000000 9a 36 33 37 d7 a8 fa 36 53 b0 3a b7 13 39 d8 37
       1.0681944e-05 7.470236e-06 -1.1127518e-05 2.5775784e-05
000010 7a a4 83 b7 72 63 1e b7
       -1.5693007e-05 -9.440688e-06

encoder.fc3.weight f4 [6, 16]
000000 32 77 57 8a 0b c5 57 0a 64 a7 50 8a a6 ab 60 8a
       -1.03742916e-32 1.0388933e-32 -1.00463184e-32 -1.0817491e-32
000010 b0 68 52 0a e1 d6 72 0a b6 92 4d 0a 27 74 4a 8a
       1.0130822e-32 1.16922904e-32 9.897984e-33 -9.747792e-33
000020 ed 2e 51 0a 0d 2a 59 0a 0d f3 4e 8a 09 94 4a 0a
       1.007181e-32 1.0456079e-32 -9.964252e-33 9.7537885e-33
000030 10 c2 51 0a 37 68 5b 8a 0b a2 52 0a b0 c8 4e 0a
       1.0099483e-32 -1.0564067e-32 1.0141609e-32 9.956284e-33
000040 bb 25 56 8a 0e ac 5b 0a 3e f0 52 8a 0f 09 6b 0a
       -1.03108215e-32 1.0576826e-32 -1.0156317e-32 1.1316542e-32
000050 d3 75 5b 8a 16 d5 60 0a 66 01 59 0a 6e 87 65 8a
       -1.0566627e-32 1.0825285e-32 1.0448433e-32 -1.10514204e-32
000060 e7 3f 61 0a b1 fa 5c 8a 5e 47 73 8a d3 a4 54 0a
       1.08453746e-32 -1.06397645e-32 -1.1713447e-32 1.0238429e-32
000070 0a 1f 5f 0a 7d a2 5b 0a 23 9e 58 8a 1a 1f 5a 0a
       1.0742897e-32 1.0575027e-32 -1.0429764e-32 1.0502168e-32
000080 f7 3a 50 0a df 33 08 0a af 1d 4f 8a cb e4 51 8a
       1.0025926e-32 6.557918e-33 -9.97227e-33 -1.0106015e-32
000090 9a 9c 44 8a 26 69 4a 0a 90 f3 55 0a 12 3e 4f 0a
       -9.46651e-33 9.7457224e-33 1.0301386e-32 9.9783616e-33
0000a0 54 9f 66 8a a2 40 56 0a ba 43 5e 8a ec 5b 5a 0a
       -1.11040635e-32 1.0315881e-32 -1.0701649e-32 1.0513607e-32
0000b0 a6 3d 51 0a 32 00 5c 8a 29 19 59 0a 68 29 53 0a
       1.0074579e-32 -1.05926514e-32 1.0452902e-32 1.0167068e-32
0000c0 c3 44 59 8a e4 bd 61 8a 02 9c 4b 8a 08 55 68 8a
       -1.04611026e-32 -1.08690704e-32 -9.803436e-33 -1.1186386e-32
0000d0 e6 ab 5b 0a 6a ab 59 0a 82 28 57 0a d8 52 66 0a
       1.0576797e-32 1.0480409e-32 1.0359492e-32 1.1089678e-32
0000e0 2c 11 6f 8a a5 85 57 0a f5 ce 5e 8a c1 6e 50 0a
       -1.1510661e-32 1.0377009e-32 -1.07278355e-32 1.0035666e-32
0000f0 de 5e 5e 0a 03 21 55 0a 85 98 4d 8a ba 20 55 0a
       1.0706754e-32 1.0261786e-32 -9.899077e-33 1.0261732e-32
000100 b5 ec 5e 8a c7 95 55 0a 0f 91 56 8a 38 4a 57 0a
       -1.0733431e-32 1.0283747e-32 -1.0331008e-32 1.03658324e-32
000110 dd b8 56 0a 14 00 e5 89 18 b8 53 8a cc 07 50 8a
       1.0338494e-32 -5.5129818e-33 -1.0193905e-32 -1.0016302e-32
000120 ee c9 69 0a 6d 27 5b 89 b2 4f 56 8a 13 81 46 0a
       1.1256521e-32 -2.6379704e-33 -1.0318714e-32 9.5576294e-33
000130 dd 8a 51 0a 1b 79 5b 8a 35 1d 5a 8a 7c e7 55 0a
       1.0089101e-32 -1.0567244e-32 -1.05018114e-32 1.0299114e-32
000140 41 61 59 0a 42 64 55 8a 32 bb 46 8a fc 57 5d 8a
       1.04664614e-32 -1.0274433e-32 -9.568561e-33 -1.0657311e-32
000150 0a 61 59 0a 43 61 4b 8a b2 c3 59 0a 76 aa 59 8a
       1.0466421e-32 -9.792387e-33 1.0484976e-32 -1.048023e-32
000160 08 c1 69 0a d2 fe 5b 0a 6a a1 5a 8a 93 6b 50 0a
       1.1254847e-32 1.0592393e-32 -1.0526677e-32 1.0035068e-32
000170 56 37 54 8a 4b 25 58 0a b1 7d 5b 0a 57 8b 5b 0a
       -1.0217836e-32 1.0407036e-32 1.05681064e-32 1.0570673e-32

encoder.fc3.bias f4 [6]
000000 b6 14 1d b8 88 ab cd 37 32 1f 4f 36 ec 09 28 37
       -3.7451005e-05 2.451778e-05 3.0863562e-06 1.001589e-05
000010 1a 12 43 b8 e0 68 7d 35
       -4.650848e-05 9.440246e-07

decoder.fc.weight f4 [16, 6]
000000 c2 42 12 bb 12 a9 d4 3b 88 b9 67 3c 86 6f bc bc
       -0.0022317623 0.0064898813 0.014143355 -0.023002397
000010 af a0 87 bc 3c f7 af bb 1f 57 f9 3a f3 e9 5d bc
       -0.016556112 -0.005370049 0.0019023156 -0.013544547
000020 2b 04 7c 3b fe 48 e2 bb 59 e2 4c bb 33 0d 6c bc
       0.0038454633 -0.006905674 -0.0031262843 -0.014407444
000030 be 4b 7c 3c 6b b4 7e bc c0 39 69 3b 92 71 30 bc
       0.015398918 -0.015545945 0.00355874 -0.010769265
000040 b7 d9 0b bc 34 0a 0d bd 94 4a 1a bc 0b a1 e7 bc
       -0.008535794 -0.03443356 -0.009417195 -0.028275033
000050 fd b8 80 bc 78 0d 49 3c 4e 6a f9 bb 0f a6 4c 3b
       -0.01571321 0.012271278 -0.0076115495 0.0031226908
000060 a3 7a c2 3b 25 b7 c4 bb 59 bb d5 3b 7f ef c7 bb
       0.0059350296 -0.006003278 0.0065225777 -0.006101548
000070 48 1d 37 bc ce 94 ee 3c e4 18 af 3b 59 cd 3c bc
       -0.011176415 0.02912369 0.0053435434 -0.011523568
000080 22 e6 53 3c 17 51 bb 3c 76 a0 91 bb 26 05 36 bb
       0.012933286 0.022865815 -0.0044441773 -0.0027774065
000090 76 00 3d bc e3 60 cb ba 01 5f 98 3b 70 08 41 bc
       -0.011535754 -0.0015516545 0.004649997 -0.011781797
0000a0 11 eb a9 3b 4d e4 89 bc 3d 8d ad bc 43 2e 18 3c
       0.005185493 -0.016832495 -0.021185512 0.009288373
0000b0 9c 98 17 bd 7c 72 dd ba b5 06 29 3c d3 9b 1d bc
       -0.037010774 -0.0016895081 0.0103165405 -0.009619671
0000c0 1c 0d 5b 3b ca 4b 02 bc cc 28 82 3b f4 69 06 3b
       0.0033424562 -0.00795264 0.0039721485 0.002050993
0000d0 b4 c7 02 bd 64 ad f1 3a 1c 51 6c bc e9 d1 86 3c
       -0.031928733 0.0018438515 -0.014423635 0.016457515
0000e0 43 56 e4 ba 0a cc 30 3b 0e 4b 34 bc 44 e4 1a 3a
       -0.0017420728 0.0026977086 -0.011004223 0.0005908648
0000f0 a4 27 43 3d c5 f3 09 3c a5 f0 64 3c 34 b4 35 bc
       0.047645226 0.008419936 0.01397339 -0.011090327
000100 09 44 f5 bc b2 26 3e bc e9 d3 8c bc 66 16 3d 3c
       -0.029939668 -0.011605905 -0.01719089 0.011540985
000110 6a 8d 65 bc b7 14 0c 3d 8f 4f d4 3c d9 6b c8 3c
       -0.0140107665 0.034199443 0.025916843 0.024465488
000120 e4 11 9f bc 9d 92 81 3b c5 93 ad 3c 67 b0 aa 3c
       -0.01941771 0.0039542452 0.021188626 0.020836068
000130 43 df 87 bc c2 48 34 bb ee 84 4c bc c5 19 b7 bb
       -0.016585952 -0.0027509187 -0.012482865 -0.0055877888
000140 29 55 75 bd 58 71 18 bc c4 b6 c2 3c 59 41 f6 3b
       -0.05989567 -0.009304367 0.02376879 0.0075151143
000150 38 72 99 3c b7 2e c6 ba 95 fe ee ba ca 92 6b 3b
       0.018731222 -0.0015120123 -0.001823383 0.0035945647
000160 5f ba c6 3b 7b c7 15 3c dc d4 ef 3c 83 83 c0 3c
       0.0060646976 0.009141798 0.029276304 0.02350021
000170 8f 03 c1 3c 43 87 3f bd 0a 30 f8 3b b2 39 fe ba
       0.023561267 -0.046759855 0.007574086 -0.0019395857

decoder.fc.bias f4 [16]
000000 39 f0 23 be 61 cc 13 be 52 1c cc bd 1b 0e a7 bd
       -0.16009606 -0.14433433 -0.09966339 -0.08156987
000010 ef 61 65 be 38 95 53 be 68 1a 10 be 03 1b 4a be
       -0.2240064 -0.20662391 -0.14072573 -0.19736867
000020 01 26 2a be 10 5b d9 bd 49 fe 79 be 5a 6b 30 be
       -0.1661606 -0.10613072 -0.24413408 -0.17228451
000030 3a 2e 37 be c7 94 92 be c6 b9 e5 bd 4f 5b 29 be
       -0.17888728 -0.28629133 -0.11217074 -0.16538738

decoder.fc_output.weight f4 [12, 16]
000000 73 00 20 3d 40 3d e8 3a 07 77 31 bb e9 99 2b bd
       0.03906293 0.0017718449 -0.0027079002 -0.041894827
000010 e6 98 8a bc d6 61 72 3d 49 d4 0f bc 7e c6 8b 3d
       -0.01691861 0.059175335 -0.00877864 0.06824969
000020 33 dd 00 3d 3b 51 c1 3c 21 1a 05 bc 6c fb 1f 3d
       0.031460952 0.023598304 -0.008123905 0.039058134
000030 28 3d 21 bc e2 be d2 3b 95 2c 96 bd 68 1f 29 bd
       -0.009841241 0.0064314464 -0.07332722 -0.041289717
000040 59 e8 3a 3c a5 66 2d b9 d5 45 ef 3b 9e 53 67 bb
       0.011407935 -0.00016536804 0.007302026 -0.0035297642
000050 ca 74 a0 3c e5 3f 0b bd be 40 e1 bc c9 36 1c bd
       0.01958694 -0.03399648 -0.027496692 -0.038138185
000060 ae a7 55 3c f4 3a 07 bc ba 7a 2d 3a 5a db 0c bd
       0.013040466 -0.008253802 0.0006617714 -0.034388877
000070 84 d4 07 ba 43 d0 4a 3b e0 97 36 bc 12 8f 8d bc
       -0.00051815086 0.0030946888 -0.011144608 -0.017280135
000080 db 72 fd 3c c7 28 ee ba ee c2 e8 3b bd 1e 35 3d
       0.030938556 -0.0018170112 0.0071033156 0.044218767
000090 f7 78 37 3c 9b 6e f2 3c 5d 6d 41 bd 35 cf 44 bc
       0.011198274 0.029593756 -0.047223438 -0.012012293
0000a0 32 00 72 bd aa 0c 24 bc d6 c2 8d 3c ad 49 5c bd
       -0.059082218 -0.010012785 0.01730482 -0.0537812
0000b0 b7 b6 22 3c d1 d9 59 3c c5 22 16 bb ce 24 07 3c
       0.009931258 0.01329656 -0.0022908908 0.008248521
0000c0 06 94 3d 3c 95 f5 ee 3a 7d 6a d2 bc f6 70 97 3b
       0.011570936 0.0018231148 -0.025685543 0.0046216203
0000d0 01 aa bb bb 48 7e 96 3b 5f 6b d0 3c 62 20 1e bd
       -0.005727053 0.0045926906 0.025441824 -0.0386051
0000e0 d7 8a a2 3c 8c 78 d5 3c cd 2e 2e 3b c6 59 00 3c
       0.019841595 0.026058458 0.0026578188 0.007833904
0000f0 1b 9c 6e 3c d6 c0 9a bd ef 57 b3 3c 3a 14 5d bc
       0.014563586 -0.07556312 0.021892516 -0.013493592
000100 e6 cc af 3d c3 0f b8 3a 04 55 2c bd ca 63 4d 3c
       0.08584003 0.0014042783 -0.042073265 0.012535999
000110 58 6a 35 3c 63 e0 b7 3b a6 16 ef 3c 78 68 79 3c
       0.011072718 0.005611466 0.029185604 0.015222661
000120 c8 51 da bc 18 69 8c 3c 80 17 09 bc 9d 36 2b bd
       -0.026650324 0.017139956 -0.008367419 -0.04180013
000130 37 f6 6b 3c 4b 05 22 3d 6f 61 93 bc 27 63 8e bc
       0.014401964 0.03955583 -0.017990796 -0.017381264
000140 f9 fb 17 3c 00 6c 35 3b cf 5e 73 bc e9 c0 03 bb
       0.009276384 0.0027682781 -0.014854147 -0.0020103997
000150 53 a7 74 bb 38 6a 96 ba 25 e1 cf 3c 9e 6d 6d bd
       -0.0037331178 -0.0011475747 0.025375912 -0.057965867
000160 70 23 a0 3c 79 09 e2 3c 75 a3 b1 bb f3 6b 07 bb
       0.019548148 0.027592408 -0.005421097 -0.0020663708
000170 f1 fa 9e 3c a4 7f a0 bd 48 08 99 3c ad f7 34 bc
       0.019406768 -0.078368455 0.018680707 -0.011045379
000180 4e 77 3b 3d fe 2c a7 b5 f0 bb 73 bb 73 3d 16 3c
       0.045768075 -1.2455564e-06 -0.0037190877 0.009169924
000190 7d fd 03 3b cb be 77 bb 5e a6 c9 bb 65 a3 3f 3d
       0.0020140104 -0.003780293 -0.0061538657 0.046786685
0001a0 48 32 2d 3d d2 70 5e 3b 70 6e 9b 3b 6e bc 98 bc
       0.04228428 0.0033941758 0.00474339 -0.018644538
0001b0 4a 99 c4 3c ab 63 d3 bb e1 c8 b3 3a b8 62 80 3a
       0.023998875 -0.0064510903 0.0013716483 0.0009795045
0001c0 8a 4d 2f bc 65 19 d0 39 8a b5 a4 b9 70 93 a7 bb
       -0.010699639 0.00039691772 -0.00031415775 -0.0051140115
0001d0 86 3b 37 3b 66 7a a9 3d fa 4b 40 3c 80 84 89 bd
       0.0027959063 0.08275299 0.011736864 -0.067147255
0001e0 a8 fa 69 3c 14 69 e5 3c 2c 56 f5 3b 23 2f 8f 3b
       0.0142809525 0.028004207 0.007487079 0.004369633
0001f0 a8 b9 a3 bc 5e 39 ab bb ea 21 f8 3c 03 fb 8c bc
       -0.019985989 -0.0052253446 0.030289609 -0.017209535
000200 47 80 1d bc e7 26 94 b8 68 5d 66 3c 1f 5e cb bb
       -0.009613103 -7.064436e-05 0.014060356 -0.0062062885
000210 3c e5 67 bc 90 55 fa bc e9 18 a6 bc b5 4d 06 bd
       -0.014153775 -0.030558378 -0.02027555 -0.03278895
000220 d6 89 57 3c 30 d3 d1 bb 5f 05 42 3b 58 c3 0a bd
       0.013155421 -0.0064033493 0.0029605252 -0.0338777
000230 fc b9 3d 3c 1e 93 61 ba 13 3a e1 3b c6 88 10 bc
       0.011579987 -0.0008604991 0.006873378 -0.008821672
000240 93 3d 25 3d c2 3a b7 b9 4f 4e 04 bc ef a3 4b bc
       0.040341925 -0.00034948258 -0.008075311 -0.0124292215
000250 ad 48 8c bb 54 5a 0e bd 5c bb 34 bd 23 47 50 bd
       -0.0042811246 -0.034754112 -0.044123992 -0.05084909
000260 58 1f 82 bb 53 6f 55 3c 26 41 e6 3c d5 d2 2f bd
       -0.0039710216 0.01302703 0.028107237 -0.042925674
000270 4d 82 c1 3c 34 44 94 bc d5 30 52 bb 27 04 bf 3b
       0.023621703 -0.018098928 -0.0032072563 0.0058293524
000280 b5 a5 fc bc 9a 75 10 39 2b 98 03 3d 46 96 a8 3a
       -0.030840734 0.0001377672 0.03212754 0.0012862168
000290 e5 da 30 3d 95 60 f9 3c 61 c3 0d 3c ec 08 4e 3b
       0.043177504 0.030441562 0.008652539 0.0031438423
0002a0 b0 e0 71 3c 55 2f 73 3c fd 0e 2f bd 1c 79 8c 3c
       0.014763042 0.014842828 -0.042738903 0.017147593
0002b0 c0 3a 70 bc 02 f4 ce bc f6 1a 5e bc ed fb a1 b9
       -0.014662445 -0.025262836 -0.013556233 -0.00030896012
0002c0 8f de 37 3c a1 5c 0e b2 67 6a b7 3a 25 cd 8f bb
       0.011222496 -8.286549e-09 0.0013993502 -0.004388469
0002d0 24 77 bb 3b a5 e0 12 3c 14 95 12 3a 0c 87 d9 3c
       0.00572099 0.008964692 0.00055916724 0.026553653
0002e0 7f 92 00 bc df d3 f7 3a 73 85 ac bb 19 dd f8 bc
       -0.007847427 0.0018907747 -0.005264932 -0.030378865
0002f0 b2 9f 70 bc f2 e7 69 3b 22 f5 75 3b b7 12 05 b9
       -0.014686512 0.0035691229 0.0037530144 -0.0001269084

decoder.fc_output.bias f4 [12]
000000 e0 75 9c 3e e5 73 83 3e d9 26 85 3e cd 37 85 3e
       0.3055868 0.25674358 0.260062 0.26019135
000010 7e c4 84 3e 06 d6 84 3e 2d 65 83 3e 98 e8 84 3e
       0.25931162 0.25944537 0.25663128 0.25958705
000020 6f a0 22 3c 90 2d 9d 3c f5 45 cf 3e 75 ce 84 3e
       0.009925946 0.019186765 0.4048306 0.25938764
