c2cvae/adult_income_c2c.pth (torch, 4662 bytes, 10 tensors)

encoder.fc1.weight f4 [6, 8]
00000000: 3692 630a 825b 4d0a 6c4f 5b8a b376 468a
00000010: 3a0d 490a b805 5a8a 2cb1 643e bfe1 c53d
00000020: 0bd6 478a 6930 490a 1a5d 5c8a 6f0c 650a
00000030: 657a 4c8a fdf6 558a e530 d63d 23b4 45bd
00000040: e4cd 520a 318b 5e8a ce21 508a 9c70 5c8a
00000050: 506e 608a ac0d 460a d642 11b8 f839 ae37
00000060: 4788 490a 86d4 460a ce0d 580a 43b9 570a
00000070: 0f5e 5b0a ea5b 570a 724e 583e f52a bb3d
00000080: 03ac 568a f6fe 550a 5b63 5b8a 1b03 500a
00000090: db82 478a 80d8 5c0a d755 093e da08 588a
000000a0: 3caa 480a a4c1 510a c671 6b0a cc04 4b8a
000000b0: 4e57 5b8a 53c2 500a 79cf 42b9 58bf f5b7
1.0957152e-32 9.887602e-33 -1.0559404e-32 -9.555678e-33 9.6802856e-33 -1.0497394e-32 0.2233321 0.09662198
-9.6217585e-33 9.686903e-33 -1.0610125e-32 1.10282874e-32 -9.8452626e-33 -1.030203e-32 0.10458545 -0.048267495
1.0149856e-32 -1.071509e-32 -1.0021194e-32 -1.0613794e-32 -1.0805955e-32 9.5359246e-33 -3.463294e-05 2.076941e-05
9.703429e-33 9.5733244e-33 1.0402618e-32 1.0386717e-32 1.0562157e-32 1.03691606e-32 0.21123675 0.09139053
-1.0336077e-32 1.030353e-32 -1.0563153e-32 1.001542e-32 -9.606113e-33 1.0633334e-32 0.13411652 -1.04016865e-32
9.661667e-33 1.0099404e-32 1.1336237e-32 -9.774997e-33 -1.05608866e-32 1.0051384e-32 -0.00018578571 -2.9295377e-05

encoder.fc1.bias f4 [6]
00000000: 45de cdbc 8138 d6bd 904a 853d cad7 c1bc
00000010: aaac 0fbe c34a e23e
-0.0251304 -0.10459996 0.06508362 -0.023662467 -0.1403071 0.44197664

encoder.fc_mu.weight f4 [5, 6]
00000000: 279f 4d3c 9e71 2f3d f794 9cbe f622 5dbc
00000010: f51b 8933 0100 86be ee08 b43b f0a6 14be
00000020: 2c23 ff3b 494c c4bb 5d0e 0fbb 5ae3 94be
00000030: b497 113d 5b9a f13d 2ca4 64be 227d 19bd
00000040: a84e 0d38 3149 4a3e 5c56 c4bc 1ebe c83c
00000050: 6511 babd c2da d13c 0386 3030 957b c73e
00000060: 19c5 ba3d 2dad 413e ef90 a4be f36d c5bd
00000070: 1454 c4b9 ca5a 5e3d
0.012550152 0.042832963 -0.305824 -0.013497105 6.384645e-08 -0.26171878 0.0054942286 -0.14516807
0.0077861752 -0.005990539 -0.002182863 -0.29079705 0.035545066 0.11797019 -0.22328252 -0.03747285
3.3690274e-05 0.19754483 -0.02396696 0.024504717 -0.09085349 0.025617007 6.421887e-10 0.38961473
0.09119625 0.18913718 -0.32141826 -0.09640112 -0.00037446676 0.054285802

encoder.fc_mu.bias f4 [5]
00000000: ead3 0a3e bf11 033e 9e0f 95bd fe4a 2abe
00000010: d196 49bb
0.13557401 0.12799738 -0.07278369 -0.1663017 -0.003076006

encoder.fc_logvar.weight f4 [5, 6]
00000000: 1a51 01bc 0868 d4ba 4bd6 423d 21b6 053c
00000010: cc1e 8a23 5629 98be 48e1 043e beeb bc3d
00000020: 1576 9c3c b262 0cbe 4bf8 d638 6c7c 993e
00000030: 0603 513e cbe4 b03d cc4c 1a3e ad2a 5dbe
00000040: fc55 34b9 830a d8be 2512 52be 187a 7cbc
00000050: c00f 023e ea38 5e3e 0516 092d e407 8a3e
00000060: 0dcf 183e 4c4b d1bd 5345 86be 10a6 21be
00000070: 2c5d 9f37 f0be 1fbe
-0.007892871 -0.001620532 0.047567647 0.008161099 1.4975033e-17 -0.29719037 0.12976563 0.09224652
0.019099275 -0.13709524 0.00010250563 0.2997774 0.2041131 0.08637389 0.15068358 -0.21598311
-0.0001719817 -0.4219552 -0.20514734 -0.015409969 0.1270132 0.21701398 7.792438e-12 0.26959145
0.14922734 -0.1021944 -0.26224765 -0.15786004 1.8997664e-05 -0.1560018

encoder.fc_logvar.bias f4 [5]
00000000: 8d52 033e b8e6 08be 3ced 343e ee78 02be
00000010: 5927 b03d
0.1282446 -0.13369262 0.17668623 -0.12741444 0.08601255

decoder.fc2.weight f4 [6, 7]
00000000: 66b6 e4bc b099 f03e 19f2 ad3d 3802 07be
00000010: 6f04 593d 128f 80be 414d c8bc eebf 913b
00000020: 0105 a43d e469 e63c 6eed f0bc ad62 66bb
00000030: 7ab0 39bd dd9f 99bb 81d0 563d 9572 1fbe
00000040: 3111 133d e6e8 353c 598f 9cbd 4a0d 923d
00000050: 6521 b93b 18cb 01be b3cb 1abe 8a0d 6abe
00000060: c040 143e ac03 2c3e ecdf f13d 2186 7f3c
00000070: beb5 80bd 75d6 f23d 281a 7bbd 8e8e 103c
00000080: 572c b73d 2d99 44bd eea5 44bb 4a06 20be
00000090: 910f 613d 5025 5ebe b4c2 cc3d fdec 5b3e
000000a0: 6524 513c 81ed be3b
-0.027919006 0.46992254 0.08493442 -0.1318444 0.052982744 -0.25109154 -0.0244509 0.0044479286
0.08008767 0.028126664 -0.02941009 -0.003515403 -0.045334317 -0.0046882466 0.05244494 -0.15571053
0.035905067 0.011102891 -0.07644529 0.07131441 0.005649733 -0.1267513 -0.15116768 -0.22856727
0.14477825 0.16798276 0.11810288 0.015595944 -0.062846646 0.11857311 -0.06130424 0.00882305
0.08944004 -0.047997642 -0.0030006128 -0.15627399 0.054946486 -0.21693921 0.09998074 0.21477123
0.012765025 0.0058266525

decoder.fc2.bias f4 [6]
00000000: fccf 293e 919d 3c3e 5520 883d f511 003f
00000010: a205 8ebe 727b 89bd
0.16583246 0.18419482 0.06646792 0.500274 -0.27738672 -0.067129984

decoder.fc1.weight f4 [6, 6]
00000000: 31c1 08be cf24 cd3d 5ef6 59be 0514 6cbb
00000010: 54c3 773e 8077 0ebe 9603 a43d 3a61 473e
00000020: 76fb ab3d 5225 9d3e bc18 483e 14c2 9dbe
00000030: d032 2bbe 0328 5b3e 7ece 46bd 3942 24be
00000040: 3205 633e ff39 783d 64dd d6bd 8333 9cbd
00000050: 3e1f 07bb 6754 78be 4361 8f3d e1da 3c3e
00000060: 7978 4d3c a423 033e d924 3dbe 684c 283e
00000070: a9e5 c7bd f45c 1ebe 918e bdbd f4d2 183e
00000080: f0ca a3bc b6f4 20bd ade2 533e cbb5 18bd
-0.13354947 0.10016786 -0.21285388 -0.0036022675 0.24195606 -0.13912773 0.080084965 0.19470683
0.08397572 0.30692536 0.19540685 -0.30812132 -0.16718602 0.21401982 -0.04853677 -0.16040887
0.2216995 0.060602184 -0.10491446 -0.076270126 -0.0020617987 -0.24250947 0.07000973 0.1844287
0.01254093 0.12806565 -0.18471088 0.16435397 -0.09760601 -0.15465146 -0.09255708 0.14924222
-0.01999423 -0.039295875 0.20691939 -0.037282746

decoder.fc1.bias f4 [6]
00000000: cd90 9e3d fef0 32be c6a2 0c3e c521 3d3e
00000010: e141 08be c38a 823d
0.07742462 -0.17474744 0.13733968 0.18469913 -0.13306381 0.06374123
