c2cvae/blood_alcohol_vae.pth (torch, 4932 bytes, 10 tensors)

encoder.fc1.weight f4 [12, 5]
0	0xbe3d6d9a	-0.18498841
1	0x3baba3f7	0.005238052
2	0xbd79be3a	-0.06097243
3	0x3d8c55bd	0.06852291
4	0x3d9de24f	0.077091806
5	0xbb3a35f2	-0.0028413502
6	0xbb11303d	-0.0022153996
7	0xb9ddb1c7	-0.0004228486
8	0xb9e4f10d	-0.00043667146
9	0x3751cf16	1.2505587e-05
10	0xbba0dc75	-0.004909093
11	0xbbd3fcc5	-0.0064693415
12	0xb9082d89	-0.00012986934
13	0xbac3647e	-0.0014907268
14	0xba050e83	-0.000507571
15	0x3e98eabc	0.29866588
16	0x3e587c08	0.21141064
17	0xbe5a4c28	-0.21318114
18	0x3d3d8cf5	0.046277005
19	0x3dd02aa2	0.101643816
20	0x3c13933b	0.00900727
21	0x3df42aa3	0.11922195
22	0xbda3f033	-0.08004799
23	0x3c68da43	0.014212194
24	0x3dc33b0b	0.09532746
25	0x3dabbdbb	0.083857976
26	0x3cc41ce8	0.023939565
27	0x3e111b1b	0.14170496
28	0xbddc4544	-0.10755399
29	0xbdddc228	-0.10828048
30	0x3cd67ef8	0.02618359
31	0x3da81118	0.082063854
32	0xbcd36dc1	-0.02580917
33	0xbdaf2297	-0.08551519
34	0xbcdeaff6	-0.027183514
35	0xbccefee7	-0.025268031
36	0x3e174fc7	0.14776526
37	0xbcf2ae89	-0.02962424
38	0xbbf50217	-0.007477056
39	0x3cc4fcb1	0.024046274
40	0xbdccd886	-0.10002236
41	0x3e162795	0.14663537
42	0xbe8c3682	-0.27385336
43	0x3e1e7a7b	0.1547641
44	0x3e4dc6bb	0.20095341
45	0xba22caea	-0.0006210046
46	0xba556c97	-0.00081414863
47	0xb6cefd02	-6.1687324e-06
48	0xb82091e9	-3.8282862e-05
49	0xb6f52810	-7.306233e-06
50	0xbd5e42aa	-0.054262795
51	0xbc982b7e	-0.018575426
52	0xbcf0d6f8	-0.02939938
53	0xbc9baac8	-0.019002333
54	0x3c4d03a1	0.012513072
55	0x3d62db50	0.055384934
56	0x3e692f38	0.22771919
57	0xbce3f79a	-0.027828027
58	0xbdb3ccc7	-0.087792926
59	0x3c8416c8	0.016124144

encoder.fc1.bias f4 [12]
0	0x3eb8cd81	0.36094287
1	0xbbc41337	-0.005983736
2	0xbc4092a0	-0.011753708
3	0xbe5da030	-0.21643138
4	0xbdb7b822	-0.089706674
5	0x3e741670	0.23836684
6	0xbd39bba2	-0.045344956
7	0x3e19ffcd	0.15038987
8	0x3dcdfa52	0.100575104
9	0xbb47f325	-0.0030509916
10	0x3d071aaf	0.03298443
11	0xbe001922	-0.12509587

encoder.fc2.weight f4 [4, 12]
0	0xbd3195ed	-0.04335587
1	0x3b7e96f1	0.0038847292
2	0xba9a1550	-0.0011755619
3	0x39b6b2f0	0.00034847064
4	0x3b289d70	0.0025728606
5	0xbe6fd1fd	-0.23419948
6	0xbc3381b8	-0.01095622
7	0x3e269013	0.16265897
8	0xbe036e3e	-0.12835023
9	0xbbc65fc4	-0.0060538966
10	0xbcd61a39	-0.02613555
11	0xbc3069d5	-0.01076742
12	0xbd7023d5	-0.058627922
13	0xbbbebe22	-0.0058210054
14	0xbb509756	-0.0031828484
15	0xbd7f6f39	-0.06236193
16	0x3a1dad87	0.00060149323
17	0x3dd1ba45	0.10240606
18	0x3c866a68	0.01640816
19	0xbe05f666	-0.13082275
20	0x3e060614	0.13088256
21	0xb962c17c	-0.00021625118
22	0xbc853b0f	-0.016263513
23	0x3cacefa4	0.021110363
24	0x3da23153	0.07919564
25	0x3b3a36ce	0.0028414014
26	0x3af28508	0.0018502781
27	0x3bd58faf	0.0065173726
28	0xbcab643c	-0.020921819
29	0x3e15b10c	0.1461832
30	0xbbc3ce87	-0.0059755477
31	0xbd936152	-0.07196297
32	0x3d5d535b	0.054034572
33	0xb9a96ae9	-0.00032313846
34	0x3a1caa96	0.0005976347
35	0xbc808712	-0.015689407
36	0x3bd02b70	0.0063528344
37	0xba6997f8	-0.000891089
38	0xbb88c2bc	-0.004173605
39	0xbb09ea68	-0.0021044258
40	0x3c1f033d	0.009705362
41	0x3e777d4a	0.24168888
42	0xbc5f0d0a	-0.013613949
43	0xbdad8b99	-0.08473892
44	0x3e0eec4d	0.13957329
45	0xb5e12260	-1.6773811e-06
46	0x3c081199	0.008304977
47	0xbd1f4364	-0.038882628

encoder.fc2.bias f4 [4]
0	0x3d7d7b2f	0.061885055
1	0x3a432e4d	0.0007445559
2	0xbd63162d	-0.05544107
3	0xbd9406ee	-0.07227884

encoder.fc3.weight f4 [4, 12]
0	0x3be43ad1	0.0069650193
1	0x3881d6d1	6.191212e-05
2	0xb83a5c7a	-4.443198e-05
3	0xbc3ff950	-0.011717156
4	0xbc1b0933	-0.0094626425
5	0x3df12d97	0.11776274
6	0xba7c2776	-0.0009618917
7	0xbdb7e8c2	-0.08979942
8	0x3da3b206	0.0799294
9	0xb89a0692	-7.344516e-05
10	0x3a43e89b	0.00074733206
11	0x3c0f7299	0.00875535
12	0x3e8b5d90	0.2721982
13	0x3907ca19	0.0001294989
14	0x3ba7b65d	0.005118175
15	0x3dde140c	0.108436674
16	0x3ca3e795	0.020007888
17	0x3e1419c8	0.1446296
18	0xbc983472	-0.018579695
19	0xbdc6f9bd	-0.097156025
20	0xbd872dda	-0.06600542
21	0xbb20b65e	-0.0024522762
22	0x3af81ea3	0.0018930029
23	0xbcd70317	-0.02624659
24	0xbe95e41f	-0.29275605
25	0xbad8bfeb	-0.0016536688
26	0x3481d6da	2.4184448e-07
27	0xbde38b3d	-0.11110542
28	0xbc2e278d	-0.010629547
29	0xbe566f9d	-0.20941015
30	0x3ce7413d	0.02822935
31	0x3e12ed13	0.14348249
32	0x3d02d2ad	0.031939197
33	0x3a35af34	0.00069307094
34	0xbc2a10e0	-0.01038
35	0x3cf4d63c	0.029887311
36	0x3dcbd3d1	0.0995251
37	0xb9917758	-0.00027745473
38	0xb844693d	-4.6828052e-05
39	0x3d0e5da5	0.034757275
40	0x3c3a2ef5	0.0113637345
41	0x3e1155df	0.14192913
42	0xbbd40232	-0.0064699883
43	0xbd3d8bcb	-0.046275895
44	0x3ce9d153	0.028542196
45	0xb9644650	-0.00021769968
46	0xba87fab6	-0.00103744
47	0xbcfcd083	-0.030861145

encoder.fc3.bias f4 [4]
0	0xbcdf9fc1	-0.027297856
1	0xbdbe0696	-0.092786
2	0x3de301c2	0.1108432
3	0xbd834675	-0.06409923

decoder.fc.weight f4 [12, 4]
0	0xbd77cef8	-0.060500115
1	0xbdbc5f1e	-0.0919783
2	0x3dc7019a	0.09717102
3	0x3c45fe69	0.012084582
4	0xb6a12dfd	-4.8035276e-06
5	0xbd603e51	-0.05474693
6	0xbb9f7d28	-0.0048672147
7	0x3d422a34	0.04740353
8	0xbcbde3ba	-0.023179878
9	0xbcb82e20	-0.022482932
10	0x3afb270a	0.0019161415
11	0xbdd311c5	-0.10306124
12	0xbd7f1daa	-0.06228415
13	0xbd941a91	-0.0723163
14	0x3d9dde68	0.07708436
15	0xbdb63d3f	-0.088984005
16	0x396e03bf	0.00022698844
17	0x3c5cdae1	0.013479919
18	0xbaf41f1c	-0.0018624994
19	0xbbc089b2	-0.0058757896
20	0xbcf8604b	-0.030319354
21	0xbd2005dd	-0.03906809
22	0x3cedd3e5	0.029031703
23	0xbaeb36bf	-0.0017945393
24	0x3de662fd	0.11249349
25	0xbdb8c50f	-0.09021961
26	0x3e212b4b	0.15739171
27	0xba5d1f9c	-0.0008435191
28	0xbc886748	-0.01665081
29	0xbb642f44	-0.0034818212
30	0xbd49665a	-0.049169876
31	0x3c1db5eb	0.009625892
32	0xbc00b8ba	-0.007856542
33	0x3ad16f44	0.0015978594
34	0xbe16deb8	-0.14733398
35	0x3af7c7e9	0.0018904182
36	0x3d12b162	0.035813697
37	0x3d55dbaa	0.05221144
38	0xbdc7cee6	-0.097562596
39	0xbc93658e	-0.017992761
40	0x3badd88f	0.005305357
41	0x3bb19e89	0.00542051
42	0x3d2f1b8a	0.042750873
43	0x3c713970	0.014723167
44	0xbbec1532	-0.007204675
45	0x3badc9d3	0.0053036003
46	0xbb2aeed6	-0.0026082299
47	0x3c0a2ca9	0.008433499

decoder.fc.bias f4 [12]
0	0x3f138dc8	0.57638216
1	0xbe8ff932	-0.28119808
2	0xbf0de907	-0.55433697
3	0xbf07bcb8	-0.53022337
4	0xbdce4c0c	-0.100730985
5	0x3df64034	0.120239645
6	0xbf434d11	-0.7628947
7	0xbe9f145b	-0.31070217
8	0xbf2540dc	-0.6455209
9	0x3f1dce8f	0.6164331
10	0x3edacbac	0.42733514
11	0xbd666151	-0.056245152

decoder.fc_output.weight f4 [5, 12]
0	0x3ea1b938	0.31586623
1	0x3ca7fb03	0.020505434
2	0xbd1dcf2c	-0.038527653
3	0xbc1c35eb	-0.009534339
4	0x3cdd2551	0.026995333
5	0xbd8c9cfe	-0.068658814
6	0x3d0ac37a	0.033877827
7	0x3b8fc64b	0.004387652
8	0x3d005d77	0.031339135
9	0x3ebc67f7	0.3679807
10	0x3e52d134	0.20587617
11	0x3c0ba88c	0.008524071
12	0x3e4f2054	0.20227176
13	0x3cc210a6	0.02368958
14	0x3d4fad1c	0.0507022
15	0x3d0a50c8	0.033768445
16	0x3c0adf74	0.008476127
17	0xbc5a6c0a	-0.013331423
18	0x3c7d49e2	0.01545951
19	0x3c1d3b0b	0.0095965965
20	0xbcdc157f	-0.026865719
21	0x3e82eb79	0.25570276
22	0x3e1bc556	0.15211996
23	0x3c990359	0.018678354
24	0x3d57eda2	0.05271686
25	0xb877dd90	-5.9095735e-05
26	0xbcbb5968	-0.02286978
27	0x3b8de997	0.0043308246
28	0xba494cca	-0.0007678984
29	0x3de8c56e	0.11365782
30	0x3c1beaa4	0.009516392
31	0x3ced1744	0.028941758
32	0x3d56ac57	0.05241045
33	0x3e09c34d	0.13453408
34	0x3e005935	0.1253403
35	0xbb80ae11	-0.0039270003
36	0x3d6626df	0.056189414
37	0xbc43df68	-0.01195512
38	0x3badd7ca	0.005305265
39	0x3c552231	0.01300864
40	0x3cbdd2c7	0.023171796
41	0xbd9134a7	-0.07090121
42	0x3c3b127e	0.011417983
43	0xbcbfdf29	-0.02342184
44	0xbccbc45b	-0.024873903
45	0x3d02703b	0.031845313
46	0xba574e20	-0.00082132407
47	0x3bef4aa1	0.0073025976
48	0x3e372ac1	0.17887403
49	0xbd154b24	-0.036448613
50	0xb9b2ebd4	-0.0003412651
51	0x3ce725bb	0.028216233
52	0xbcc44063	-0.023956483
53	0x3d4f153e	0.050557368
54	0xbc31031d	-0.010803965
55	0xbc9656e6	-0.018351983
56	0xbdaf9ff7	-0.08575433
57	0x3e85d2dd	0.26137438
58	0x3e29bbc7	0.16575538
59	0x3bd8dd3f	0.0066181715

decoder.fc_output.bias f4 [5]
0	0x3e3ce13f	0.184453
1	0x3ea6f1c9	0.32606342
2	0x3e4500e3	0.1923862
3	0x3ec33f6b	0.38134322
4	0x3e00f5e4	0.125938
