c2cvae/blood_alcohol_c2c.pth (torch, 4164 bytes, 10 tensors)

encoder.fc1.weight f4 [4, 6]
00000000: bf15 df3a 7641 2b3b c5fa 093a dc59 27bb
00000010: 6679 9d37 a137 f9bd 1a7a c63a de24 053b
00000020: 66c0 283a 156f 1bbb b033 5637 7467 583e
00000030: b83f 49b9 aa83 a038 b31f 79b9 8894 8ab9
00000040: f085 7cb7 892a 2ebe 0af9 4d8a e39c 508a
00000050: df66 5b8a 92ab 578a 73b9 5b8a 1a8f 548a
0.0017020031 0.0026131547 0.0005263503 -0.0025535738 1.8772389e-05 -0.121688135 0.001514259 0.0020316164
0.0006437361 -0.0023717333 1.2767428e-05 0.21133214 -0.00019192591 7.653919e-05 -0.000237583 -0.00026432076
-1.5051555e-05 -0.17008413 -9.91723e-33 -1.0044343e-32 -1.0563814e-32 -1.0384142e-32 -1.05793456e-32 -1.0234343e-32

encoder.fc1.bias f4 [4]
00000000: f058 923e 7551 fa3e 93b3 043e d34c 568a
0.2858348 0.48890272 0.12959127 -1.0318174e-32

encoder.fc_mu.weight f4 [3, 4]
00000000: d092 52bd f603 97bc 51ea 953c a804 4e8a
00000010: 63d1 0a3e 8afd e23d 9afb 5a3d 7a46 4b0a
00000020: 1d98 99be dd96 c2be 1249 adbe 6722 5e8a
-0.051409543 -0.018434506 0.018300207 -9.919415e-33 0.13556437 0.11083515 0.053462602 9.78735e-33
-0.29998866 -0.38005725 -0.3384481 -1.06953816e-32

encoder.fc_mu.bias f4 [3]
00000000: 7e9e ae3c 9d64 ccbd fe6b a13e
0.02131581 -0.09980128 0.31527704

encoder.fc_logvar.weight f4 [3, 4]
00000000: bc62 483e 4ebc 043c 1c1c 2fbe 1bfb e709
00000010: 25ac a7be de6a adbe c2e9 7abe 08d1 4b0a
00000020: 3361 13bf c0b4 45be eec2 673e 666f 4a8a
0.19568914 0.008101536 -0.17100567 5.5847366e-33 -0.32748523 -0.33870596 -0.24503234 9.813409e-33
-0.5757019 -0.19307232 0.22632954 -9.746898e-33

encoder.fc_logvar.bias f4 [3]
00000000: 545b 1abd dfe8 943e 511e 6b3e
-0.037684754 0.29083917 0.22960784

decoder.fc2.weight f4 [4, 5]
00000000: 7a1b c23e af32 7a3e 3f10 063e 9561 8ebd
00000010: 4cae 4d3e cb1d 573d a44c 673e 87ee a83d
00000020: f67e cd3d 26ca 913e 5c79 8b3e 9201 fabd
00000030: 5d2b c5bb 768c 65be 9c0e 7fbe 2a5e 213e
00000040: 78cf 5b3d e0ff 1a3d 0377 71bd ded9 b73c
0.37911588 0.24433397 0.13092135 -0.06952206 0.2008602 0.052518647 0.2258783 0.082486205
0.100339815 0.2847454 0.27241027 -0.12207331 -0.006017132 -0.22416863 -0.24907917 0.15758577
0.053664654 0.037841678 -0.05895139 0.022442754

decoder.fc2.bias f4 [4]
00000000: 4021 29be ff45 49bf b748 24bd d2e5 453e
-0.1651659 -0.7862243 -0.04010841 0.1932595

decoder.fc1.weight f4 [4, 4]
00000000: fa6b 40be 08c4 533e 594b d03d 32ad 553e
00000010: 019a 9abe 1898 d33e d6ae 753e 92ab 333e
00000020: 59a0 be3d 0535 e9bd ea1c 7bbd c194 a8bd
00000030: efed 85b8 26e1 a63d 23fd a13d 9081 27be
-0.1879119 0.20680249 0.101706214 0.2086685 -0.3019562 0.41326976 0.23992476 0.17545918
0.09307928 -0.11387066 -0.06130687 -0.082314976 -6.386253e-05 0.081484124 0.0790961 -0.16358018

decoder.fc1.bias f4 [4]
00000000: 1ddb c23d 0030 803e 0999 77bd 1939 cb3d
0.09514449 0.2503662 -0.06044868 0.09923
