c2cvae/default_credit_card_c2c.pth (torch, 6040 bytes, 10 tensors)

encoder.fc1.weight f4 [10, 12]
000000 aa de 57 8a 74 b8 51 0a c1 63 4b 0a 8d 3b 56 8a
       -1.0393752e-32 1.0097676e-32 9.792856e-33 -1.03149255e-32
000010 ac 71 59 0a 4d 81 5b 0a 2e 28 68 0a ee 47 51 0a
       1.0469549e-32 1.0568785e-32 1.1177951e-32 1.00765124e-32
000020 5c 17 4e 0a 5c c7 54 0a c0 bf 9c 3d b8 40 96 ba
       9.9229326e-33 1.0244924e-32 0.07653761 -0.001146338
000030 c6 4f 5d 8a d8 10 56 8a 92 d8 54 0a 66 88 4d 8a
       -1.0655767e-32 -1.0306893e-32 1.0248161e-32 -9.896045e-33
000040 4e 55 57 8a c9 8d 58 8a b6 88 47 0a ec c3 48 0a
       -1.03679175e-32 -1.04266885e-32 9.607214e-33 9.6664985e-33
000050 57 3b 45 8a 37 04 59 0a 31 bc 91 3d 35 b4 a1 bd
       -9.4963656e-33 1.0448963e-32 0.07115973 -0.078957
000060 ff 0c 4e 8a 81 88 48 8a e9 9a 60 8a b0 40 55 8a
       -9.9209835e-33 -9.655323e-33 -1.0814343e-32 -1.0267743e-32
000070 2a 13 71 8a 4a b0 47 0a 22 77 71 0a a5 34 58 0a
       -1.1607332e-32 9.614658e-33 1.1626134e-32 1.0409923e-32
000080 d6 12 5b 0a 40 7f 4e 0a 6b 8c 49 8a 2f f3 1e 8a
       1.0548009e-32 9.942472e-33 -9.704208e-33 -7.653161e-33
000090 c9 7c 54 8a 61 d4 4a 8a a4 1d 61 8a f8 83 55 0a
       -1.0230898e-32 -9.76589e-33 -1.0838931e-32 1.02803975e-32
0000a0 9b b2 50 0a 5c 54 57 8a d3 f4 4e 8a 30 86 4d 0a
       1.0048428e-32 -1.036774e-32 -9.9645855e-33 9.895629e-33
0000b0 6b b5 49 0a 37 dd 53 0a 74 58 6b bd 81 7e af 3c
       9.711919e-33 1.0200886e-32 -0.057457402 0.021422626
0000c0 a9 df 5f 0a 5e 77 56 8a 54 43 57 8a f2 75 44 8a
       1.0779125e-32 -1.0326176e-32 -1.03645365e-32 -9.45924e-33
0000d0 89 26 5c 0a 4b 94 55 0a 99 6e 44 0a 61 a5 6c 8a
       1.0599862e-32 1.0283468e-32 9.457858e-33 -1.1394091e-32
0000e0 e1 08 4a 0a 04 c0 5a 0a b3 88 90 3c 80 fd 80 bd
       9.727616e-33 1.0532432e-32 0.017643308 -0.06298351
0000f0 ad c4 4c 0a b9 cc 59 8a 76 3a 5a 8a c5 4d 57 8a
       9.859233e-33 -1.0486674e-32 -1.05073135e-32 -1.03665e-32
000100 9f 28 58 0a 91 6d 59 8a a4 6c 47 8a d8 3a 47 8a
       1.0407662e-32 -1.0468777e-32 -9.6019345e-33 -9.592569e-33
000110 29 69 53 8a 62 9b 4f 0a 91 f7 b8 bb c0 da 96 3c
       -1.0179059e-32 9.995912e-33 -0.0056447466 0.018414855
000120 42 3a 5a 8a 75 82 58 0a 69 65 51 8a bb 06 56 8a
       -1.0507275e-32 1.0424558e-32 -1.0082057e-32 -1.0304991e-32
000130 91 e4 53 8a 61 7c 59 8a 6c 71 45 8a fe c9 45 8a
       -1.0202269e-32 -1.0471563e-32 -9.506537e-33 -9.5231955e-33
000140 ae 7a 5e 8a 65 4f 4c 0a 78 15 3e bd 58 b1 4d 3d
       -1.0711985e-32 9.837175e-33 -0.046407193 0.050217956
000150 9a 04 4e 8a 18 ad 4c 0a 63 b7 46 0a e2 ff 48 0a
       -9.919405e-33 9.854798e-33 9.5678444e-33 9.677776e-33
000160 bd 2a 5c 8a 5f b0 67 8a 02 15 59 8a 0c 38 59 0a
       -1.0600653e-32 -1.1155417e-32 -1.0452121e-32 1.0458711e-32
000170 de 54 52 8a 32 35 5c 8a 03 88 75 3d 68 20 80 bd
       -1.0127094e-32 -1.06026196e-32 0.059944164 -0.06256181
000180 2f ec 58 8a 25 a0 59 8a a6 0b 57 0a e3 3b 5b 8a
       -1.0444443e-32 -1.047829e-32 1.0354064e-32 -1.055573e-32
000190 d9 b5 52 0a 4e a3 4f 0a b3 e3 55 8a 2a 00 4c 0a
       1.0145334e-32 9.997402e-33 -1.02984024e-32 9.8222736e-33
0001a0 79 e3 53 8a f0 b9 54 8a e5 82 58 bd 12 02 6d 3d
       -1.0202063e-32 -1.02424e-32 -0.052859206 0.057863303
0001b0 96 74 68 8a b9 ea 5a 0a 2c e5 57 0a b8 2e 4b 0a
       -1.1192321e-32 1.05404646e-32 1.0394976e-32 9.782881e-33
0001c0 ea d7 4d 0a 51 bb 46 0a a8 56 54 8a b9 5f 48 0a
       9.911e-33 9.5685835e-33 -1.0223727e-32 9.647653e-33
0001d0 99 b0 50 0a 97 b2 73 8a 3c b9 49 0a c0 74 80 3c
       1.004805e-32 -1.17336134e-32 9.712637e-33 0.01568067

encoder.fc1.bias f4 [10]
000000 5b c0 9c bd b9 ad 74 3e 24 76 54 8a d6 55 6b 3d
       -0.076538764 0.23894395 -1.02296485e-32 0.057454906
000010 d3 fb 80 3d 10 6b cb bc 5d f0 58 3d fc 63 73 3e
       0.06298032 -0.024831325 0.052963603 0.2376861
000020 22 84 81 3e e3 f3 01 bd
       0.25296122 -0.03172673

encoder.fc_mu.weight f4 [9, 10]
000000 8b 0f e1 3c 0f 0e 45 bc f1 9b 4e 0a 3c c4 ca 3c
       0.027473232 -0.012027278 9.9478685e-33 0.024751775
000010 c2 c9 2b bc 00 c5 20 be e2 49 e5 3d 66 44 52 3e
       -0.0104851145 -0.1570015 0.11195733 0.20533904
000020 99 06 b4 3d a5 ec 57 b9 56 4f 9f 3d cc a5 9d 3c
       0.08790321 -0.00020592155 0.07778804 0.019244097
000030 25 08 5e 8a 14 88 82 bc 84 e6 ef 3c 84 93 3f 3d
       -1.0690443e-32 -0.015934028 0.029284723 0.04677154
000040 77 5f 07 3e 74 2e 73 3e 3d 10 53 3e bc d7 d1 b8
       0.1322001 0.23748189 0.20611663 -0.0001000608
000050 71 92 12 bc 1d 63 21 3d 89 fa 4a 8a 8e 5a 89 3c
       -0.008946047 0.039401162 -9.773067e-33 0.016766813
000060 cc 14 4b bc 2f c8 8a 3b fd c6 42 3e ad e5 cf 3d
       -0.012395095 0.0042352895 0.1902122 0.10151229
000070 4e 08 ae bc b3 7b b2 ae e0 69 15 bb e1 16 22 bd
       -0.021244194 -8.116476e-11 -0.0022798702 -0.0395726
000080 f2 f6 59 0a 5b b3 e7 bb 97 05 5c 3b 79 50 a3 3b
       1.0494615e-32 -0.0070709414 0.0033572668 0.0049839583
000090 12 f4 fc bd 8d d0 b0 bd df db 0a bd df b2 b5 b3
       -0.1235124 -0.08633528 -0.03390109 -8.461006e-08
0000a0 97 26 99 bd fa b5 6a 3d ca 70 54 0a 3e ac b6 bb
       -0.074780636 0.057302453 1.0228642e-32 -0.005574732
0000b0 0e 0b 36 bc ad fe 27 3e 88 e6 42 3e b2 e5 37 be
       -0.011111034 0.16405745 0.19033253 -0.17958716
0000c0 8e 1a 95 be e6 3f 4a 3b 4c f2 e8 3d ff 9a 4b bd
       -0.29121822 0.003086084 0.113743395 -0.049708363
0000d0 b2 b3 4d 89 1c 9a e2 bc 4f dc 55 3d 56 d6 fd bd
       -2.476047e-33 -0.027661376 0.052212056 -0.12394397
0000e0 4c 3e 73 3e 52 a7 ce 3e 90 11 6b 3e d1 63 61 bb
       0.23754233 0.4036203 0.22955918 -0.003439177
0000f0 3a 8f f6 bb 01 59 2c bd 9e 86 5f 8a fe a7 fd bb
       -0.007524398 -0.04207707 -1.0762378e-32 -0.0077409735
000100 fd 39 04 bc 7d bc 4f bd c4 3d f2 3d a4 ae 5c be
       -0.008070466 -0.050716866 0.11828187 -0.21550995
000110 e2 4f cc be e0 37 71 b3 84 a6 d1 3c cd c2 28 be
       -0.39904696 -5.6163003e-08 0.025592096 -0.1648056
000120 3d 6c d3 89 23 89 a0 bc 8a 43 55 3c 53 02 2a be
       -5.089819e-33 -0.019596642 0.013016591 -0.16602449
000130 a6 76 43 3c 76 aa 0d be b7 16 ba be 82 54 c8 38
       0.011930143 -0.13834557 -0.36345455 9.552484e-05
000140 d1 ff 34 3d 5d 3e ab bd 35 25 58 8a 83 7d ba 3b
       0.044189278 -0.08361504 -1.04070196e-32 0.0056912317
000150 9e bd e0 bb 17 f8 1f 3e 2a 82 4e 3d 3c fb 29 bd
       -0.0068585416 0.15621983 0.050417103 -0.04149936
000160 c4 66 59 be 64 e5 a1 3a
       -0.21230608 0.0012351689

encoder.fc_mu.bias f4 [9]
000000 11 4c 99 bd 7f 05 f8 bd fa 58 1d bd 2f 76 39 3d
       -0.07485212 -0.12110423 -0.038414933 0.045278724
000010 63 ac bf 3d 84 26 20 be 07 aa 20 3e fe cb 27 3e
       0.09359052 -0.15639693 0.1568986 0.1638641
000020 3e d5 a5 3d
       0.08097313

encoder.fc_logvar.weight f4 [9, 10]
000000 4a bc 6f ba dc 0d 8f 3d 71 4a 5f 0a 15 48 4f bc
       -0.0009145184 0.06985065 1.075106e-32 -0.012651463
000010 ca de 7e 3c 50 7a cb b9 d5 c4 12 be b1 d6 46 3d
       0.015556047 -0.00038810307 -0.14332898 0.04854459
000020 b0 70 96 3e b7 8a 03 37 54 a8 60 3c f2 56 50 be
       0.2938285 7.8405055e-06 0.013712008 -0.20345667
000030 62 f7 69 09 a9 82 60 3b 10 63 17 3c c3 44 18 3d
       2.8162674e-33 0.0034257567 0.009239927 0.03717495
000040 37 d4 76 be ed b2 78 3d 27 16 c5 3b 29 fe 09 b0
       -0.24104391 0.060717512 0.0060146037 -5.0201493e-10
000050 fe ca cc 3a 85 9f 4b 3d 1e d1 f6 09 6b 92 6e 3b
       0.0015624461 0.049712677 5.9419e-33 0.003640319
000060 35 94 d4 bb 6d fd 0d 3c bf ed 33 3e 9c 97 ff 3b
       -0.006487394 0.008666378 0.17571162 0.0078000557
000070 e6 57 ad bd 46 0f 35 31 be 85 68 b8 65 36 00 be
       -0.08464031 2.6347649e-09 -5.5437667e-05 -0.1252075
000080 14 ec 60 8a 29 34 3d bc 82 6d a9 3c da c6 74 38
       -1.0829609e-32 -0.0115480805 0.0206821 5.835933e-05
000090 0c 8f d0 bd e5 8f 9b 3d 85 cb d8 3c 93 72 a4 24
       -0.10183534 0.07595805 0.026464233 7.131776e-17
0000a0 d8 75 95 3c 81 fd d1 ba 4f 12 52 8a 7d f3 20 3c
       0.018244669 -0.0016020985 -1.0114576e-32 0.009823677
0000b0 f8 3f fb 3b 4f 2b da 3a 06 ce f6 3d af 85 89 3e
       0.007667538 0.0016644987 0.120510146 0.26859805
0000c0 51 eb 40 3e 49 57 60 22 cc 22 fa 3c 14 c7 e4 bd
       0.18839766 3.040387e-18 0.03053417 -0.11170784
0000d0 e2 fe 4f 8a 40 4a 2b bd 98 72 0f 3d 93 e7 db bd
       -1.00146256e-32 -0.041818857 0.035021394 -0.10737529
0000e0 11 06 87 3d 77 f0 c2 bd a7 9a 84 be bb f7 b3 b6
       0.06592954 -0.09518521 -0.2589924 -5.3634553e-06
0000f0 38 a8 32 3b a5 89 28 3c 25 38 63 8a e8 14 92 ba
       0.002726091 0.010286723 -1.0940212e-32 -0.0011145147
000100 4e a6 48 3a 83 c8 c6 3c 9c 06 06 3d dd b4 bb 3b
       0.0007654176 0.024265533 0.032721147 0.0057283477
000110 8c db e2 bb b2 fc fd ad 5d 1a 33 3c 66 c6 9c bd
       -0.0069231447 -2.887499e-11 0.010931578 -0.07655029
000120 c4 63 5a 8a c5 67 46 bd d1 27 03 3d d3 bd 85 3d
       -1.0515082e-32 -0.048438806 0.032020394 0.06530347
000130 2b 53 b1 be ab e1 97 be 55 39 93 bd ef f3 bd b2
       -0.34633765 -0.29664358 -0.071886696 -2.2113424e-08
000140 9e 1f 0c bd 39 c7 18 be 93 97 eb 89 0c ee 97 3c
       -0.03420984 -0.14919747 -5.671673e-33 0.018546127
000150 0e 7f 50 bc 57 50 10 bd 1f d9 a8 bd 02 c2 56 3a
       -0.012725605 -0.035232868 -0.082445376 0.00081923616
000160 b8 83 1b be 78 96 d2 36
       -0.15186965 6.2760046e-06

encoder.fc_logvar.bias f4 [9]
000000 b0 fb c2 bd 82 d8 36 3d 13 c5 ba ba 0f 73 22 3c
       -0.09520662 0.04464007 -0.0014249407 0.009915127
000010 bd c2 f2 bd 79 68 e4 3d 5e ea 77 bb 9d 1b 01 3e
       -0.1185355 0.11152739 -0.0037828903 0.1260819
000020 26 ac 9f 3d
       0.077965066

decoder.fc2.weight f4 [10, 11]
000000 95 04 ce bd 62 3e 4f bd b2 77 f6 bd 81 66 29 be
       -0.10059468 -0.050596602 -0.12034549 -0.16543008
000010 3d 39 5d 3e f5 a3 87 be 05 7a 56 3d 7e c5 38 3e
       0.21603866 -0.26492277 0.05236246 0.18044087
000020 8e 09 48 3e 7c 3b 63 3e da f7 f9 3b 7a ce b3 bd
       0.19534895 0.2219066 0.007628423 -0.08779617
000030 7a b4 b8 3c 30 cb 50 be c0 da 8c 3e 07 2f 3c be
       0.022546995 -0.2039001 0.27510643 -0.18377315
000040 63 c8 cf bd 9f 52 23 3e 34 d5 5c bd 1c 36 29 be
       -0.101456426 0.15949486 -0.053914264 -0.16524547
000050 6f d9 be bc 4a 67 8a 3b ee 06 8d 3d c5 75 d7 bd
       -0.02329704 0.004223739 0.06886087 -0.1052051
000060 81 03 dc bd 9d da 93 3e 67 20 00 be 5e 32 16 be
       -0.10742856 0.28877726 -0.1251236 -0.14667651
000070 02 ff be 3d e9 97 f7 bd 10 41 41 be 02 86 a9 bd
       0.09325983 -0.120895214 -0.18872476 -0.08277513
000080 e4 86 c5 3d 86 91 25 bd 0b bf a2 3d fc 13 4b bd
       0.09644869 -0.040421985 0.07946595 -0.049579605
000090 7d 65 34 3e cd 7b 49 be 2a 08 e5 3d 4b 33 6a 3d
       0.1761684 -0.19676133 0.11183198 0.057177823
0000a0 f3 83 b0 bd 83 96 17 be 19 fb c7 bd ca 3d 1b bd
       -0.08618917 -0.1480351 -0.0976469 -0.037900724
0000b0 ff dc b9 bc 0c a1 53 3c 9e c0 f6 3d 97 cb 26 be
       -0.022688387 0.012916815 0.120484576 -0.16288601
0000c0 a1 c3 14 3c 73 d9 15 3e 29 3c 60 bd ce 4c 19 bd
       0.009079845 0.14633732 -0.054744873 -0.037426762
0000d0 09 ff af 3d 87 e4 1d bd 8c 12 ca bd 32 4e 99 3d
       0.08593566 -0.03854802 -0.09866819 0.07485618
0000e0 34 6e bf bb d3 e0 16 3c 43 69 89 bd 3d 28 30 3e
       -0.0058419947 0.009208876 -0.0670953 0.1720285
0000f0 8b 5d cb bd f7 4e 8c bd 37 29 0d 3e 8b 0c 86 3d
       -0.09929951 -0.06850999 0.13785253 0.06545361
000100 52 a6 d9 3d 30 c3 e1 3d 05 60 1b be 39 8a 2c 3e
       0.10627426 0.11023557 -0.15173347 0.16849603
000110 67 df 7b bd 7b 7c e0 3d 7c d5 79 be 32 03 57 3e
       -0.06149235 0.10961243 -0.24397844 0.20997313
000120 a7 07 a4 3d 2e 49 8c bd 3e 8d d9 bd 3e 8d ad bd
       0.08009272 -0.068498954 -0.10622643 -0.084742054
000130 8c 61 11 be 7b d9 ea bc fe 10 7e 3e eb be 1f bd
       -0.14197367 -0.028668156 0.2481117 -0.039000433
000140 19 83 1a 3d e8 d6 18 bc a8 08 14 3e ee 5d 5e bd
       0.03772268 -0.009328581 0.14456427 -0.054288797
000150 30 4e 36 3e 1d 6a 3c bd 59 55 91 3d 8b e1 28 3d
       0.17803264 -0.045999635 0.07096357 0.04123072
000160 66 21 88 be 99 04 29 3e 4c dc e0 bd 24 ea 25 be
       -0.2658798 0.1650566 -0.10979518 -0.16202599
000170 70 3b ff bb 3c 07 58 3d 25 2c aa 3d 4b b3 03 3e
       -0.007789068 0.052741274 0.08309201 0.12861364
000180 cc 99 13 3e 18 b5 08 3e ab d2 3a be d2 d2 fd bd
       0.14414138 0.13350332 -0.18244426 -0.123937264
000190 f4 12 3e be 6a 62 06 bc e1 6b aa bd 40 25 9f bd
       -0.18561918 -0.008202175 -0.083213575 -0.07770777
0001a0 cb 12 9c bd e3 e2 00 3e a6 80 4c be f5 69 a8 3d
       -0.07620772 0.1258655 -0.1997095 0.08223335
0001b0 29 ec 8d bd 49 0e 39 be
       -0.069298096 -0.18071856

decoder.fc2.bias f4 [10]
000000 80 63 10 3e 2c d0 02 be 77 68 9a be b3 ce 32 be
       0.14100456 -0.12774724 -0.30157825 -0.17461662
000010 b5 bd 06 be 56 7d b5 3c f0 cd 32 bc 3b be b9 3e
       -0.13158305 0.022154491 -0.010913357 0.36277947
000020 20 80 2c be 76 23 df be
       -0.16845751 -0.43581742

decoder.fc1.weight f4 [10, 10]
000000 60 df 2c 3e e0 29 e1 bd 39 ef 95 bd 12 30 81 3e
       0.16882086 -0.10994315 -0.07321019 0.25231987
000010 f5 c6 9a bd cd 3e e9 bd bd 63 4b bd 95 84 0f 3e
       -0.07557479 -0.113889314 -0.049655665 0.1401542
000020 ae 74 14 be 1e b3 d0 3d 94 62 25 3d 48 3f 39 3e
       -0.14497635 0.10190414 0.040377215 0.18090546
000030 67 65 64 be 32 41 8f be 3c a5 4e bd 4c 8d 70 bd
       -0.22304307 -0.27979428 -0.05045055 -0.0587285
000040 ff de 80 3e 59 22 35 be 76 d3 26 be 71 dc 0b be
       0.25170133 -0.17688884 -0.16291603 -0.1365831
000050 2b 49 9f 3e 7f 64 ad bd f8 5a d0 bd e5 16 36 3e
       0.3111051 -0.08466434 -0.10173601 0.17782171
000060 01 52 94 b9 8d 2b ed bd 78 05 1c 3e eb cd e6 3d
       -0.00028289857 -0.11580572 0.15236461 0.112697445
000070 cb 6e 9b be f2 b6 7c 3d 05 d8 e5 3d f3 b1 36 3e
       -0.30357966 0.061697908 0.11222843 0.1784132
000080 21 46 03 be bf 32 3b 3c 28 9e 2c 3e 44 ab 47 be
       -0.12819721 0.011425673 0.16857207 -0.19498926
000090 3b 33 61 bd 7b cb a1 bd 0a 31 c1 bd 41 31 1c be
       -0.054980498 -0.07900139 -0.094331816 -0.15253164
0000a0 0c 01 ab bc 7d 4d 5d be 03 a9 45 3e a3 b6 b4 3d
       -0.020874523 -0.2161159 0.19302754 0.08823898
0000b0 9c e2 99 bd 63 a8 6b bd bb ad cb bd 57 eb e6 3d
       -0.075139254 -0.057533633 -0.09945246 0.11275356
0000c0 a9 8f f1 3d 57 2b 8e 3d 7c 3f dd bc 24 3e 12 bd
       0.11794979 0.0694186 -0.02700781 -0.035703793
0000d0 14 76 4d 3e 09 80 b2 bc f2 4c 2e 3e 66 4c 48 3e
       0.20064574 -0.021789568 0.1702154 0.19560394
0000e0 8a 2d 49 3d 53 88 d2 3c 21 ea 95 3d 15 cc f1 3c
       0.049115695 0.02569977 0.07320047 0.02951626
0000f0 c7 1d 23 3e f2 19 bf 3d 38 dc 48 bd f4 99 25 be
       0.15929328 0.093311206 -0.049038142 -0.1617201
000100 81 0b 12 3e c3 8a 20 3e be ac b4 3e ea 96 ff bc
       0.14262201 0.15677933 0.35288042 -0.031199891
000110 40 50 78 be a7 ad a9 bb 65 96 49 bd cb 05 46 3c
       -0.24249363 -0.0051781717 -0.049215693 0.012086342
000120 de b1 10 3c 5f 00 aa be f2 23 c2 bd f4 13 03 be
       0.008831469 -0.33203408 -0.09479512 -0.1280058
000130 96 68 23 3e 0c 25 e4 bd ce d9 92 3c b4 99 fb bd
       0.15957865 -0.11139879 0.017926123 -0.12285176
000140 63 b7 cd bb 91 e4 0e bd 42 25 93 3d e0 cf 70 3e
       -0.006277965 -0.034885947 0.07184841 0.23516798
000150 4d 59 c0 3d e3 9e 9b 3d 17 97 35 be 7a 90 ab 3d
       0.09392033 0.075986646 -0.17733417 0.08377166
000160 85 60 8b 3d 96 53 95 3d cd de 1f be 45 33 55 bb
       0.06805519 0.072913334 -0.15612336 -0.003253178
000170 e0 d1 7a 3b 97 52 93 bc fb 91 bd bd 2b 66 c2 3d
       0.0038272068 -0.017983718 -0.09256359 0.09492143
000180 8f 07 18 bd 25 32 20 be 98 1a 2d 3e df ea 8e bd
       -0.037116583 -0.15644129 0.16904676 -0.06978392

decoder.fc1.bias f4 [10]
000000 c9 2b 60 bd d1 2b fe bd 75 2c ec bd d7 bd 6b bd
       -0.054729257 -0.12410701 -0.11531917 -0.057554092
000010 e3 df 46 3d 87 35 b9 3d 4e d8 87 bd 23 df 84 bd
       0.04855336 0.09043413 -0.06633054 -0.064878725
000020 a5 78 a5 3d 8f e7 74 3d
       0.08079652 0.059791144
