c2cvae/default_credit_card_vae.pth (torch, 9176 bytes, 10 tensors)

encoder.fc1.weight f4 [16, 23]
0	0x8a575059	-1.0366985e-32
1	0x8a50891a	-1.0040622e-32
2	0x8a44710b	-9.458318e-33
3	0x8a5bedd7	-1.0589199e-32
4	0x8a4920ac	-9.683943e-33
5	0x8a461863	-9.53794e-33
6	0x8a5bbfed	-1.0580564e-32
7	0x8a549d74	-1.0237042e-32
8	0x8a4530cb	-9.494382e-33
9	0x8a4b2ca8	-9.7824934e-33
10	0x8a5892cc	-1.0427631e-32
11	0x0a5cd918	1.06334455e-32
12	0x8a5346e2	-1.0172612e-32
13	0x8a5889a1	-1.0425907e-32
14	0x8a739997	-1.17289115e-32
15	0x8a5392de	-1.0186903e-32
16	0x0a5b95f7	1.0572672e-32
17	0x8a5bc16e	-1.05808465e-32
18	0x0a508008	1.0038916e-32
19	0x8a5a6210	-1.0514762e-32
20	0x0a568890	1.032941e-32
21	0x0a5a156b	1.05003465e-32
22	0x8a681e5d	-1.11761044e-32
23	0x0a4d0261	9.8708384e-33
24	0x8a54badf	-1.0242575e-32
25	0x8a55b4e4	-1.0289599e-32
26	0x8a503001	-1.0023864e-32
27	0x8a4ae46e	-9.768909e-33
28	0x8a452268	-9.491676e-33
29	0x8a4e7567	-9.94062e-33
30	0x8a588410	-1.042486e-32
31	0x8a59be97	-1.0484016e-32
32	0x8a4f5410	-9.982498e-33
33	0x8a44c944	-9.4749106e-33
34	0x0a4be05f	9.816294e-33
35	0x8a52ea6f	-1.0155224e-32
36	0x8a5b544a	-1.05603195e-32
37	0x8a49bdda	-9.713505e-33
38	0x0a53e3bf	1.0202115e-32
39	0x0a4cd7e5	9.862848e-33
40	0x0a5f5d51	1.075461e-32
41	0x0a5b688f	1.0564132e-32
42	0x8a66ceb5	-1.11129745e-32
43	0x0a5e38b2	1.06995744e-32
44	0x8a4e67cc	-9.938061e-33
45	0x0a655978	1.1042776e-32
46	0x0a49bc2f	9.7131914e-33
47	0x8a495ed6	-9.6956346e-33
48	0x8a52abf5	-1.0143474e-32
49	0x8a4a132c	-9.729552e-33
50	0x0a4a5ce8	9.74342e-33
51	0x8a59ac5a	-1.0480586e-32
52	0x8a521987	-1.01159334e-32
53	0x8a5b080d	-1.05459806e-32
54	0x8a4c792e	-9.845034e-33
55	0x8a521c47	-1.01164506e-32
56	0x8a547937	-1.0230227e-32
57	0x0a47514f	9.596794e-33
58	0x8a736c34	-1.1720375e-32
59	0x8a51e7ce	-1.01065816e-32
60	0x8a5a5968	-1.0513134e-32
61	0x0a4f542f	9.982521e-33
62	0x0a5b2ad3	1.0552521e-32
63	0x8a67998f	-1.11511266e-32
64	0x8a6a23b9	-1.1273409e-32
65	0x0a68ae87	1.12032186e-32
66	0x0a5cbaa4	1.0627718e-32
67	0x8a5dc21b	-1.067727e-32
68	0x8a631a4f	-1.09346005e-32
69	0x8a55aee6	-1.0288472e-32
70	0x8a46c810	-9.570981e-33
71	0x8a5a7c93	-1.0519748e-32
72	0x8a4c2ab4	-9.830274e-33
73	0x8a552691	-1.02628305e-32
74	0x8a575d04	-1.0369368e-32
75	0x8a51f9f8	-1.0109998e-32
76	0x8a4ea5d4	-9.949728e-33
77	0x8a57a355	-1.0382593e-32
78	0x8a476e8d	-9.602294e-33
79	0x8a496cb0	-9.69824e-33
80	0x0a5956c3	1.0464488e-32
81	0x8a709d90	-1.1585214e-32
82	0x0a601843	1.0789771e-32
83	0x0a5b64e2	1.05634404e-32
84	0x8a715c81	-1.1621126e-32
85	0x0a5944d5	1.0461116e-32
86	0x8a69c314	-1.1255232e-32
87	0x8a60dc89	-1.0826686e-32
88	0x8a73f752	-1.174654e-32
89	0x8a619b2a	-1.0862539e-32
90	0x8a62f33f	-1.0927254e-32
91	0x8a6b4a2e	-1.132879e-32
92	0x8a6217ce	-1.0885981e-32
93	0x8a576fb2	-1.0372881e-32
94	0x8a5b64af	-1.0563403e-32
95	0x8a4ed790	-9.959082e-33
96	0x8a08d8ae	-6.588915e-33
97	0x8a5a03ae	-1.049701e-32
98	0x8a50164f	-1.00190315e-32
99	0x8a556953	-1.0275386e-32
100	0x8a4a74d3	-9.7479184e-33
101	0x8a52100f	-1.01141525e-32
102	0x8a4bea60	-9.8181755e-33
103	0x8a55dee1	-1.0297496e-32
104	0x8a4e86dd	-9.943904e-33
105	0x8a64dead	-1.1019681e-32
106	0x8a4c94e8	-9.850249e-33
107	0x8a56eb88	-1.0348024e-32
108	0x8a6cb499	-1.1396953e-32
109	0x8a6c5f22	-1.1380879e-32
110	0x8a6fd7e2	-1.15480345e-32
111	0x8a5df3da	-1.0686626e-32
112	0x8a569a92	-1.0332797e-32
113	0x8a4df926	-9.9172506e-33
114	0x8a52229d	-1.0117642e-32
115	0x0a5b3baf	1.0555692e-32
116	0x8a54ffda	-1.0255549e-32
117	0x8a4cee9b	-9.8671194e-33
118	0x8a552477	-1.0262435e-32
119	0x8a4bf138	-9.819463e-33
120	0x8a5290e5	-1.0138384e-32
121	0x8a5a54cd	-1.05122675e-32
122	0x8a498bf5	-9.704121e-33
123	0x8a4d2952	-9.8781625e-33
124	0x8a4c6524	-9.841265e-33
125	0x8a4c51be	-9.837617e-33
126	0x8a4ce8bd	-9.866016e-33
127	0x8a5499af	-1.02363334e-32
128	0x8a483054	-9.638739e-33
129	0x8a5031f1	-1.0024229e-32
130	0x8a59efc2	-1.04932634e-32
131	0x8a58d095	-1.04392516e-32
132	0x8a6509e7	-1.1027811e-32
133	0x8a5505e6	-1.0256686e-32
134	0x8a661464	-1.1077932e-32
135	0x8a65c2db	-1.1062597e-32
136	0x8a4bf7cf	-9.820702e-33
137	0x8a4d616f	-9.888716e-33
138	0x0a5dc761	1.0678262e-32
139	0x8a53e20b	-1.02017944e-32
140	0x8a5168c3	-1.00826874e-32
141	0x8a4e5c72	-9.935926e-33
142	0x0a567334	1.03253925e-32
143	0x8a58de50	-1.0441834e-32
144	0x8a503ef6	-1.0026677e-32
145	0x8a573466	-1.03617285e-32
146	0x8a549435	-1.0235303e-32
147	0x8a479ae0	-9.61063e-33
148	0x8a4c8829	-9.8478516e-33
149	0x0a5d30ed	1.0649965e-32
150	0x0a53f300	1.0204984e-32
151	0x8a6f7a14	-1.1530392e-32
152	0x8a608408	-1.081004e-32
153	0x0a4cdbc6	9.8635775e-33
154	0x8a4ca2f2	-9.852889e-33
155	0x8a49551c	-9.693805e-33
156	0x8a59c4e0	-1.0485198e-32
157	0x8a716fef	-1.162478e-32
158	0x8a5eafd2	-1.0721979e-32
159	0x8a5f4621	-1.0750249e-32
160	0x8a4bd9e2	-9.815074e-33
161	0x8a4e5117	-9.9337905e-33
162	0x8a57db77	-1.039315e-32
163	0x8a514b84	-1.0077187e-32
164	0x8a569f37	-1.033367e-32
165	0x0a4c47e0	9.835761e-33
166	0x8a552da8	-1.0264164e-32
167	0x8a542c88	-1.0215804e-32
168	0x8a50b0bc	-1.0048076e-32
169	0x8a4b1313	-9.777682e-33
170	0x8a4bcba5	-9.812396e-33
171	0x8a4a0933	-9.7276764e-33
172	0x8a5660b7	-1.0321915e-32
173	0x8a471e76	-9.5872305e-33
174	0x8a46f916	-9.580201e-33
175	0x0a585d4c	1.0417569e-32
176	0x0a589bf9	1.0429357e-32
177	0x0a556c88	1.02759894e-32
178	0x8a5ea3c6	-1.07197136e-32
179	0x8a5fcfe9	-1.0776163e-32
180	0x8a5d7efd	-1.0664647e-32
181	0x8a561146	-1.0306974e-32
182	0x0a5c8332	1.061729e-32
183	0x8a5fe04d	-1.0779246e-32
184	0x8a4f552d	-9.982707e-33
185	0x8a659664	-1.1054234e-32
186	0x0a5c9ee6	1.06225e-32
187	0x8a6432bb	-1.0987342e-32
188	0x8a5b9fc0	-1.0574512e-32
189	0x8a512af0	-1.00710596e-32
190	0x8a5a705e	-1.0517452e-32
191	0x8a62cf90	-1.0920542e-32
192	0x0a5b719b	1.0565833e-32
193	0x0a5c3b9d	1.0603827e-32
194	0x8a6f53b9	-1.1523178e-32
195	0x8a5e4cab	-1.0703331e-32
196	0x8a5c5dbc	-1.0610244e-32
197	0x8a4d42ee	-9.882979e-33
198	0x8a56b363	-1.0337464e-32
199	0x8a551be3	-1.0260822e-32
200	0x0a5d4df9	1.0655428e-32
201	0x8a459b85	-9.514455e-33
202	0x8a6e399e	-1.147012e-32
203	0x0a698afe	1.12446835e-32
204	0x0a683094	1.117953e-32
205	0x0a5b4d96	1.0559059e-32
206	0x8a62cd77	-1.0920148e-32
207	0x8a59250f	-1.045514e-32
208	0x8a4864e8	-9.648628e-33
209	0x8a5872ad	-1.042159e-32
210	0x8a49ec06	-9.722189e-33
211	0x8a54f482	-1.02534155e-32
212	0x8a44b30f	-9.470734e-33
213	0x8a5a06e5	-1.0497615e-32
214	0x8a4ae462	-9.7689e-33
215	0x8a4dce31	-9.909171e-33
216	0x8a519faf	-1.0093017e-32
217	0x8a58051e	-1.0400984e-32
218	0x8a556018	-1.027365e-32
219	0x8a524469	-1.0123999e-32
220	0x8a5bf2de	-1.0590145e-32
221	0x8a46c661	-9.570664e-33
222	0x8a5626e2	-1.0311038e-32
223	0x8a5b5638	-1.05606824e-32
224	0x0a630afc	1.0931718e-32
225	0x8a60ea74	-1.08293034e-32
226	0x0a6a6d7a	1.12872804e-32
227	0x0a56ad50	1.0336322e-32
228	0x8a659425	-1.1053812e-32
229	0x0a0e3602	6.847209e-33
230	0x8a4d769e	-9.8927004e-33
231	0x8a5bfeff	-1.0592426e-32
232	0x8a472972	-9.5892965e-33
233	0x8a5874be	-1.04219785e-32
234	0x8a672c0c	-1.113053e-32
235	0x8a44dccd	-9.478585e-33
236	0x8a543c0a	-1.0218721e-32
237	0x8a599044	-1.0475303e-32
238	0x8a56cc30	-1.03421286e-32
239	0x8a573186	-1.0361188e-32
240	0x8a4ce2b4	-9.864881e-33
241	0x8a5cd9fc	-1.0633613e-32
242	0x8a5c43c9	-1.0605364e-32
243	0x8a5020ec	-1.00210276e-32
244	0x8a4f0fa3	-9.9696284e-33
245	0x8a5a36b1	-1.05066045e-32
246	0x8a44c09e	-9.473284e-33
247	0x8a6847a1	-1.11838656e-32
248	0x8a5aa466	-1.0527238e-32
249	0x8a5dcdbb	-1.06794565e-32
250	0x8a5db8c0	-1.06755106e-32
251	0x8a64fe97	-1.1025684e-32
252	0x8a549f43	-1.02373825e-32
253	0x0a4fcc82	1.0005151e-32
254	0x8a5bb148	-1.0577809e-32
255	0x8a5453a9	-1.02231634e-32

encoder.fc1.bias f4 [16]
0	0x0a5031e7	1.0024221e-32
1	0x8a4eb669	-9.952847e-33
2	0x8a51d040	-1.01021514e-32
3	0x0a5aa6bf	1.052768e-32
4	0x8a4f4534	-9.979703e-33
5	0x0a569914	1.0332516e-32
6	0x0a547d69	1.0231016e-32
7	0x8a4afe21	-9.7737426e-33
8	0x0a5c0ba3	1.0594803e-32
9	0x0a4d2c12	9.87868e-33
10	0x8a5b55f3	-1.0560632e-32
11	0x8a5bda27	-1.0585496e-32
12	0x8a4c5617	-9.8384344e-33
13	0x0a554010	1.0267626e-32
14	0x0a59fc9e	1.0495682e-32
15	0x8a520ff6	-1.0114134e-32

encoder.fc2.weight f4 [10, 16]
0	0x0a4bdacd	9.815246e-33
1	0x8a507cf9	-1.00383405e-32
2	0x8a575646	-1.03681e-32
3	0x0a5dbb73	1.0676018e-32
4	0x0a4a204b	9.73202e-33
5	0x8a4a745e	-9.7478325e-33
6	0x0a575454	1.0367734e-32
7	0x8a5ba419	-1.057533e-32
8	0x8a5bcc02	-1.0582836e-32
9	0x8a4f65d0	-9.985836e-33
10	0x0a3e1c74	9.153519e-33
11	0x0a512795	1.00704285e-32
12	0x0a570344	1.0352488e-32
13	0x8a5b24ce	-1.0551389e-32
14	0x0a569020	1.0330832e-32
15	0x8a552d88	-1.02641404e-32
16	0x8a4aa2b0	-9.756544e-33
17	0x0a5591a4	1.0282969e-32
18	0x8a5931ab	-1.04575115e-32
19	0x0a5051e6	1.0030239e-32
20	0x8a56d55f	-1.0343856e-32
21	0x8a518775	-1.00884606e-32
22	0x8a4e9a58	-9.947568e-33
23	0x8a58289a	-1.0407658e-32
24	0x0a56bad5	1.03388644e-32
25	0x0a51f754	1.0109501e-32
26	0x0a55fbca	1.0302933e-32
27	0x0a45f4cc	9.531246e-33
28	0x0a4c0015	9.822258e-33
29	0x0a58cbbb	1.0438339e-32
30	0x8a5034fc	-1.0024801e-32
31	0x8a5c358d	-1.06026865e-32
32	0x8a5bea5e	-1.0588546e-32
33	0x0a5a2f35	1.0505197e-32
34	0x8a4ad287	-9.765542e-33
35	0x8a55d2bc	-1.0295212e-32
36	0x8a499542	-9.70587e-33
37	0x0a537c66	1.0182677e-32
38	0x0a5b5137	1.0559741e-32
39	0x8a4a1b14	-9.731039e-33
40	0x8a4cce2d	-9.86102e-33
41	0x0a5b6c79	1.0564868e-32
42	0x8a5a8e8b	-1.05231275e-32
43	0x8a4ae44c	-9.768884e-33
44	0x0a5291fd	1.01385896e-32
45	0x8a55b629	-1.02898375e-32
46	0x8a44ae2a	-9.469813e-33
47	0x0a59aa7a	1.0480233e-32
48	0x8a5c7800	-1.0615184e-32
49	0x8a5b52d5	-1.05600454e-32
50	0x0a67f502	1.1168326e-32
51	0x0a532d7c	1.0167835e-32
52	0x8a5a2630	-1.05035005e-32
53	0x0a4ab5fd	9.7601744e-33
54	0x8a5b1f9b	-1.0550411e-32
55	0x8a5527cc	-1.0263062e-32
56	0x8a5d33c7	-1.0650501e-32
57	0x89984b56	-3.6663515e-33
58	0x0a5d756f	1.066285e-32
59	0x8a56560d	-1.03199096e-32
60	0x0a4a76de	9.748303e-33
61	0x0a57428c	1.03643895e-32
62	0x0a5a73bc	1.05180854e-32
63	0x8a4e14ef	-9.9224764e-33
64	0x892074dc	-1.9314246e-33
65	0x0a597b57	1.04713676e-32
66	0x8a5cc348	-1.0629343e-32
67	0x8a517db3	-1.0086625e-32
68	0x8a59380c	-1.0458711e-32
69	0x8a4e9f63	-9.9485165e-33
70	0x8a4ef12a	-9.963897e-33
71	0x0a476e2c	9.6022225e-33
72	0x8a60284f	-1.0792789e-32
73	0x0a33e8c9	8.6623185e-33
74	0x0a4d74f6	9.892389e-33
75	0x8a4fbc69	-1.00021235e-32
76	0x8a50aa4a	-1.00468635e-32
77	0x0a590c00	1.0450427e-32
78	0x0a499480	9.705728e-33
79	0x0a573685	1.03621274e-32
80	0x8a46f463	-9.579317e-33
81	0x0a59ab49	1.0480385e-32
82	0x0a4e4af4	9.932636e-33
83	0x8a4979bd	-9.7006944e-33
84	0x8a58565b	-1.0416263e-32
85	0x8a5ca8da	-1.0624372e-32
86	0x0a57b43d	1.03857725e-32
87	0x0a527c1a	1.0134473e-32
88	0x0a5bf622	1.0590759e-32
89	0x0a570589	1.03529145e-32
90	0x8a45de99	-9.527071e-33
91	0x0a443d00	9.4485296e-33
92	0x0a473dd7	9.593132e-33
93	0x0a4c086c	9.823827e-33
94	0x8a4e2d51	-9.927062e-33
95	0x0a513408	1.007277e-32
96	0x0a56fe8f	1.0351602e-32
97	0x8a5122fe	-1.0069565e-32
98	0x0a515af2	1.0080089e-32
99	0x0a5325fd	1.0166425e-32
100	0x8a4ef709	-9.965001e-33
101	0x8a5c6d08	-1.0613121e-32
102	0x0a5b484f	1.0558066e-32
103	0x0a5ea145	1.07192426e-32
104	0x0a5ca7db	1.0624185e-32
105	0x09da3b42	5.2537317e-33
106	0x0a52cf24	1.0150091e-32
107	0x0a43ae17	9.421651e-33
108	0x8a5b6977	-1.0564302e-32
109	0x8a5acf09	-1.0535257e-32
110	0x0a5bc8d8	1.0582241e-32
111	0x8a597ef0	-1.0472044e-32
112	0x0a703634	1.1565774e-32
113	0x8a494cb1	-9.692222e-33
114	0x0a5c3998	1.0603447e-32
115	0x0a5a6a98	1.0516366e-32
116	0x0a579834	1.03805e-32
117	0x0a5abe5b	1.053212e-32
118	0x8a52fda6	-1.0158838e-32
119	0x0a538655	1.01845455e-32
120	0x0a669ab3	1.1103193e-32
121	0x0a5781aa	1.03762606e-32
122	0x8a5c29a0	-1.06004435e-32
123	0x0a51ac78	1.0095422e-32
124	0x8a596175	-1.04664996e-32
125	0x0a4baa4e	9.806125e-33
126	0x0a59dee0	1.0490088e-32
127	0x0a57ab37	1.03840754e-32
128	0x8a5902be	-1.0448686e-32
129	0x8a585e69	-1.0417778e-32
130	0x0a5b10f6	1.05476564e-32
131	0x8a4e13b5	-9.922246e-33
132	0x0a56d58e	1.03438904e-32
133	0x0a5c2871	1.0600221e-32
134	0x8a4fe5db	-1.00099185e-32
135	0x8a55b34b	-1.0289298e-32
136	0x0a55c597	1.02927395e-32
137	0x8a59c479	-1.0485122e-32
138	0x0a485773	9.646097e-33
139	0x0a5bd06a	1.0583665e-32
140	0x8a591bc6	-1.04533936e-32
141	0x8a4c0a80	-9.8242175e-33
142	0x0a4a5fba	9.7439504e-33
143	0x0a561c01	1.0308992e-32
144	0x8a527d26	-1.013467e-32
145	0x0a4d512e	9.885659e-33
146	0x0a491429	9.68159e-33
147	0x0a5b7392	1.0566203e-32
148	0x8a5b6797	-1.05639495e-32
149	0x0a4f06a0	9.9679335e-33
150	0x8a47536b	-9.597191e-33
151	0x0a4856ab	9.64595e-33
152	0x0a520498	1.0111996e-32
153	0x8a4d90f3	-9.897653e-33
154	0x0a4ae99a	9.769882e-33
155	0x8a51e3de	-1.0105841e-32
156	0x8a4c776d	-9.844704e-33
157	0x8a5a4a1e	-1.0510258e-32
158	0x0a52ee6b	1.0155974e-32
159	0x0a4ac37c	9.762713e-33

encoder.fc2.bias f4 [10]
0	0x3816708b	3.58676e-05
1	0xb847c43e	-4.7628062e-05
2	0xb7ed4d28	-2.828853e-05
3	0xb8011412	-3.077469e-05
4	0xb709ff98	-8.225346e-06
5	0xb81ba56d	-3.7108945e-05
6	0x373020ce	1.0498055e-05
7	0xb5682b40	-8.648967e-07
8	0x37bb43d6	2.2323726e-05
9	0xb8b4e091	-8.6248976e-05

encoder.fc3.weight f4 [10, 16]
0	0x0a658be9	1.1052263e-32
1	0x8a6edbc6	-1.1500618e-32
2	0x0a6d3f72	1.1423068e-32
3	0x8a44695d	-9.456873e-33
4	0x8a55e084	-1.0297804e-32
5	0x0a596a6a	1.0468184e-32
6	0x0a515452	1.0078843e-32
7	0x0a4fc365	1.0003437e-32
8	0x0a4643e8	9.546125e-33
9	0x8a5e2846	-1.0696486e-32
10	0x0a5754cd	1.0367823e-32
11	0x0a514031	1.0075057e-32
12	0x0a5b368b	1.0554725e-32
13	0x0a5934e1	1.0458115e-32
14	0x8a50f483	-1.0060823e-32
15	0x0a517d8b	1.0086596e-32
16	0x8a6b6446	-1.1333698e-32
17	0x8a51ff75	-1.011103e-32
18	0x8a58ae94	-1.0432856e-32
19	0x0a5c6822	1.06122e-32
20	0x0a4a2e98	9.7347095e-33
21	0x0a522bc2	1.0119362e-32
22	0x0a5b790b	1.0567232e-32
23	0x8a5dd14a	-1.0680126e-32
24	0x0a5d5140	1.06560444e-32
25	0x0a5943e2	1.0460937e-32
26	0x8a5259f1	-1.0128048e-32
27	0x0a5742b0	1.0364416e-32
28	0x0a56c647	1.0341017e-32
29	0x8a546721	-1.0226825e-32
30	0x0a5cd496	1.0632598e-32
31	0x8a5ca7f1	-1.0624201e-32
32	0x8a5f1269	-1.0740522e-32
33	0x8a4acddc	-9.764664e-33
34	0x8a5fd891	-1.0777791e-32
35	0x0a4ad039	9.7651085e-33
36	0x8a55a9d8	-1.0287521e-32
37	0x8a5485f9	-1.0232626e-32
38	0x0a4c17a8	9.826692e-33
39	0x8a5a8b76	-1.0522548e-32
40	0x8a5d05a0	-1.0641821e-32
41	0x0a5be4a7	1.0587471e-32
42	0x89c28c64	-4.6835824e-33
43	0x0a458520	9.510243e-33
44	0x0a5bcdc9	1.058317e-32
45	0x8a562ffe	-1.03127515e-32
46	0x8a591869	-1.0452761e-32
47	0x8a551118	-1.0258792e-32
48	0x8a4781e8	-9.605934e-33
49	0x0a51d2be	1.010262e-32
50	0x8a5a8ebf	-1.0523166e-32
51	0x8a580d1a	-1.0402486e-32
52	0x0a4452f7	9.452661e-33
53	0x0a4e6817	9.938116e-33
54	0x0a4edeaa	9.960418e-33
55	0x8a6e3b31	-1.1470416e-32
56	0x08684520	6.9896217e-34
57	0x0a500491	1.00156946e-32
58	0x8a43acce	-9.4214094e-33
59	0x8a529b8d	-1.0140388e-32
60	0x8a541244	-1.0210864e-32
61	0x0a5a0c48	1.0498628e-32
62	0x8a59a0a3	-1.0478382e-32
63	0x8a70e9a9	-1.1599526e-32
64	0x09b33f7d	4.3152387e-33
65	0x8a51df04	-1.01049285e-32
66	0x0a59eac2	1.0492323e-32
67	0x0a5b9339	1.0572156e-32
68	0x0a5599c7	1.0284499e-32
69	0x8a4ea88f	-9.9502416e-33
70	0x8a553670	-1.02658155e-32
71	0x8a5d24c3	-1.0647677e-32
72	0x0a593024	1.0457224e-32
73	0x0a493bdf	9.6890585e-33
74	0x8a53f832	-1.0205961e-32
75	0x0a53aa28	1.0191283e-32
76	0x8a49a3d4	-9.7086106e-33
77	0x0a56eee2	1.0348654e-32
78	0x0a4a3d1c	9.7374396e-33
79	0x8a516a2b	-1.0082952e-32
80	0x0a5a8f49	1.0523267e-32
81	0x0a47c5ec	9.6187264e-33
82	0x0a50f08c	1.00600775e-32
83	0x8a5aad89	-1.05289565e-32
84	0x8a4c8f1f	-9.849161e-33
85	0x0a4e3b62	9.929708e-33
86	0x8a5557c7	-1.0272086e-32
87	0x8a50675f	-1.0034278e-32
88	0x0a575959	1.0368678e-32
89	0x8a5c6ff5	-1.06136715e-32
90	0x8a3513d6	-8.718564e-33
91	0x8a545ae6	-1.0224525e-32
92	0x0a4c80ed	9.846491e-33
93	0x8a57b8b0	-1.0386609e-32
94	0x8a521380	-1.01148e-32
95	0x0a6e6fa8	1.14802834e-32
96	0x8a59cc71	-1.0486621e-32
97	0x0a474acf	9.5955714e-33
98	0x8a59fcc2	-1.04957084e-32
99	0x0a5b8f1d	1.0571383e-32
100	0x0a58a591	1.0431161e-32
101	0x0a4876af	9.6519716e-33
102	0x8a564a59	-1.03177084e-32
103	0x0a573d06	1.0363351e-32
104	0x0a58a256	1.0430554e-32
105	0x0a608a5a	1.0811229e-32
106	0x0a59d28f	1.04877716e-32
107	0x8a58f7c6	-1.0446623e-32
108	0x8a58ef30	-1.0445008e-32
109	0x8a532cb9	-1.0167692e-32
110	0x8a5950da	-1.04633764e-32
111	0x8a648423	-1.1002653e-32
112	0x0a57291f	1.03596075e-32
113	0x0a458bee	9.511523e-33
114	0x8a5848c9	-1.0413711e-32
115	0x0a5c3572	1.0602667e-32
116	0x0a5cee41	1.0637425e-32
117	0x8a4c0270	-9.822701e-33
118	0x8a4ebba0	-9.9538276e-33
119	0x8a4b2755	-9.781492e-33
120	0x09c62dec	4.770995e-33
121	0x0a5b2821	1.0552014e-32
122	0x8a4fb11e	-9.9999995e-33
123	0x8a4d5f1e	-9.8882805e-33
124	0x8a4b8e4d	-9.800858e-33
125	0x0a57f398	1.0397688e-32
126	0x8a5c56b5	-1.06089225e-32
127	0x8a566f36	-1.0324642e-32
128	0x8a54ec78	-1.02519035e-32
129	0x0a49a9ea	9.709755e-33
130	0x8a6faa26	-1.1539433e-32
131	0x0a5ca17d	1.0622987e-32
132	0x0a57ac45	1.0384274e-32
133	0x0a5b5a4b	1.0561449e-32
134	0x8a47e492	-9.624491e-33
135	0x0a5f34a6	1.07469615e-32
136	0x8a5c3c9a	-1.06040126e-32
137	0x0a595427	1.0463997e-32
138	0x0a53eed7	1.0204201e-32
139	0x0a4e1f6d	9.92445e-33
140	0x8a57bc66	-1.0387307e-32
141	0x0a6031a9	1.0794548e-32
142	0x8a505e6e	-1.0032596e-32
143	0x8a4bc702	-9.811524e-33
144	0x0a71334c	1.1613376e-32
145	0x0a54fe61	1.0255272e-32
146	0x0a539dbc	1.0188947e-32
147	0x8a4baa02	-9.8060694e-33
148	0x0a4b8a12	9.8000626e-33
149	0x8a54e626	-1.0250715e-32
150	0x0a5c6b50	1.0612798e-32
151	0x8a590c49	-1.04504805e-32
152	0x8a4b55bb	-9.7902186e-33
153	0x8a568ff2	-1.0330798e-32
154	0x0a58da7c	1.0441114e-32
155	0x8a54b9ed	-1.02423975e-32
156	0x8a577ae4	-1.03749866e-32
157	0x8a5649a1	-1.0317573e-32
158	0x8a4de56b	-9.91354e-33
159	0x8a5a8ee8	-1.0523196e-32

encoder.fc3.bias f4 [10]
0	0xb8a68318	-7.939915e-05
1	0x377848f2	1.4798936e-05
2	0xb80257f0	-3.1076313e-05
3	0xb80e09b4	-3.3864475e-05
4	0xb79f5f68	-1.8998704e-05
5	0x378a663a	1.6498485e-05
6	0x386d0646	5.6511046e-05
7	0x37caf4ab	2.4194209e-05
8	0xb5595880	-8.0967584e-07
9	0x39062889	0.00012794336

decoder.fc.weight f4 [16, 10]
0	0x3bc4ef65	0.0060099834
1	0x3c396765	0.011316155
2	0xba8964fd	-0.0010482367
3	0xbad6c11a	-0.0016384453
4	0xbc7fb28e	-0.015606536
5	0xbb3745dd	-0.0027965226
6	0xbb84d376	-0.0040535284
7	0xbbb464a0	-0.0055051595
8	0xbc522d11	-0.0128281275
9	0xbaac3d6b	-0.0013140863
10	0x3bc46900	0.0059939623
11	0xbb1a7181	-0.0023566189
12	0xbca278e0	-0.019833028
13	0x397e53d5	0.00024254558
14	0xbc6febab	-0.01464359
15	0xbb5da9de	-0.0033823173
16	0xbbe996b3	-0.0071285604
17	0x3d0e0aa0	0.0346781
18	0xbb144281	-0.0022622647
19	0xbc56400e	-0.013076795
20	0x3d2e682f	0.042579826
21	0x3b4816ac	0.0030531092
22	0xbca9165b	-0.020640543
23	0xbc9ab041	-0.018882873
24	0x3bcf0c48	0.0063186027
25	0x3ceef4b7	0.029169424
26	0xbcdec30b	-0.027192613
27	0x3c5baf36	0.013408473
28	0xbd4b7a74	-0.049677327
29	0xbd0b57be	-0.034019224
30	0x3a90638d	0.0011015997
31	0xb9b35dba	-0.00034211372
32	0xbb4aa4c1	-0.0030920955
33	0xbbcdbe41	-0.0062787835
34	0x3b808c82	0.003923
35	0x3c393160	0.011303276
36	0xbb924db8	-0.004464831
37	0xbbcd9bf9	-0.006274697
38	0x3c2ee728	0.010675229
39	0x3b048ab5	0.0020224277
40	0x3aa23ed0	0.0012378339
41	0x3b016621	0.0019744711
42	0xbc0ac5fe	-0.008470057
43	0x3af8e6b0	0.0018989649
44	0xbc46fbd5	-0.012145002
45	0x3ac9a16a	0.0015383188
46	0x3c944534	0.018099405
47	0xbb842cb4	-0.0040336493
48	0x3c4b6336	0.01241379
49	0x3a7cbc77	0.00096411206
50	0xbbe76c83	-0.007062496
51	0x3c94236c	0.018083297
52	0x3c802b6f	0.01564571
53	0xbc4bdf6e	-0.0124434065
54	0xbc15a8b2	-0.009134458
55	0xba483282	-0.0007636921
56	0x3caa176d	0.020763123
57	0x3ba1f3ba	0.0049423845
58	0x3b38d872	0.0028205183
59	0x3ba3ec1e	0.0050025126
60	0xbb83610f	-0.004009373
61	0x3a8d5596	0.0010782953
62	0xbceb638f	-0.028733997
63	0xbca1bb4d	-0.019742632
64	0x3cdc068e	0.026858594
65	0x3c053742	0.00813085
66	0x3a57cb70	0.00082319137
67	0x3c3b22b1	0.011421845
68	0xbc11dce9	-0.008902767
69	0x3cad8773	0.021182751
70	0xba040ff2	-0.00050377764
71	0xbc091413	-0.0083666025
72	0x3b898c8e	0.0041976636
73	0xbc5c3ce4	-0.013442252
74	0x3c040347	0.008057422
75	0x3b89ad0d	0.0042015375
76	0x3bde7ce8	0.0067897923
77	0xbb1b811b	-0.0023728076
78	0xbbe96c3b	-0.007123498
79	0xbbc7cf1b	-0.006097687
80	0x3c9cb9c6	0.019131552
81	0xbc423195	-0.011852642
82	0x3bc084c0	0.0058752
83	0x3b18adb9	0.0023296906
84	0x3abfd8e3	0.0014636781
85	0x3afdd559	0.0019365951
86	0xba9dbb5c	-0.0012033987
87	0x3b58c73d	0.003307774
88	0xbc6417a7	-0.013921655
89	0xbb117b3f	-0.0022198705
90	0x3c34e3f5	0.011040677
91	0x3c136670	0.008996591
92	0x3b6d97a3	0.0036253713
93	0x3c49a5cd	0.012307596
94	0xbc55a214	-0.013039131
95	0x3beddac9	0.0072587472
96	0x3acb9b01	0.0015533866
97	0xbc2eb8f5	-0.010664214
98	0x3b52a796	0.0032143346
99	0xb99dc8a9	-0.00030094877
100	0xbbb05e37	-0.005382325
101	0x3c84d9b8	0.016217098
102	0x3bd88269	0.006607343
103	0x3b1c3784	0.00238368
104	0xbc4861bb	-0.012230332
105	0xbc8a170c	-0.016856693
106	0x3be5a810	0.00700856
107	0xba513e5c	-0.00079820096
108	0x3c4e80f5	0.012603988
109	0xbbcf3f8f	-0.0063247154
110	0x3da0293e	0.07820366
111	0xbd7e1e5b	-0.062040668
112	0xbd47d46b	-0.048786562
113	0xbd0eee3e	-0.034895174
114	0xbc86a9d9	-0.016438412
115	0x3c838354	0.016053833
116	0x3d758c30	0.059948146
117	0xba85e5a4	-0.0010215533
118	0xbdab1012	-0.083526745
119	0xbd09021f	-0.03344929
120	0xbb6eee7e	-0.003645807
121	0xbd655641	-0.05599046
122	0xbc116c4d	-0.008875919
123	0xbc5801e2	-0.013184043
124	0xbd50eba3	-0.05100597
125	0xbd0a02d1	-0.033694092
126	0x3d24e367	0.04025593
127	0x3ccb3ebb	0.024810186
128	0x3bcf8ffb	0.0063343025
129	0xbcc61103	-0.024178034
130	0xbb2186b6	-0.0024646944
131	0x3c62d434	0.0138445385
132	0xbba55a6e	-0.0050461804
133	0x3a9e5fdd	0.0012083013
134	0xb9184901	-0.00014523046
135	0xbc16bd66	-0.00920043
136	0xbc29b498	-0.010357998
137	0x3a9be364	0.0011893329
138	0xbc4eb1d4	-0.01261564
139	0xbaeca5d5	-0.0018054793
140	0xbb4c16d1	-0.003114153
141	0xba518dc5	-0.00079938426
142	0x3bc6b401	0.0060639386
143	0x3caa7bd8	0.020811006
144	0x3ca67a7c	0.020322077
145	0x3c8a9627	0.016917301
146	0x3b9e3106	0.0048276214
147	0x3cafd3e0	0.021463335
148	0x3b64d020	0.0034914091
149	0xbc3cc8db	-0.011522497
150	0x3bece8cb	0.0072298995
151	0xbc0f4eb5	-0.008746793
152	0xbd20b135	-0.039231498
153	0x3be033b5	0.0068421015
154	0x3b713a74	0.0036808522
155	0xbc9a99bc	-0.018872134
156	0x3c636676	0.013879409
157	0xbd43d469	-0.047809992
158	0xbb76ad7a	-0.0037640021
159	0xbc324277	-0.010880104

decoder.fc.bias f4 [16]
0	0xbde8231d	-0.11334822
1	0xbe258371	-0.16163422
2	0xbe809e39	-0.25120714
3	0xbdd4ebb2	-0.10396518
4	0xbe0ab11f	-0.13544129
5	0xbdefee9b	-0.11715432
6	0xbe669cfe	-0.22520825
7	0xbdda8fc7	-0.106719546
8	0xbde1b7c1	-0.110213764
9	0xbdef3ef5	-0.1168193
10	0xbe069879	-0.13144101
11	0xbec60ca4	-0.3868152
12	0xbecad50a	-0.3961566
13	0xbe1662d2	-0.14686134
14	0xbe290cf6	-0.1650885
15	0xbe9a2cf1	-0.30112413

decoder.fc_output.weight f4 [23, 16]
0	0xbc81631a	-0.015794326
1	0xbc941e50	-0.01808086
2	0xbc1b6b9c	-0.009486105
3	0xbc3d1557	-0.011540732
4	0xba6dfbb2	-0.0009078338
5	0xbcf6704f	-0.03008285
6	0xbcc84b9f	-0.024450121
7	0x3c2dafcb	0.010600994
8	0xbba0aa83	-0.004903139
9	0xbc49046c	-0.012269121
10	0xbb39259d	-0.002825118
11	0x3d9710d8	0.073762596
12	0xbd8d1e99	-0.06890602
13	0xbc6c139a	-0.01440897
14	0x3d23a6ca	0.039953984
15	0xbcf2714c	-0.02959504
16	0x3a3a8ede	0.0007116626
17	0xbb5b2148	-0.0033436585
18	0x3c4775c7	0.012174076
19	0xb473ec2f	-2.2717062e-07
20	0xb95f9d41	-0.00021325519
21	0xbc66b09a	-0.014080191
22	0x3c87091c	0.016483836
23	0xb8472587	-4.7480247e-05
24	0xba50ae6f	-0.0007960563
25	0xb8ee6f71	-0.00011369482
26	0xbb7981fc	-0.0038071861
27	0xbc2887dd	-0.010286299
28	0xba976b74	-0.0011552409
29	0x3c41ccdb	0.0118286265
30	0x3bbbe8c0	0.005734533
31	0xbc25dd76	-0.010123601
32	0xbb75f0dc	-0.0037527597
33	0xbd11b4f9	-0.03557298
34	0x3cd4f8e7	0.025997592
35	0xb664e266	-3.4106429e-06
36	0xb9862f43	-0.00025593684
37	0xbbc8b895	-0.0061255195
38	0xbc053bce	-0.008131934
39	0x39f632db	0.00046958667
40	0x3ae575dd	0.001750644
41	0x3a0092de	0.00049046974
42	0xbc436c9a	-0.011927748
43	0x3c66a6bc	0.0140778385
44	0x3cffa903	0.03120852
45	0xbc028c81	-0.007968069
46	0xbc77798d	-0.015104664
47	0xbd3bf16a	-0.045884527
48	0x39331f2c	0.00017082383
49	0x3c4a37db	0.012342419
50	0x3b4cde6d	0.0031260506
51	0x34f61448	4.5835827e-07
52	0x39952545	0.00028447263
53	0x3b8a5c0a	0.0042223977
54	0xbba550f5	-0.005045051
55	0xb556e41a	-8.0053144e-07
56	0xbc91fb69	-0.017820077
57	0xb790d1ea	-1.7263887e-05
58	0x3bc0ef64	0.0058879126
59	0xbbd0efe5	-0.006376254
60	0x3d01ccb2	0.031689353
61	0x3c17b70b	0.009259949
62	0x3b9e2e8d	0.0048273266
63	0xbb94061d	-0.0045173303
64	0xba490129	-0.00076677144
65	0x3ca578dd	0.020199234
66	0x3dd09776	0.10185139
67	0x3c331261	0.010929675
68	0xbcaa95d8	-0.020823404
69	0xbb8aacdb	-0.0042320318
70	0x3c39afc9	0.011333414
71	0xbc6835df	-0.014173
72	0x3c8c021f	0.017090855
73	0xbcb0f64e	-0.021601822
74	0x3d295823	0.04134382
75	0x3cfe7646	0.031062257
76	0xbdb56004	-0.08856204
77	0xbd0cf552	-0.034413643
78	0xbb7a3e59	-0.0038184135
79	0xbd91bd53	-0.07116189
80	0x3b5d44a7	0.0033762844
81	0xbd3a7cf8	-0.045529336
82	0xbd2031d0	-0.039110005
83	0x3b62d0f5	0.0034609411
84	0xbc7519d3	-0.01495977
85	0xbd1a5075	-0.037674386
86	0x3abf1ba6	0.0014580383
87	0xba327833	-0.0006808072
88	0x3c882f76	0.016624194
89	0xbc71515c	-0.01472887
90	0xbc3ebd92	-0.011641877
91	0xbcb63988	-0.02224423
92	0x3c82caf2	0.015965912
93	0x3cd762fc	0.026292317
94	0xbc0800e4	-0.008300994
95	0xbb310803	-0.0027012832
96	0x3b83038b	0.003998225
97	0x3d036676	0.032080136
98	0x3c9262d3	0.017869389
99	0xbbdaa68e	-0.006672687
100	0x3c11abfe	0.008891104
101	0xbd770959	-0.06031165
102	0xbce1b730	-0.02755317
103	0xbb41ceb7	-0.0029572675
104	0xbca984e4	-0.02069325
105	0xbc478dec	-0.012179833
106	0xbd3d168a	-0.046164073
107	0xbd0f7a28	-0.035028607
108	0xbd98edd5	-0.07467238
109	0xbc90693c	-0.017628305
110	0xbc407a22	-0.011747869
111	0x3be03650	0.006842412
112	0x39a61837	0.0003168003
113	0x3cd780db	0.02630656
114	0xbcd76892	-0.02629498
115	0xbc1f7860	-0.0097332895
116	0x3c60aa19	0.013712429
117	0x3d32ded4	0.043669537
118	0xbd444078	-0.047913045
119	0x3b815ebb	0.0039480603
120	0xbd29642e	-0.041355304
121	0xbb9b75cc	-0.004744267
122	0xbc1ad26a	-0.009449581
123	0xbd142398	-0.036166757
124	0xbd36db1a	-0.044642545
125	0x3c363935	0.011122038
126	0xbd2e8172	-0.042603917
127	0x3d6b4584	0.057439342
128	0x3c1efeb0	0.009704277
129	0xbc852121	-0.016251149
130	0x3c881844	0.016613133
131	0x3a4ced30	0.0007817326
132	0x3c1db2c3	0.00962514
133	0x3c6a05b6	0.014283588
134	0x3c9ec81f	0.019382535
135	0xbae746e1	-0.0017645025
136	0x3c06d4e8	0.008229472
137	0x3c73bd15	0.014876624
138	0x3d76ab5d	0.06022202
139	0x3cb608af	0.022220938
140	0x3bfbc627	0.0076835337
141	0xbc0df12d	-0.008663458
142	0xbc80567b	-0.015666237
143	0x3bfc6ea6	0.00770362
144	0x3c0197e6	0.007909751
145	0x3c9379d1	0.018002423
146	0xbc94add8	-0.018149301
147	0x3c31ca85	0.010851507
148	0xbb8d5ec8	-0.0043142773
149	0xbc4d7659	-0.012540423
150	0x3ac9b1aa	0.0015388031
151	0x3be4a8a8	0.006978113
152	0xbd46f0d0	-0.0485695
153	0x3ba4f309	0.005033855
154	0x3c0b06ce	0.008485509
155	0x3cf59e5e	0.029982742
156	0x3c349161	0.011020989
157	0xbb8bc307	-0.0042651924
158	0x3b9e75f3	0.004835838
159	0x3c1f4145	0.009720151
160	0xbb82adb8	-0.003987994
161	0x3d27d7ee	0.04097741
162	0xbc9c32d4	-0.019067205
163	0x3c4f1de8	0.012641408
164	0xbc8e7549	-0.01738991
165	0xbd282e5d	-0.04105984
166	0x3c3109a7	0.010805524
167	0xbb7c96d6	-0.0038542054
168	0x3ca6e153	0.020371115
169	0xba3b4538	-0.0007143798
170	0xbc43b026	-0.0119438525
171	0xbbb5cf56	-0.005548398
172	0x3cc44403	0.023958212
173	0xbd02c54e	-0.031926446
174	0x3bc7f0d2	0.006101706
175	0x3c8d8fa4	0.017280407
176	0xbaeebfab	-0.001821508
177	0x3c26230a	0.01014019
178	0xbcea7f7e	-0.028625246
179	0xbb34a630	-0.0027564876
180	0xbb6f8bc6	-0.0036551817
181	0x390fbec8	0.00013708614
182	0xbbd76926	-0.006573814
183	0x3a06cced	0.00051422307
184	0xbb759bfc	-0.0037477007
185	0xbc021411	-0.0079393545
186	0xbbbba455	-0.005726377
187	0xbc657998	-0.014006041
188	0xbd7c560a	-0.06160549
189	0xbcaa7acd	-0.02081051
190	0x3b9e4c54	0.0048308764
191	0xbc9149b0	-0.017735332
192	0xbac60b4c	-0.0015109568
193	0xbaf078c9	-0.0018346544
194	0xbd524623	-0.05133642
195	0xbb6e64d1	-0.003637601
196	0xbae25360	-0.0017267279
197	0xbb8cbb22	-0.004294769
198	0xbbc17186	-0.0059034256
199	0x3b1d2e27	0.0023983808
200	0xbc2ac027	-0.010421789
201	0xbc0e0e4a	-0.008670399
202	0xbc235a0f	-0.009970202
203	0xbbbf80b0	-0.005844198
204	0xbd718c1d	-0.058971513
205	0xbc8d0091	-0.017212184
206	0x3c1ba952	0.009500818
207	0xbc66d723	-0.0140893785
208	0x39de0d38	0.00042352988
209	0x3ae55a68	0.0017498257
210	0xbcf3edc8	-0.029776469
211	0xb7787ece	-1.4811476e-05
212	0x3a23dbf7	0.0006250734
213	0xbae2da87	-0.0017307558
214	0x3ba14931	0.004922055
215	0x39b993a0	0.0003539594
216	0xb9c89c64	-0.00038263493
217	0xbaddce49	-0.001692244
218	0x3b617937	0.0034404525
219	0xbc4568d6	-0.012048921
220	0xbd1b6a06	-0.03794291
221	0xbbc84b81	-0.0061125164
222	0x3c5238c3	0.012830916
223	0xbbd1dd1e	-0.006404533
224	0xbb1c9ec2	-0.0023898338
225	0x3b40b94a	0.0029407316
226	0xbd59e986	-0.05320122
227	0xbb22b248	-0.0024825502
228	0xbad1bab5	-0.0016001078
229	0x3cea213d	0.028580302
230	0x3bb856b1	0.005625569
231	0x3b033fb2	0.002002698
232	0xbc157170	-0.009121284
233	0xbb99ce36	-0.0046937717
234	0x3838afc1	4.4032702e-05
235	0xbcb032f3	-0.02150867
236	0xbd5ef69a	-0.054434396
237	0xbca76d13	-0.020437753
238	0x3c60c58b	0.013718973
239	0xbc466c44	-0.0121107735
240	0x3a821a2b	0.0009926012
241	0x3c50f62a	0.012754003
242	0xbd377591	-0.044789854
243	0xba58c743	-0.00082694384
244	0xbb499d5b	-0.0030763957
245	0x3d08e968	0.03342572
246	0x3c88d9c6	0.016705405
247	0x3b13f0d0	0.0022573955
248	0xbc5405b1	-0.01294081
249	0xbba8ec07	-0.00515509
250	0x3ac8c871	0.0015318525
251	0xbbdfca25	-0.0068295174
252	0xbd4d483e	-0.050117724
253	0xbc4b51ba	-0.012409622
254	0x3c92611d	0.017868573
255	0xbc995ec0	-0.018721938

decoder.fc_output.bias f4 [23]
0	0x3e21a7cb	0.15786664
1	0x3f47a4ef	0.77986044
2	0x3f473212	0.77810776
3	0x3f479f20	0.7797718
4	0x3e81999e	0.25312513
5	0x3f46f798	0.7772155
6	0x3f4620de	0.773939
7	0x3f463342	0.77421963
8	0x3f466e5f	0.7751216
9	0x3f474a61	0.7784787
10	0x3f4743bb	0.77837723
11	0x3e442974	0.19156438
12	0x3de3fb8d	0.11131964
13	0x3de5dbe3	0.11223581
14	0x3e4c3f0e	0.19945928
15	0x3df2b9d5	0.11851851
16	0x3e940351	0.2890878
17	0x3bce91d1	0.0063040038
18	0x3b6544fc	0.0034983745
19	0x3bd01acd	0.006350851
20	0x3bfe34be	0.007757752
21	0x3c4944e4	0.012284491
22	0x3c4677ee	0.012113554
