c2cvae/diabetes_vae.pth (torch, 5822 bytes, 10 tensors)

encoder.fc1.weight f4 [16, 8]
000000 06 48 67 3d b0 19 cf 3d 43 59 cd 3e 6e b0 3e 3e
       0.05646517 0.101123214 0.40107164 0.1862199
000010 29 c2 dc 3d c9 ba 13 bc 06 53 3e 3d f8 0e 0c 3e
       0.107792206 -0.009016701 0.046465896 0.13677585
000020 1c ee 74 be 24 99 b3 bd 14 28 f4 3d 9b fe 68 be
       -0.23918957 -0.08769444 0.11921707 -0.22753374
000030 27 a6 c6 bd 3a 13 cb bd a7 bb 60 be 9b be 11 3d
       -0.0969966 -0.099157766 -0.21946584 0.035582166
000040 92 52 5e 8a e0 d1 af a4 e0 d6 4c 0a 17 76 9c a0
       -1.0704441e-32 -7.6249694e-17 9.862656e-33 -2.6505573e-19
000050 99 46 54 0a 70 7e 41 a1 63 36 00 af 27 bf 4d 0a
       1.0220707e-32 -6.555828e-19 -1.1660854e-10 9.906343e-33
000060 21 d0 0f 3e 50 bb a1 be 7b 53 aa bd 0a 03 ac be
       0.14044239 -0.3158822 -0.08316704 -0.3359607
000070 64 a9 84 3d 55 8b 22 bd 56 37 ac 3d d3 15 b6 bd
       0.06477621 -0.03968366 0.08408992 -0.088908814
000080 32 51 83 3e 61 2a eb bd 51 1d a4 3c 0c fd 28 3e
       0.25647885 -0.114826925 0.02003351 0.1650278
000090 ad 7e d3 3d ab 95 00 3e dc cd 03 3e dd 5f eb bd
       0.10326896 0.12557094 0.12871498 -0.11492894
0000a0 48 26 99 0b c0 b2 e1 8b 48 0d d4 0b 62 5c 83 0b
       5.8991056e-32 -8.69358e-32 8.1679413e-32 5.0598367e-32
0000b0 d7 9d 85 8a ab 8c c1 0b 3a 87 b2 0b 2d 34 70 0b
       -1.2866807e-32 7.455255e-32 6.876657e-32 4.626157e-32
0000c0 35 92 71 bc f7 58 2e be 02 d3 42 3e 7c 61 2a 3e
       -0.014744331 -0.17026125 0.19025806 0.1663875
0000d0 ab a5 da 3d 78 ef 90 3d 28 cc 54 3c 05 a4 c7 3d
       0.1067613 0.07076925 0.012988128 0.09748081
0000e0 1b 3d fd bb 50 8e 2c be 42 ed 2c 3e 3f fe a9 be
       -0.0077282316 -0.16851163 0.16887382 -0.33201787
0000f0 1c be 82 be 0c 74 b0 ba c0 de a6 be 28 b0 99 bc
       -0.25535667 -0.0013462319 -0.3259182 -0.018760756
000100 e8 77 3d 3d 77 91 5c 3e ca 66 b2 bd 24 ab 94 be
       0.04625693 0.21539865 -0.08711012 -0.2903682
000110 a9 d3 68 3e 21 63 51 bc c1 65 47 be 6e 5c 88 3d
       0.22736992 -0.012779982 -0.1947241 0.066582546
000120 7c 34 a8 3d 8c 5a 21 be 1e 9d d4 3d 43 8d 17 3e
       0.082131356 -0.15757197 0.1038153 0.14799981
000130 9c b1 6b 3c ff aa b8 3a bd f2 0b be a4 ce 29 be
       0.014385607 0.0014089047 -0.13666816 -0.16582733
000140 2c c0 ed 3a 5f 09 d6 3e 2a 21 ea 3d c6 7b ea 3a
       0.0018138937 0.41804025 0.11432107 0.001788967
000150 1e 43 fb bd cd f6 e2 bd 0b d6 18 3d 7f d9 b7 bc
       -0.12268661 -0.1108223 0.037313502 -0.022442577
000160 43 23 26 be aa 9c 68 be a6 92 86 3e dd 2e 7f 3e
       -0.16224389 -0.22716013 0.2628376 0.2492022
000170 94 e3 d6 3d 0d e4 8b 3d 29 2b ab bd 7e 75 8b 3e
       0.10492626 0.068306066 -0.083578415 0.27238077
000180 24 79 4a be c2 3b 69 3e 50 dd 1e be 6d 7d 96 3d
       -0.19772774 0.22776702 -0.15514112 0.07348142
000190 6e 19 86 be af ea 87 3e 06 8d 70 3d d2 4d 51 3e
       -0.26191276 0.26546237 0.05872824 0.20439842
0001a0 e7 74 d8 3d 74 13 77 3e e4 ac ad 3e c4 56 18 3e
       0.10569172 0.24128515 0.33920968 0.14876848
0001b0 c5 8e a9 3c 87 fe 9e bd 6a 59 17 3c 15 46 5c bd
       0.02069796 -0.07763391 0.009237627 -0.053777773
0001c0 6e 1d d7 3c 3c 6d 5d 3e 1c c5 ac 3d 0b 55 29 be
       0.02625915 0.21623701 0.08436033 -0.16536348
0001d0 42 a9 c2 bc 07 3d 3d be 5d 63 b6 bd 13 0b b9 bd
       -0.023762349 -0.18480311 -0.08905671 -0.09035315
0001e0 e2 5c 02 3e 65 ea 01 3d 57 95 23 be b7 d7 85 3d
       0.12730744 0.031717677 -0.15974937 0.06535285
0001f0 4e b4 21 bd 84 02 b2 3d 55 39 bd 3d 91 b0 9a bd
       -0.039478593 0.08691886 0.09239451 -0.075532086

encoder.fc1.bias f4 [16]
000000 50 bb 18 be 84 52 94 b8 bf 27 e2 af 9a 55 01 3d
       -0.14915204 -7.07256e-05 -4.1137402e-10 0.031575777
000010 b2 db fe 3c 9e ef cf 8c e1 ed 0f 3e 6b 84 fc b9
       0.031110618 -3.2037614e-31 0.14055587 -0.00048163845
000020 6e ad ab be 61 35 1d 3e 4a a3 2a bd 33 34 93 3e
       -0.33530754 0.15352394 -0.04165963 0.28750762
000030 52 77 08 be 8d 1f b8 3e 15 49 52 3e 7f ea aa 3e
       -0.13326767 0.3596157 0.20535691 0.3338203

encoder.fc2.weight f4 [4, 16]
000000 78 f0 a7 bd fc 7b f3 bd 69 c5 46 8a 5a ba 3e 3d
       -0.08200163 -0.118888825 -9.570482e-33 0.046564437
000010 3a 41 81 3d 61 de d7 8c 43 07 96 bd ce af b9 3d
       0.06311269 -3.3259834e-31 -0.07325604 0.09066735
000020 09 00 5a bd ac 95 c2 3c 87 4e 0f 3d b7 97 76 bc
       -0.05322269 0.02375301 0.034987 -0.01505082
000030 6e d1 27 bc 7f c4 6c 3d ea a5 26 be 8a 59 58 be
       -0.010242803 0.05780458 -0.16274229 -0.21127906
000040 0c ee f8 bd 60 8a 15 3e e8 01 57 0a e5 77 70 bd
       -0.12154779 0.14603567 1.0352232e-32 -0.05870809
000050 ed c0 61 3c 41 6a 60 8d 79 08 ff 3d 08 6a 63 3c
       0.013778907 -6.915323e-31 0.12452788 0.01388026
000060 52 8b c4 bc dd de 40 3c f1 e2 7e 3d e9 8f 98 bd
       -0.023992214 0.011771885 0.062228147 -0.07449324
000070 95 b9 4b bc 81 f7 5e 3d 48 8a d5 bd c2 dd 1a be
       -0.012434383 0.054435257 -0.10426766 -0.15123656
000080 99 33 c8 bd 00 12 43 bc 46 9a 4d 8a bf e9 1a be
       -0.097754665 -0.011906147 -9.8994066e-33 -0.1512823
000090 9b 5a 82 bd 3a 39 00 0d 70 96 b2 3d d0 b7 b0 3c
       -0.06364938 3.951193e-31 0.087201 0.021572024
0000a0 d1 ca 38 be 29 8b 28 bd d5 da b6 bd e0 31 3f bc
       -0.18046118 -0.04114834 -0.08928458 -0.011669606
0000b0 93 45 22 3b 21 bb fb 3d 4c 69 36 3d 9e af ae 3d
       0.0024760708 0.122915514 0.044534013 0.0852959
0000c0 db 21 ce bc ca a1 c2 bd 0a a1 5b 8a 16 f7 26 3d
       -0.025162628 -0.09503515 -1.05747545e-32 0.040762983
0000d0 66 f0 14 be 08 ce 95 8c c6 9a 12 3e e5 ca 2a 3e
       -0.1454483 -2.3081085e-31 0.14316854 0.1667896
0000e0 b8 d4 ee 3d dd 76 cb bc 4a 02 df bd 7a a8 7b bd
       0.11661667 -0.024836952 -0.108891085 -0.06143997
0000f0 9c e6 ac bc b9 86 da 3d 3e 4e 2b 3c f8 5e 12 3e
       -0.021106057 0.106702276 0.010455666 0.1429404

encoder.fc2.bias f4 [4]
000000 f1 68 bf 3d 17 2c 4d 3d c3 6f b6 bd 8a f1 b3 bd
       0.09346188 0.050090875 -0.089080356 -0.08786304

encoder.fc3.weight f4 [4, 16]
000000 af e8 97 bd 2c 32 dc 3d 05 69 5f 8a 91 f3 8a 3c
       -0.07417428 0.10751757 -1.07568114e-32 0.016961845
000010 eb 4f e1 3d c0 57 02 0d 70 01 31 bd c6 3b dc bd
       0.11001571 4.016497e-31 -0.04321426 -0.107535884
000020 e2 c3 a5 3b 77 1b b4 bd 32 db 12 bc cb 41 1e 3e
       0.0050587514 -0.08794301 -0.008963393 0.15454786
000030 ad bf bd 3a 6e 63 15 3c 1d 37 2b 3e f7 95 aa 3d
       0.001447668 0.009117944 0.16720243 0.08329385
000040 cf 78 3d be 15 cf 57 be 0c bf 49 0a 1e ec 32 bd
       -0.18503116 -0.2107509 9.71373e-33 -0.04368221
000050 37 00 49 3e c7 17 13 8d 99 e0 ec 3d 54 94 06 3e
       0.19628988 -4.5326493e-31 0.11566276 0.1314252
000060 34 c7 f4 3d fe 9b 6e bd 89 19 38 3e 68 4e fd 3d
       0.119520575 -0.058254234 0.17978491 0.123684704
000070 7a 2e 5b bc e4 1e 90 bd 4a ec 01 3e a7 7c da bd
       -0.01337778 -0.07037142 0.12687793 -0.10668307
000080 da d6 ed bd 2e e8 d6 3d 26 25 44 8a 72 21 d5 3d
       -0.11613245 0.104935035 -9.4440436e-33 0.1040677
000090 7d fb bc bd 7d 9b a4 0c df 02 47 3e a6 bd 6e 3d
       -0.09227655 2.5361782e-31 0.19434689 0.05828633
0000a0 6f 10 f3 bd 29 9d d9 bc 01 eb 40 bd c5 1e cb bd
       -0.11868369 -0.026564198 -0.047099117 -0.09917978
0000b0 34 bf 7c 3c 92 77 27 3e 5e 83 86 bd d0 ea 30 bc
       0.015426446 0.16354206 -0.06568025 -0.010798171
0000c0 79 8c 1d be 4d 58 44 be 80 1a 66 8a 9c df 2d 3d
       -0.15385617 -0.19174309 -1.1079081e-32 0.04244958
0000d0 5b 22 c0 3d 8e 51 2a 0c a2 3f 1a bd 41 bf b8 bc
       0.09381553 1.3120866e-31 -0.03765834 -0.022552134
0000e0 09 28 08 3e 92 b6 b9 bd a1 e8 16 3c 9d 13 dd 3d
       0.13296522 -0.09068026 0.0092107365 0.107947566
0000f0 16 fb 19 bc d6 b5 ed 3d 3f 2c f4 3c a0 85 36 bd
       -0.009398242 0.11606948 0.029806254 -0.04456103

encoder.fc3.bias f4 [4]
000000 94 73 e7 bd 6f 7c 10 bd 20 cd 5c bd 57 a2 98 bd
       -0.11301342 -0.03527492 -0.05390656 -0.07452839

decoder.fc.weight f4 [16, 4]
000000 29 8f c6 bd 81 4c d1 bd 48 94 d5 bc 53 db 90 bd
       -0.096952744 -0.1021967 -0.026071683 -0.07073083
000010 38 dc 3f be 71 80 4c be 59 e7 84 be 98 25 b7 3e
       -0.1873635 -0.19970872 -0.25957754 0.3577087
000020 c6 7e eb bd 94 a7 0a be f4 cc 89 bd 58 43 a5 3d
       -0.114987895 -0.13540488 -0.06728545 0.080694854
000030 9a b9 af bc aa 6c 6f 3e 14 01 8c bd 19 42 7f 3e
       -0.021450806 0.23381296 -0.06836143 0.24927558
000040 66 53 5f bd df d7 34 3d 09 4e fb bb 59 c9 15 3d
       -0.054522894 0.044151183 -0.0076692146 0.036568973
000050 e6 24 15 3e f4 dd 2d 3e df 3c b3 3c 00 80 66 3e
       0.14564857 0.169792 0.021879612 0.22509766
000060 cc bf 70 be 47 2d 6a be 71 40 e9 bc 83 1b 9c be
       -0.23510665 -0.22868834 -0.02847311 -0.3048974
000070 cf 04 39 be 2a df 3c be 03 3e 80 be c8 93 aa 3e
       -0.1806824 -0.18444505 -0.2504731 0.33315873
000080 48 fe e6 bd c7 cf fd bc 91 4a 0e bd fa b8 53 bd
       -0.11278969 -0.030982865 -0.03473908 -0.05169008
000090 05 64 66 be 39 2b 4c bd 86 50 88 bd 70 55 87 3d
       -0.22499092 -0.049845908 -0.066559836 0.06608093
0000a0 90 7f af 3d ce 45 12 be 3a a6 15 bd b6 9d 3f bd
       0.085692525 -0.14284441 -0.03653548 -0.046781264
0000b0 81 f2 74 be a3 1b ab be a3 6a 27 bd 48 2d b5 be
       -0.23920633 -0.33419523 -0.04087318 -0.3538611
0000c0 a6 d8 48 3e 55 dd 93 3e fd 42 b7 3c 6a fa 99 3e
       0.19613895 0.288798 0.02237081 0.30073863
0000d0 d3 0c d0 bd eb 75 db bd a4 3c 17 be 6f 81 6c 3e
       -0.10158696 -0.107158504 -0.14769226 0.2309625
0000e0 5b 24 e0 3d 48 cb 6e bd 77 bb 51 3d 46 fe 10 be
       0.10944434 -0.058299333 0.05120417 -0.14159498
0000f0 6f c1 b1 3d 86 70 25 3e 1d 6b 97 3d 52 d6 43 bd
       0.08679473 0.16156206 0.07393477 -0.047811814

decoder.fc.bias f4 [16]
000000 09 f8 5f 3e d0 2f 7f 3d f6 38 aa bc ee 45 f2 be
       0.21871962 0.062301457 -0.020779114 -0.47318977
000010 c7 8d 70 3e a1 32 a8 3d 70 78 9a bd de 4d 5e 3d
       0.23491584 0.08212782 -0.07542503 0.05427348
000020 b9 1e a9 3e 97 d5 3f 3f 86 f1 da 3e 4e ec 4f be
       0.33031252 0.7493529 0.42762393 -0.20304987
000030 e4 b5 69 3e 81 59 94 3c c8 fa 24 3f 50 4f 0f 3f
       0.22823292 0.018109085 0.6444516 0.55980396

decoder.fc_output.weight f4 [8, 16]
000000 66 a7 ab bd 0b 57 bb bd 64 95 20 3b 1c d6 cc 3b
       -0.08381538 -0.091474615 0.0024503106 0.0062511098
000010 5a df 05 3d de 0f 14 3e d6 a5 e7 3c 97 74 0a 3e
       0.032683708 0.14459178 0.028277319 0.13521038
000020 c5 0b 81 3d b6 de 4a 3e fb 27 bd 3d 53 94 47 bd
       0.06301073 0.1981152 0.09236141 -0.048725437
000030 70 5d 37 bd 3b bf 4b bd ba 22 36 3e 76 1b 5c 3d
       -0.044766843 -0.04974292 0.17786685 0.053737126
000040 83 7e b4 bb d6 01 1b 3d e1 9c 1d 3d e3 fb d6 bc
       -0.0055082454 0.037843548 0.03847969 -0.026243156
000050 19 50 09 bd 55 17 be 3d dc b7 2d 3d 56 f3 eb bd
       -0.033523653 0.09281794 0.04241167 -0.11521022
000060 95 06 75 3e 7b 43 cb 3d 4a ec 70 ba 4c ee f4 bd
       0.23928292 0.0992498 -0.0009190483 -0.11959514
000070 2e 2c 1a 3d ab fe ea 3d 26 d5 65 3e f2 86 53 bd
       0.03763979 0.11474355 0.22444591 -0.051642366
000080 21 bd b6 3d 17 e3 40 3e aa 8e 7f bd 26 c6 e5 bc
       0.08922792 0.18836628 -0.062391914 -0.028048586
000090 8f c8 72 3d 66 b4 ae 3a b8 ea 1d bc 5d f8 db bd
       0.0592733 0.0013328909 -0.009638481 -0.10740731
0000a0 fe f1 82 bc 18 14 87 3e b4 8d 96 3e 51 9c 10 bd
       -0.015984531 0.26382518 0.29404986 -0.035305325
0000b0 75 f7 4d 3d 7e 3f c1 bd 67 e9 9d 3d 44 f1 85 3e
       0.05028482 -0.09435938 0.077105336 0.26160634
0000c0 e2 dc 50 bd f5 a3 6d bc f3 94 65 bc 27 be dc 3b
       -0.0509919 -0.014504422 -0.014012563 0.006736535
0000d0 df a1 5e 3e 4d e9 c6 bd 18 11 23 3e a7 7d bd 3d
       0.21741436 -0.09712467 0.1592449 0.09252482
0000e0 15 5c a9 3d 68 94 fc 3d ee cc 18 3e 53 bc 45 be
       0.082695164 0.12332994 0.14921924 -0.19310121
0000f0 61 0f 11 3e d3 5e ce bd 01 39 72 3e b8 75 36 bc
       0.14166023 -0.1007668 0.23654558 -0.011136465
000100 f9 03 83 bd 6e 3f 4c bc e8 d2 54 3d 4c 49 92 3b
       -0.06397242 -0.012466295 0.05195895 0.004464304
000110 80 62 16 3e 22 87 dd 3d ec 96 4e 3d 74 50 5d bd
       0.14686012 0.1081679 0.0504369 -0.054031804
000120 49 9d 92 3e 0f bd 3d bd d8 21 8c bd 51 3a e3 bd
       0.28635624 -0.04632288 -0.06842393 -0.11095107
000130 30 94 80 3c 29 9c bb 3d 38 10 6d 3e 60 97 31 be
       0.015695661 0.091606446 0.23150718 -0.17342901
000140 23 18 94 3d 3e 02 65 bd 2e 21 a8 bc 1a 5d d0 bc
       0.07231166 -0.05591034 -0.020523634 -0.02543502
000150 ac 4f 32 bd 9e e1 e7 bc 8d 8b 0e bc 43 ed 0c 3d
       -0.043533012 -0.028305825 -0.008700264 0.034405958
000160 59 99 c5 3c dc c8 8b 3d 70 ea 71 3d 6c 0b 19 bd
       0.024120973 0.0682542 0.059061468 -0.03736441
000170 5c 30 45 3d e3 06 8f 3d fe b4 3e 3d b6 21 75 3d
       0.048141822 0.069837354 0.046559326 0.059846602
000180 66 3c 94 3d e1 f3 c5 3c fe 5f 49 bd 31 f9 d4 bc
       0.072380826 0.024164142 -0.04916381 -0.02599773
000190 b2 0f 60 be fb ca 96 3c 4b 76 8f 3b 5e 0d 01 3d
       -0.21880987 0.018407336 0.0043781153 0.03150689
0001a0 eb 42 af bc fd 8d 07 3e 2f d2 62 3c d4 26 28 bd
       -0.021394214 0.13237758 0.013844057 -0.041052654
0001b0 59 3c 27 3d a2 f9 82 bd 54 2b 26 3d 34 3d 9c 3d
       0.040829036 -0.0639527 0.040568665 0.07628861
0001c0 61 81 08 3c c7 24 03 3e b7 f8 ca 3c bd a4 05 bc
       0.008331628 0.12806998 0.0247768 -0.008156952
0001d0 e8 d5 ef bd 0e 51 43 bd b3 e4 20 3d 5a e9 13 be
       -0.11710721 -0.04768472 0.039280605 -0.14444485
0001e0 25 cf d6 bd 4e 63 58 3d e6 d6 e5 3c b2 4b 28 3c
       -0.104887284 0.05282908 0.028056573 0.010271953
0001f0 3c 86 6c bb 20 31 c1 3c d4 d4 a1 bd f7 53 ad 3d
       -0.0036090752 0.023582995 -0.07901922 0.08463281

decoder.fc_output.bias f4 [8]
000000 09 1c 1b be 16 d8 3d 3e e8 47 9b bc 60 21 49 bb
       -0.15147413 0.18539461 -0.018955186 -0.003069006
000010 16 86 52 3d 97 d6 13 3e 66 63 3e 3d 12 ad 37 3e
       0.051397406 0.14437328 0.046481512 0.17937115
