c2cvae/diabetes_c2c.pth (torch, 4094 bytes, 10 tensors)

encoder.fc1.weight f4 [4, 6]
-1.1100427e-32 1.1679693e-32 -6.832755e-33 -1.1158912e-32 1.0347918e-32 -9.561717e-33 -6.871076e-20 2.21703e-22
4.472587e-30 -1.0153725e-32 2.9822883e-10 2.4677835e-08 -9.053573e-05 -0.0018408516 -0.002512022 0.00070461014
-3.0446317e-06 1.5939444e-05 -0.00088941504 -0.0023866438 -0.0034606745 -0.00059139734 4.8324768e-05 5.0266113e-05
00000000: fe8b 668a e693 720a 28e9 0d8a f4c2 678a
00000010: f8ea 560a cf96 468a 1b3d a29f e102 861b
00000020: 006e b50e 76e2 528a faf3 a32f 22fb d332
00000030: 00de bdb8 bb48 f1ba bca0 24bb 96b5 383a
00000040: 6052 4cb6 b2b5 8537 a227 69ba 3d69 1cbb
00000050: 7ccc 62bb 0108 1bba 53b0 4a38 d4d4 5238

encoder.fc1.bias f4 [4]
-1.0895881e-32 -0.010749902 0.36970395 0.3214163
00000000: 714c 628a 5b20 30bc d649 bd3e ad90 a43e

encoder.fc_mu.weight f4 [3, 4]
-1.1651311e-32 -0.00019892603 0.2338023 -0.009722611 -9.470442e-33 0.012599393 -0.28425634 -0.23591544
-4.8172023e-33 -0.0006439266 -0.011360576 0.31105202
00000000: fffc 718a cd96 50b9 df69 6f3e 964b 1fbc
00000010: 82b1 448a af6d 4e3c 0c8a 91be d193 71be
00000020: 4819 c889 2fcd 28ba b621 3abc 3642 9f3e

encoder.fc_mu.bias f4 [3]
-0.083314866 0.18090011 -0.09577526
00000000: fca0 aabd e13d 393e d225 c4bd

encoder.fc_logvar.weight f4 [3, 4]
1.0638041e-32 0.02358643 -0.6420279 0.18379904 -7.467823e-33 2.2963399e-05 0.028824873 0.42455527
-1.0788719e-32 2.4364821e-11 -0.04633717 -0.08570524
00000000: 87f1 5c0a 5438 c13c f15b 24bf d135 3c3e
00000010: c219 1b8a 86a1 c037 2422 ec3c 4f5f d93e
00000020: ab12 608a b350 d62d 0bcc 3dbd 3b86 afbd

encoder.fc_logvar.bias f4 [3]
0.17828257 -0.14711528 0.044716947
00000000: b58f 363e 63a5 16be 1e29 373d

decoder.fc2.weight f4 [4, 5]
0.18972053 -0.07477413 0.10984624 0.0064062937 -0.08344776 0.22828896 0.19789536 0.058972806
0.11953291 0.24129911 0.10911822 -0.14379558 0.08422974 -0.058632486 -0.14009133 -0.36399993
-0.21277061 -0.113126576 -0.11136049 -0.31142226
00000000: 1946 423e 2e23 99bd 11f7 e03d e3eb d13b
00000010: a9e6 aabd 95c4 693e 15a5 4a3e 788d 713d
00000020: accd f43d 1d17 773e 6079 df3d 263f 13be
00000030: a480 ac3d 9e28 70bd 1a74 0fbe 335e babe
00000040: 8ae0 59be e8ae e7bd f810 e4bd bd72 9fbe

decoder.fc2.bias f4 [4]
-0.17582034 -0.29192114 -0.31228536 0.04894863
00000000: 3f0a 34be b076 95be dee3 9fbe 5c7e 483d

decoder.fc1.weight f4 [4, 4]
-0.15057094 0.0016180982 0.1404317 -0.03760891 -0.17492072 0.055821903 0.17890054 -0.0044108178
0.17287779 -0.39423335 -0.27558276 -0.24064216 -0.2373882 0.25754324 0.2941565 0.12578376
00000000: 452f 1abe 5e16 d43a 54cd 0f3e cd0b 1abd
00000010: 6b1e 33be 82a5 643d b431 373e 9f88 90bb
00000020: e006 313e f4d8 c9be 2f19 8dbe e66a 76be
00000030: e415 73be b5dc 833e ae9b 963e 75cd 003e

decoder.fc1.bias f4 [4]
0.020316267 0.04187322 -0.15885077 0.120244674
00000000: 4d6e a63c 4183 2b3d c7a9 22be d742 f63d
