c2cvae/german_credit_vae.pth (torch, 8260 bytes, 10 tensors)

encoder.fc1.weight f4 [16, 20]
-0.10371247 -0.025642041 -0.018756075 -0.090617746 0.05356296 -0.0054782275 0.029844332 -0.09514771
-0.09993957 0.049732514 0.09282457 0.09961589 -0.023761218 0.081982225 -0.13596565 0.055099823
0.060182244 -0.00043120794 0.06599891 -0.0014886699 -5.4706735e-17 -2.5243264e-26 -9.240353e-16 -1.4725163e-14
1.03747295e-32 -1.2777893e-15 -2.0936616e-16 -1.0391116e-32 -5.2049227e-16 -3.6818244e-15 1.05843884e-32 -1.1925715e-14
9.894925e-33 -7.3686075e-16 -4.1997063e-16 9.804942e-33 -5.919287e-16 -1.0126213e-32 -5.0812464e-16 -2.0820477e-16
0.11268368 0.021899901 0.037328012 -0.05326445 -0.14120738 -0.090430096 0.031005494 0.18162347
0.06528537 -0.13343199 -0.08161208 0.18106055 -0.0042589656 -0.16712545 0.11304478 -0.040001594
0.1381133 -0.002885741 -0.17768621 -0.17377964 0.025348786 0.04627475 0.0061640195 0.056374088
0.00978063 0.029345313 -0.023703584 -0.0083279945 0.036971133 0.029072218 0.10081047 0.141393
0.019966327 -0.05803118 0.004108987 0.03486791 0.053785145 -0.02810005 -0.12256666 0.06438493
-0.059031937 -0.031950355 -0.06844095 0.0005677256 -0.0009312385 0.023026718 0.036084548 -0.027191026
-0.13773946 0.11459789 0.008130612 0.008932232 -0.0060939705 -0.03568492 0.035399947 0.029801104
0.050439637 -0.10134664 -0.029524643 0.035027303 0.019199181 0.018369624 -0.012656095 0.02748034
-0.015197079 0.017721029 -0.004708738 0.03603276 0.13644615 -0.030662881 -0.006627502 0.01779704
0.0059470376 0.048890773 0.026619097 -0.03022372 0.088795364 0.011628746 0.16228668 -0.05189584
0.19303797 0.0495891 0.14774139 0.038398534 0.011871401 -0.15399326 -0.16273533 -0.0529288
-0.037383877 0.017086139 -0.035584506 -0.021373903 0.047836345 -0.1568642 0.04393566 0.027963098
0.026157562 0.17065035 -0.053464208 0.11040296 -0.22903958 -0.20041639 0.05507642 -0.20014837
-0.17297092 -0.15863524 0.1275474 0.10013379 0.053083386 0.13115445 -0.09052144 0.086870044
0.14491954 -0.22414044 0.09171652 -0.13862337 0.06326019 -0.1722556 -0.1479053 0.059621822
0.04713533 0.008298399 -0.04676511 0.052371904 -0.05837605 -0.046201035 -0.010871456 0.04425942
0.12789117 0.11716231 -0.13523991 -0.06848449 0.01256529 0.065873526 0.13164796 -0.071514994
-0.0010553271 -0.013023491 0.07677832 -0.11465156 -0.105560265 -0.14600477 -0.07450669 -0.16676882
-0.07531959 0.13511504 0.17096524 0.13817883 0.099903114 -0.15552135 0.10727876 -0.10233378
0.06472018 0.050079912 0.020945858 -0.027690854 -0.030791199 0.028969694 -0.10125175 -0.16116409
0.045400415 0.023350779 -0.03608555 0.053201333 -0.035391193 -0.05088508 -0.050902385 -0.029657682
0.07326151 0.14189439 -0.047035035 0.04722872 0.018542022 0.016010763 0.09227728 -0.014708909
0.08407047 0.015542247 -5.4505683e-05 -0.051144674 -0.13344754 0.027425945 -0.13414639 0.07418561
0.032102786 -0.0012140948 -0.030147621 0.093358226 0.10169389 -0.13106908 -0.0025093837 -0.064101405
0.08739962 -0.12268373 -0.0238936 0.028618976 -0.00027508725 0.048141025 0.047055956 -0.103822514
-0.014907716 -0.026469408 -0.002931013 -0.035762724 -0.0406158 0.006854737 0.060641106 0.11185033
0.13361388 0.06510612 -0.034435034 -0.050950393 -0.017004011 0.12859234 -0.024584517 -0.059959155
00000000: 3467 d4bd 420f d2bc 57a6 99bc cc95 b9bd
00000010: d664 5b3d b482 b3bb 1a7c f43c cddc c2bd
00000020: 1ead ccbd 52b4 4b3d cf1a be3d 6a03 cc3d
00000030: e3a6 c2bc 4ce6 a73d 943a 0bbe 5ab0 613d
00000040: a881 763d c013 e2b9 702a 873d 791f c3ba
00000050: 504a 7ca4 47ff f994 e32a 85a6 eaa1 84a8
00000060: 8679 570a 1b26 b8a6 fc61 71a5 a6d0 578a
00000070: 8d05 16a6 d6a6 84a7 43d4 5b0a a7d5 56a8
00000080: 7282 4d0a ba62 54a6 ba18 f2a5 03a4 4b0a
00000090: a19c 2aa6 2f50 528a fb74 12a6 340b 70a5
000000a0: b4c6 e63d 6c67 b33c 42e5 183d d32b 5abd
000000b0: ab98 10be 6a33 b9bd 3cff fd3c 81fb 393e
000000c0: 56b4 853d 65a2 08be 3c24 a7bd f067 393e
000000d0: cb8e 8bbb ef22 2bbe 0684 e73d b6d8 23bd
000000e0: 936d 0d3e b31e 3dbb 60f3 35be 4af3 31be
000000f0: 42a8 cf3c 988a 3d3d 8bfb c93b 84e8 663d
00000100: ef3e 203c 9565 f03c 052e c2bc 2472 08bc
00000110: 0b6f 173d dc28 ee3c b875 ce3d 54c9 103e
00000120: 6c90 a33c 1ab2 6dbd aea4 863b a7d1 0e3d
00000130: d04d 5c3d 1332 e6bc 3b04 fbbd 3fdc 833d
00000140: 79cb 71bd 60de 02bd c52a 8cbd 6cd3 143a
00000150: 5c1e 74ba 87a2 bc3c 64cd 133d b7bf debc
00000160: 930b 0dbe 4cb2 ea3d 4236 053c 7f58 123c
00000170: eeaf c7bb 5a2a 12bd 89ff 103d 7221 f43c
00000180: cb99 4e3d d48e cfbd aadd f1bc ca78 0f3d
00000190: 9a47 9d3c e57b 963c 835b 4fbc 731e e13c
000001a0: 2bfd 78bc b12b 913c c24b 9abb 1697 133d
000001b0: 8ab8 0b3e b930 fbbc 842b d9bb 19cb 913c
000001c0: 5edf c23b b141 483d 4b10 da3c bc97 f7bc
000001d0: 58da b53d 7f86 3e3c 7b2e 263e bb90 54bd
000001e0: bfab 453e f11d 4b3d 8549 173e c847 1d3d
000001f0: 4480 423c 69b0 1dbe 17a4 26be dfcb 58bd
00000200: d61f 19bd 3bf8 8b3c 0fc1 11bd 5318 afbc
00000210: 0bf0 433d 02a1 20be e1f5 333d de12 e53c
00000220: 6248 d63c f7be 2e3e 49fd 5abd f21a e23d
00000230: 5a89 6abe f439 4dbe d097 613d b2f3 4cbe
00000240: 4a1f 31be 4771 22be c99b 023e f212 cd3d
00000250: f76d 593d 5a4d 063e 4e63 b9bd ece8 b13d
00000260: ca65 143e 1285 65be dfd5 bb3d 49f3 0dbe
00000270: 8f8e 813d c663 30be 7d74 17be 0336 743d
00000280: fa10 413d 02f6 073c c68c 3fbd ec83 563d
00000290: ba1b 6fbd 4c3d 3dbd 311e 32bc 5e49 353d
000002a0: e7f5 023e cbf2 ef3d 557c 0abe 9941 8cbd
000002b0: a5de 4d3c b3e8 863d b9ce 063e 7476 92bd
000002c0: e752 8aba 7b60 55bc f43d 9d3d 70ce eabd
000002d0: fb2f d8bd 4682 15be f796 98bd 72c5 2abe
000002e0: 2841 9abd 995b 0a3e 8311 2f3e c07e 0d3e
000002f0: 019a cc3d fd40 1fbe f7b4 db3d 5f94 d1bd
00000300: 048c 843d 9820 4d3d a696 ab3c eed7 e2bc
00000310: d33d fcbc da51 ed3c 145d cfbd 3308 25be
00000320: c9f5 393d 224a bf3c 71ce 13bd a4e9 593d
00000330: 5bf6 10bd e06c 50bd 057f 50bd abf4 f2bc
00000340: 210a 963d c34c 113e cfa7 40bd e772 413d
00000350: 70e5 973c 0129 833c dffb bc3d a3fd 70bc
00000360: 232d ac3d e9a4 7e3c 089d 64b8 147d 51bd
00000370: 79a6 08be 60ac e03c ac5d 09be a0ee 973d
00000380: 367e 033d 4322 9fba 25f8 f6bc 9932 bf3d
00000390: e344 d03d f936 06be 7974 24bb 9947 83bd
000003a0: 92fe b23d 9c41 fbbd 83bc c3bc 5872 ea3c
000003b0: 9639 90b9 862f 453d bfbd 403d e6a0 d4bd
000003c0: 7e3f 74bc 5fd6 d8bc 3d16 40bb ef7b 12bd
000003d0: c15c 26bd b49d e03b cf62 783d c911 e53d
000003e0: 14d2 083e 5c56 853d c00b 0dbd 5cb1 50bd
000003f0: ff4b 8bbc b6ad 033e 7865 c9bc bb97 75bd

encoder.fc1.bias f4 [16]
0.21180527 -1.1639713e-11 -0.14571321 -0.16379103 0.20948741 0.13862176 0.15812576 0.012836554
-0.014415276 -0.050478794 -0.045424506 0.056393865 -0.10123081 -0.16915832 -0.07016917 0.105459586
00000000: 7be3 583e 9bc4 4cad d835 15be d6b8 27be
00000010: de83 563e ddf2 0d3e b8eb 213e 6950 523c
00000020: 0d2e 6cbc dac2 4ebd 0c0f 3abd 41fd 663d
00000030: 1952 cfbd d737 2dbe dbb4 8fbd 32fb d73d

encoder.fc2.weight f4 [8, 16]
0.132187 1.0347452e-32 -0.072815135 -0.09092433 0.07954431 -0.072783254 0.03274631 0.17664753
0.10739324 -0.085131526 -0.035893597 -0.08631897 -0.08942415 0.090759896 -0.0311553 0.11696879
0.18880813 9.8476055e-33 0.17691167 -0.06828191 0.11581943 -0.11465654 0.032380566 -0.085485764
0.13524197 -0.071137615 -0.063542105 0.011249293 -0.060377575 0.12196154 -0.012699349 0.17956677
-0.052224606 -1.04087196e-32 -0.14257617 0.086259894 0.042017683 0.21619412 0.042164225 -0.06747001
-0.08155564 0.17096096 -0.052500285 -0.076058604 0.10159073 -0.08643474 -0.065432176 -0.06324468
-0.16293995 -1.0292135e-32 0.22531565 -0.02278737 -0.039884966 -0.10761006 -0.10954321 -0.16328706
-0.14946324 0.0814994 0.11811266 0.06965961 -0.06001413 0.117128976 0.16357228 -0.042718057
-0.013290219 -9.4710755e-33 0.016331788 0.08618859 0.01575541 -0.08192328 -0.06070331 -0.17311044
0.04914437 -0.020319216 -0.10243454 -0.044532903 -0.05790711 0.13360296 -0.020009845 0.04250961
0.12928438 1.0471075e-32 -0.13031867 -0.09373007 0.011598314 -0.017302113 0.06553036 -0.16529487
-0.07615647 0.17116036 0.12780498 0.043478668 0.14162149 -0.03038042 -0.24415877 0.15364517
-0.01590969 9.815286e-33 -0.011782993 0.055483814 -0.16133778 -0.061613876 0.00039403222 0.14580527
-0.05407176 -0.21535009 0.11177543 -0.0042234114 0.10476182 -0.14915884 -0.12683447 -0.034887634
0.1381824 -1.0116825e-32 0.12446229 0.003983737 0.023597619 0.082534835 0.07796975 0.12743218
0.105672024 -0.15605669 -0.116080284 -0.030623145 0.06473629 -0.011835307 -0.2492871 0.092223994
00000000: 075c 073e 7ee8 560a 1a20 95bd 8936 babd
00000010: 21e8 a23d 630f 95bd ff20 063d 17e3 343e
00000020: fdf0 db3d 7059 aebd 2a05 13bd 00c8 b0bd
00000030: 0224 b7bd 53e0 b93d 6639 ffbc 558d ef3d
00000040: eb56 413e da86 4c0a 5528 353e 63d7 8bbd
00000050: bd32 ed3d 0cd1 eabd 7ca1 043d 2913 afbd
00000060: df7c 0a3e 99b0 91bd 5d22 82bd f44e 383c
00000070: 7a4e 77bd f9c6 f93d ee10 50bc 5ae0 373e
00000080: 78e9 55bd 3f2e 588a 7dff 11be 07a9 b03d
00000090: bc1a 2c3d fe61 5d3e 65b4 2c3d b72d 8abd
000000a0: a506 a7bd 6410 2f3e 8a0a 57bd 9dc4 9bbd
000000b0: cd0e d03d b204 b1bd 4e01 86bd 6d86 81bd
000000c0: bbd9 26be 60c2 558a 25b9 663e 94ac babc
000000d0: 6b5e 23bd aa62 dcbd 3158 e0bd b934 27be
000000e0: e40c 19be 28e9 a63d 0de5 f13d b3a9 8e3d
000000f0: 60d1 75bd 51e1 ef3d 7e7f 273e 21f9 2ebd
00000100: 38bf 59bc e0b4 448a 3eca 853c a583 b03d
00000110: 7d11 813c 65c7 a7bd 09a4 78bd dd43 31be
00000120: 9b4b 493d 7c74 a6bc 33c9 d1bd 2268 36bd
00000130: 0130 6dbd 37cf 083e b0eb a3bc 8f1e 2e3d
00000140: 2063 043e c979 590a 4272 05be 8df5 bfbd
00000150: db06 3e3c 29bd 8dbc c834 863d 0f43 29be
00000160: ecf7 9bbd a944 2f3e 4fdf 023e b016 323d
00000170: 3905 113e 5ce0 f8bc c204 7abe 2955 1d3e
00000180: 0a55 82bc 03db 4b0a 740d 41bc ff42 633d
00000190: bb35 25be d55e 7cbd 1c96 ce39 fa4d 153e
000001a0: 5a7a 5dbd bc84 5cbe 84ea e43d 8b64 8abb
000001b0: 5d8d d63d 18bd 18be e5e0 01be 56e6 0ebd
000001c0: b07f 0d3e 451e 528a 16e6 fe3d 028a 823b
000001d0: cb4f c13c 0608 a93d 9bae 9f3d 957d 023e
000001e0: 936a d83d 53cd 1fbe 80bb edbd 64dd fabc
000001f0: 7694 843d e0e8 41bc 1e45 7fbe efdf bc3d

encoder.fc2.bias f4 [8]
-0.048528735 -0.07441831 -0.070526876 0.11038734 0.025323104 -0.094766416 0.058105435 -0.11015452
00000000: 11c6 46bd a068 98bd 6570 90bd c212 e23d
00000010: 6672 cf3c e514 c2bd f7ff 6d3d b198 e1bd

encoder.fc3.weight f4 [8, 16]
-0.07101467 1.0390183e-32 0.068069205 0.0638873 -0.114857756 -0.067528106 -0.022304218 -0.13720298
-0.052198634 -0.15086374 0.06729695 -0.00088547554 0.0868154 -0.10879931 -0.026053827 -0.06850319
-0.010542909 -1.0366906e-32 -0.17184092 -0.005548077 -0.0011314177 -0.016818766 -0.0011516972 0.0109908
-0.018872956 -0.012385652 0.02171624 -0.00663509 0.008609386 -0.0034581823 0.057673473 0.0037391272
0.07194996 -1.0106616e-32 -0.054304007 0.032738116 0.025360303 0.15442453 0.09539203 -0.05079842
0.037744343 -0.023650184 -0.05817698 0.04814918 0.11822298 -0.13934976 0.105765834 -0.00998906
0.16603495 9.748135e-33 0.05881205 -0.070025906 0.074234 -0.01997903 0.0703774 -0.10747232
0.07904151 0.066209815 -0.010149118 0.021171967 0.015890537 0.021047091 -0.044568844 0.13949251
0.15589815 -1.0296287e-32 -0.104938574 -0.11077761 0.17073494 0.09548576 0.05387173 0.042504568
0.08868067 0.013327355 -0.08634769 -0.02056181 -0.10877906 0.1441979 -0.10842576 0.14456885
0.11487116 1.0445084e-32 0.07688698 -0.035857007 0.029080829 0.046835434 0.08649215 -0.02255551
0.004882407 -0.007608747 0.039408818 -0.033293195 0.11879341 -0.10110125 -0.14581811 0.07662833
0.06909309 -1.03155e-32 0.05234871 -0.086983904 0.011020358 -0.17822509 -0.031876 0.1060324
0.010709577 -0.062937 0.078350104 -0.008833702 -0.069595486 0.11845849 0.13260013 0.12866123
-0.013409463 9.736295e-33 -0.093689896 0.082013406 -0.01688549 0.10258048 0.040786847 -0.092770316
0.0383943 -0.05645678 -0.0853114 -0.0012120259 0.06820342 -0.0982821 0.018859446 -0.08023221
00000000: 2470 91bd b0cb 570a de67 8b3d 58d7 823d
00000010: 8b3a ebbd 2d4c 8abd 56b7 b6bc f07e 0cbe
00000020: 3cce 55bd 067c 1abe fcd2 893d 421f 68ba
00000030: 46cc b13d 2cd2 debd d66e d5bc 674b 8cbd
00000040: 2abc 2cbc ed4f 578a 11f7 2fbe a5cc b5bb
00000050: 144c 94ba 82c7 89bc 8cf4 96ba c212 343c
00000060: 759b 9abc 31ed 4abc 42e6 b13c 2b6b d9bb
00000070: 620e 0d3c aca2 62bb 053b 6c3d 250c 753b
00000080: 805a 933d fde7 518a e16d 5ebd 6718 063d
00000090: 69c0 cf3c 7721 1e3e e65c c33d 0112 50bd
000000a0: d099 1a3d 08be c1bc fc4a 6ebd 1338 453d
000000b0: e41e f23d b4b1 0ebe c29b d83d 28a9 23bc
000000c0: 1105 2a3e fa75 4a0a e7e4 703d be69 8fbd
000000d0: ff07 983d 10ab a3bc 0722 903d 731a dcbd
000000e0: 84e0 a13d 0399 873d 7c48 26bc d570 ad3c
000000f0: df2c 823c f36a ac3c d28d 36bd 20d7 0e3e
00000100: c4a3 1f3e 74d8 558a 09ea d6bd 5fdf e2bd
00000110: 24d5 2e3e 0a8e c33d 9aa8 5c3d 4519 2e3d
00000120: 369e b53d fa5a 5a3c 0fd7 b0bd 3e71 a8bc
00000130: 8ec7 debd 9da8 133e 530e debd db09 143e
00000140: 9241 eb3d 98ef 580a ec76 9d3d ccde 12bd
00000150: eb3a ee3c 83d6 3f3d cc22 b13d 55c6 b8bc
00000160: 99fc 9f3b cc52 f9bb 246b 213d 725e 08bd
00000170: f649 f33d 2c0e cfbd 5851 15be 50ef 9c3d
00000180: ae80 8d3d 9b3e 568a 9a6b 563d 9e24 b2bd
00000190: bb8e 343c a380 36be 6990 02bd 8427 d93d
000001a0: 3977 2f3c 1de5 80bd 0576 a03d 3bbb 10bc
000001b0: 1488 8ebd 5d9a f23d 54c8 073e c5bf 033e
000001c0: 5db3 5bbc 0637 4a0a 7de0 bfbd a5f6 a73d
000001d0: 7053 8abc b715 d23d 1c10 273d 5dfe bdbd
000001e0: 5743 1d3d 393f 67bd beb7 aebd d7dc 9eba
000001f0: 3cae 8b3d 2048 c9bd 207f 9a3c c950 a4bd

encoder.fc3.bias f4 [8]
0.08258868 0.0072429525 -0.09444651 -0.096813865 -0.14898477 -0.09054493 0.01615242 -0.014250272
00000000: 4124 a93d 4a56 ed3b 2c6d c1bd 5946 c6bd
00000010: 778f 18be 9f6f b9bd 1452 843c f979 69bc

decoder.fc.weight f4 [16, 8]
0.009637289 0.005820702 0.017892165 -0.0024640122 0.0035810345 -0.018963197 -0.0634646 -0.033248223
-0.0003580761 -0.046709828 -0.020513095 0.006752533 -0.039037373 0.0050887465 0.026185768 -0.042925667
-0.0033118546 -0.011224518 -0.009391892 0.003032501 0.0016501946 -0.021209579 0.0065500094 0.0024163995
-0.037452705 0.05683987 0.0033098008 0.03297216 0.01696658 -0.021724392 0.022183727 -0.005611635
0.0016115647 0.021751836 -0.016714502 0.00063084 -0.00079718255 0.009790179 0.00552036 0.03069433
-0.003929078 -0.012764468 0.014910725 0.008800844 -0.005451142 0.0014952916 -0.0023323256 -0.013040911
0.026496608 0.009814561 0.010898651 -0.051968154 0.02506874 -0.012057011 0.049480394 0.023681141
0.015229986 0.0216917 -0.0070876353 -0.010920004 0.010999963 0.011267822 0.013312078 -0.02486652
-0.0012110452 -0.003927532 -0.050261553 -0.028408729 0.02969158 0.013216324 0.04725843 0.041363757
0.0010158718 0.004705577 0.03908333 0.012299092 -0.026105804 -0.0028957115 -0.026357463 -0.011661247
0.044679634 -0.0006816489 0.014181065 0.010274792 0.015145552 0.01638296 0.0042150496 0.017157914
0.009081463 -0.0015223204 0.00016057398 0.0056553194 -0.029655006 0.017494384 0.036510583 0.016757967
0.013767247 -0.0084128855 -0.08325546 -0.055047203 0.04912943 -0.03496977 0.031492386 -0.021299416
-0.03313935 -0.01692871 0.023002077 0.020315887 -0.013767254 0.037169255 0.05084044 0.076461494
0.05531922 -0.015237385 -0.018720094 -0.048651513 0.01637868 0.018305603 0.003334231 0.013038506
0.010060654 0.02506079 0.03393274 0.0127253765 -0.00039250194 -0.023466753 -0.07972171 -0.032008413
00000000: b8e5 1d3c 96bb be3b 9792 923c 447b 21bb
00000010: caaf 6a3b b558 9bbc baf9 81bd 4a2f 08bd
00000020: 29bc bbb9 ce52 3fbd 140b a8bc 5a44 dd3b
00000030: a7e5 1fbd 80bf a63b 8983 d63c d3d2 2fbd
00000040: b30b 59bb 0ae7 37bc 73e0 19bc edbc 463b
00000050: 584b d83a b6bf adbc 76a1 d63b 755c 1e3b
00000060: 0268 19bd ecd0 683d 3ee9 583b d10d 073d
00000070: 7ffd 8a3c 5af7 b1bc a6ba b53c cee1 b7bb
00000080: 233b d33a e830 b23c daec 88bc f55e 253a
00000090: 04fa 50ba fd66 203c 23e4 b43b ad72 fb3c
000000a0: 7fbf 80bb 0f22 51bc 1d4c 743c 6a31 103c
000000b0: 7e9f b2bb a9fd c33a eed9 18bb 8ca9 55bc
000000c0: 6a0f d93c 41cd 203c 4190 323c 8fdc 54bd
000000d0: f55c cd3c c58a 45bc f4ab 4a3d f4fe c13c
000000e0: 3187 793c cbb2 b13c 653f e8bb d1e9 32bc
000000f0: 3039 343c ac9c 383c e71a 5a3c dfb4 cbbc
00000100: efbb 9eba 87b2 80bb 0fdf 4dbd 6cb9 e8bc
00000110: c23b f33c 4889 583c 0e92 413d 0b6d 293d
00000120: 0027 853a 3e31 9a3b d815 203d 2182 493c
00000130: d7db d5bc fac5 3dbb 9beb d7bc d10e 3fbc
00000140: fe01 373d afb0 32ba b357 683c 9a57 283c
00000150: 0d25 783c 8f35 863c 661e 8a3b c18e 8c3c
00000160: 6bca 143c 9988 c7ba c05f 2839 4250 b93b
00000170: 0eef f2bc 6250 8f3c 1f8c 153d 0148 893c
00000180: 0590 613c 33d6 09bc d781 aabd 2d79 61bd
00000190: f13b 493d 763c 0fbd 29fe 003d 1d7c aebc
000001a0: 21bd 07bd 14ae 8abc da6e bc3c 816d a63c
000001b0: 0c90 61bc ca3e 183d 113e 503d d897 9c3d
000001c0: 6896 623d 3aa6 79bc e25a 99bc cf46 47bd
000001d0: 952c 863c a2f5 953c 1d83 5a3b 759f 553c
000001e0: 71d5 243c 494c cd3c 0ffd 0a3d 197e 503c
000001f0: b8c8 cdb9 593d c0bc 2345 a3bd 411b 03bd

decoder.fc.bias f4 [16]
0.35649094 0.27819994 -0.13330235 -0.33413926 0.2625231 0.5030824 -0.3725199 0.10464589
0.37391946 0.6369881 -0.28904593 0.21746777 0.46302882 0.5023808 -0.3736465 0.52133137
00000000: fb85 b63e 3970 8e3e 6980 08be 4d14 abbe
00000010: 6e69 863e 02ca 003f eeba bebe 9650 d63d
00000020: 5f72 bf3e a711 233f d4fd 93be dfaf 5e3e
00000030: 1d12 ed3e 079c 003f 984e bfbe f975 053f

decoder.fc_output.weight f4 [20, 16]
0.090240225 0.11383387 -0.018103767 0.005513109 0.09034078 0.2387668 -0.08610581 -0.019928163
0.24896389 0.22662038 0.11054231 0.19021273 0.12784019 0.15871945 -0.06603225 0.27063137
0.0030430278 0.0005795107 0.020185137 -0.0019602745 0.028136203 0.10141913 -0.018691929 -0.00969892
0.009978686 0.051823076 -0.013208085 0.021481011 0.068606056 0.06886015 -0.06107425 0.045793295
0.22757682 0.11539463 0.0030893688 0.014301748 0.10253713 0.003254498 -0.12432476 0.050935738
-0.0035393566 0.075366296 0.051013116 0.18046016 0.20368135 0.28041503 -0.037078045 0.16574977
0.10662632 0.08066132 0.012560147 -0.008209806 0.13909988 0.15438554 0.06162299 0.024026744
0.053089924 0.26296678 -0.10709601 0.0842134 0.19058986 0.1469322 0.17820409 0.10252475
-0.03759781 -0.03292903 0.005406478 0.054434594 -0.027127916 0.040223986 -0.014497301 -0.06652599
-0.021985142 -0.05550001 0.04163204 0.045470957 0.009300822 -0.0036697383 -0.018078793 0.033138145
-0.0012017573 0.11226962 0.014434588 0.023604581 -0.0081302365 0.065480605 -0.08063054 0.012716406
0.16103831 0.039111625 -0.08274468 0.16321132 0.123759635 0.2117667 0.021292152 0.37181273
0.13918214 0.0864337 0.020681115 0.010601306 0.13203777 0.112276964 0.04334023 0.048148934
0.012263292 0.20392935 -0.035769165 0.07151287 0.19551644 0.21486937 -0.0314781 0.11833959
0.15089707 0.044054944 -0.0009400467 -0.02412803 0.014170412 0.20692454 0.04157845 0.06268097
0.23394398 0.004190082 -0.0032363678 0.054762594 -0.00036445534 0.16135482 0.014363188 0.16989708
0.20832573 0.063331544 -0.0013754905 0.008138575 0.12036041 0.38531983 0.03250697 -0.02700533
0.20245744 0.13403125 -0.041543327 0.1252309 0.078617446 0.09534234 0.151405 0.07234457
0.18411852 0.15959358 0.0011542242 -0.017567389 0.08560611 0.0060125105 0.005008772 0.11164933
0.21490711 0.2904098 -0.079828195 0.06199289 0.09786139 0.17788048 -0.04049433 0.1408866
0.120767064 0.022696892 0.0073726014 -0.004120961 0.06247931 0.2815454 0.11010825 0.124917775
0.1464413 0.28513387 -0.056025956 -0.023037827 0.10539246 0.15857199 0.010106724 0.067258336
0.13826975 0.059450362 -0.0014996682 0.00039008443 0.08628086 0.14627042 -0.013859357 0.039812267
0.10538584 0.16466698 -0.046827234 0.012771417 0.045290004 0.05211999 0.00027268255 -0.014508508
-0.029565064 0.02542412 0.028301457 0.0018657377 -4.6607718e-05 -0.014167985 -0.06609116 0.02515023
0.019346772 0.049319066 -0.039840955 0.032645293 0.05079755 0.059801277 0.041613474 0.112497024
0.02288619 0.121598504 0.0051858514 0.011173392 0.035105284 0.00082307064 0.062244583 0.05117084
0.16505885 0.19602723 -0.12463276 0.111799024 0.12184105 0.16541418 0.08894979 0.27379692
0.013642282 -0.0003722444 0.01268581 -0.05436234 0.13471082 0.310002 0.16622917 -0.020407056
0.050720148 0.30844256 -0.019760748 -0.027511785 0.108948655 0.0072856722 -0.075309426 -0.040626217
-0.00925712 -0.025023317 -0.0012941279 0.0051928097 0.09977027 0.24683869 -0.12753463 -0.05574349
-0.013228534 0.18482013 0.055873126 0.0142788105 0.09152409 -0.017273154 -0.09848588 -0.03291386
00000000: decf b83d bb21 e93d 5a4e 94bc 4fa7 b43b
00000010: 9604 b93d 497f 743e 3e58 b0bd 6340 a3bc
00000020: 64f0 7e3e 2c0f 683e 0264 e23d 20c7 423e
00000030: 8ae8 023e 5a87 223e eb3b 87bd 3290 8a3e
00000040: 896d 473b 4eea 173a 4d5b a53c f377 00bb
00000050: e57d e63c d5b4 cf3d d11f 99bc 38e8 1ebc
00000060: a57d 233c 6f44 543d b966 58bc f2f8 af3c
00000070: 5581 8c3d 8d06 8d3d fe28 7abd c091 3b3d
00000080: e609 693e 0554 ec3d 0277 4a3b e151 6a3c
00000090: fdfe d13d 6a49 553b fb9d febd fea1 503d
000000a0: 8df4 67bb a559 9a3d 21f3 503d 8cca 383e
000000b0: d891 503e 8f92 8f3e 26df 17bd 4fba 293e
000000c0: e65e da3d c331 a53d 13c9 4d3c 6c82 06bc
000000d0: 3370 0e3e 3e17 1e3e 6368 7c3d bcd3 c43c
000000e0: d274 593d 95a3 863e 2755 dbbd 1378 ac3d
000000f0: fd29 433e 6575 163e 227b 363e 7ff8 d13d
00000100: 2900 1abd 97e0 06bd d328 b13b cff6 5e3d
00000110: 5d3b debc e8c1 243d 1686 6dbc c73e 88bd
00000120: 2f1a b4bc fa53 63bd 5c86 2a3d c13f 3a3d
00000130: 7a62 183c fe7f 70bb fa19 94bc ddbb 073d
00000140: 4984 9dba 9ded e53d 0d7f 6c3c 655e c13c
00000150: af34 05bc b21a 863d a021 a5bd 7958 503c
00000160: 3ae7 243e 8333 203d 0b76 a9bd de20 273e
00000170: b175 fd3d 5fd9 583e e16c ae3c 3d5e be3e
00000180: c385 0e3e 2704 b13d 716b a93c 1ab1 2d3c
00000190: e934 073e 77f1 e53d 8685 313d d137 453d
000001a0: faeb 483c dbd2 503e b082 12bd 5775 923d
000001b0: 7635 483e b706 5c3e 2eef 00bd 075c f23d
000001c0: c384 1a3e f572 343d 776d 76ba 25a8 c5bc
000001d0: 042b 683c 07e4 533e 2a4e 2a3d e15e 803d
000001e0: 038f 6f3e f54c 893b 3e19 54bb be4e 603d
000001f0: 5e14 bfb9 333a 253e 9453 6b3c 80f9 2d3e
00000200: 5753 553e f8b3 813d cd49 b4ba a857 053c
00000210: 857f f63d a448 c53e 0726 053d 483a ddbc
00000220: 0151 4f3e 7d3f 093e 5629 2abd 873c 003e
00000230: 2f02 a13d d842 c33d ea09 1b3e 6429 943d
00000240: 9189 3c3e 806c 233e 5649 973a 7ce9 8fbc
00000250: 4252 af3d 9804 c53b a020 a43b 67a8 e43d
00000260: 9c10 5c3e 98b0 943e f77c a3bd 42ec 7d3d
00000270: 8d6b c83d 4d26 363e 62dd 25bd 9444 103e
00000280: b954 f73d d5ee b93c dd95 f13b 2009 87bb
00000290: 4eea 7f3d b826 903e 6f80 e13d e4d4 ff3d
000002a0: b5f4 153e 11fd 913e 797b 65bd d3b9 bcbc
000002b0: 01d8 d73d b260 223e ac96 253c bdbe 893d
000002c0: 9696 0d3e 3982 733d 8490 c4ba 3f84 cc39
000002d0: 05b4 b03d eac7 153e 5b12 63bc 3012 233d
000002e0: 88d4 d73d 769e 283e eacd 3fbd 353f 513c
000002f0: 0382 393d c57b 553d d5f6 8e39 18b5 6dbc
00000300: 6f32 f2bc 3e46 d03c 75d8 e73c c58b f43a
00000310: a87c 43b8 d620 68bc cd5a 87bd db07 ce3c
00000320: 1f7d 9e3c ca02 4a3d 4530 23bd 12b7 053d
00000330: 1711 503d 2ff2 743d e472 2a3d d764 e63d
00000340: d27b bb3c a308 f93d 13ee a93b 9a10 373c
00000350: 8fca 0f3d 56c3 573a 2df4 7e3d 8498 513d
00000360: 3005 293e 5dbb 483e 763f ffbd e3f6 e43d
00000370: cd87 f93d 5662 293e 4f2b b63d 1c2f 8c3e
00000380: e183 5f3c cc29 c3b9 25d8 4f3c 0cab 5ebd
00000390: a2f1 093e 95b8 9e3e fb37 2a3e b32c a7bc
000003a0: eebf 4f3d 2fec 9d3e 4be1 a1bc 6560 e1bc
000003b0: 7920 df3d a6bc ee3b d43b 9abd ad67 26bd
000003c0: 2dab 17bc b3fd ccbc ba9f a9ba 7228 aa3b
000003d0: 5b54 cc3d 48c3 7c3e 7098 02be 4953 64bd
000003e0: 7ebc 58bc 7d41 3d3e 38db 643d acf1 693c
000003f0: fb70 bb3d 6e80 8dbc f7b2 c9bd afd0 06bd

decoder.fc_output.bias f4 [20]
-0.06854764 0.05680523 0.13668893 0.09156308 0.19741468 0.16504957 0.11941281 0.2013729
0.07764537 0.063916035 -0.0018629174 0.3428562 0.14831688 0.14093722 0.26654384 -0.13788404
0.32708484 0.17916581 0.37783948 0.054963775
00000000: b562 8cbd 9aac 683d 2ff8 0b3e 6d85 bb3d
00000010: 1327 4a3e c102 293e b48e f43d b334 4e3e
00000020: 8904 9f3d 69e6 823d 232d f4ba d98a af3e
00000030: 61e0 173e d951 103e 6f78 883e 7931 0dbe
00000040: aa77 a73e 3e77 373e 2d74 c13e b221 613d
