c2cvae/german_credit_c2c.pth (torch, 5188 bytes, 10 tensors)

encoder.fc1.weight f4 [8, 10]
000000 5f 3c 71 3a 9e ed 42 3a bd 37 28 ba bd 07 b3 ba
       0.00092024164 0.00074359204 -0.0006416997 -0.0013658922
000010 04 15 75 ba 38 0a 56 ba c2 39 f4 ba 84 3c 43 39
       -0.000934914 -0.0008164975 -0.0018632936 0.00018619193
000020 70 7d 1c 3d bd 5f 17 be 37 e8 5a 3a 37 1d c4 ba
       0.038205564 -0.14782615 0.0008350643 -0.001496232
000030 fa 69 18 ba 79 69 fb b9 12 ec dc ba 2a c7 54 ba
       -0.00058141316 -0.00047953034 -0.0016855022 -0.0008116836
000040 0f 23 10 ba ed ec 2f ba 74 9c 1f 3d ff 9f 0d 3e
       -0.0005498388 -0.0006711025 0.038967565 0.13830565
000050 1e ed 36 39 8d e0 9a 3a 3f 4e 0c ba a8 a3 cf 39
       0.00017445206 0.0011816189 -0.0005352236 0.0003960405
000060 38 2e 8c b9 58 56 b7 b9 6c ba b9 b9 05 59 b9 38
       -0.00026737317 -0.0003496881 -0.00035424845 8.8380686e-05
000070 35 c7 ff bc 07 5c 1b 3d fd 7e 4d 0a c7 99 50 8a
       -0.031222919 0.03792956 9.894275e-33 -1.0043758e-32
000080 a1 15 54 8a d8 45 54 0a a6 7f 5a 0a a8 eb 56 0a
       -1.0211497e-32 1.0220565e-32 1.0520326e-32 1.0348047e-32
000090 ea b0 4f 0a e3 3f 54 8a 4e fe e1 3d f1 ae b4 3d
       9.999961e-33 -1.02194445e-32 0.11034833 0.0882243
0000a0 30 b1 c1 b7 b3 56 be 3a 53 33 81 b9 0d 90 36 3a
       -2.3089902e-05 0.0014521688 -0.00024643037 0.0006964214
0000b0 f1 75 60 3a 41 89 ec b9 1f 66 2a 38 e0 64 a5 39
       0.00085624965 -0.0004511569 4.0626266e-05 0.0003154641
0000c0 5d a4 af 3d 88 86 fc 3d c9 a6 67 8a 08 20 63 0a
       0.08576272 0.12330347 -1.1153614e-32 1.0935677e-32
0000d0 5f 4c 6a 8a 5e 62 6c 0a 88 86 68 8a 27 8a 65 0a
       -1.1281054e-32 1.13814875e-32 -1.1195696e-32 1.10519325e-32
0000e0 6d 2f 5a 0a 85 82 5c 0a 4a a8 4a 8a 68 aa 57 8a
       1.0505238e-32 1.0617163e-32 -9.757598e-33 -1.0383923e-32
0000f0 33 ad 7e 3a b8 a2 92 b9 77 e3 da b9 c6 c4 d6 ba
       0.000971514 -0.00027968525 -0.00041749675 -0.0016385547
000100 4c 48 bf ba 6c 43 8f b9 fa 9f a9 b9 23 f1 77 ba
       -0.001459369 -0.0002732532 -0.00032353384 -0.00094582344
000110 2b 55 0c ba 28 24 37 3e 4c b8 48 b9 a9 77 32 3a
       -0.0005353267 0.17884886 -0.00019142142 0.0006807992
000120 d6 01 08 b8 14 b2 f3 39 bf 90 7f 39 1d f1 b9 b9
       -3.2426637e-05 0.0004648125 0.00024372617 -0.00035465593
000130 8e 74 ad b7 e3 4f 27 3a 0d 79 53 bd 05 2e 15 3d
       -2.0677482e-05 0.00063824485 -0.051629115 0.03642084

encoder.fc1.bias f4 [8]
000000 9a ea 18 3e 6e 04 2e 37 66 95 8b 3e 4d e5 51 be
       0.14933243 1.037224e-05 0.2726242 -0.20497628
000010 f5 bf 37 3e 2b 44 65 8a 74 d7 27 3e 7f fc a4 3e
       0.1794432 -1.103877e-32 0.16390783 0.3222389

encoder.fc_mu.weight f4 [7, 8]
000000 3c 39 55 bd d7 b5 a7 bd 77 58 c9 be b8 3b 6a bd
       -0.052056536 -0.0818898 -0.39325306 -0.05718586
000010 10 da 0b be 6b 38 5e 8a 38 a0 5d 3e 64 5f bb bd
       -0.13657403 -1.0699522e-32 0.2164315 -0.09149054
000020 8a be 11 be 2c e9 8a 3d a0 4f 28 be 9e 02 39 be
       -0.14232841 0.06782755 -0.16436625 -0.18067405
000030 68 f0 20 be d0 f9 46 8a 06 ad 8c 3c e7 79 5d be
       -0.15716708 -9.580338e-33 0.017172348 -0.21628533
000040 ed f3 29 be 0f 40 2a 3e e6 93 00 be be 32 46 3d
       -0.16596957 0.16625999 -0.12556419 0.048388235
000050 bb 4c ea bd 53 84 4f 0a 13 02 0d be 4b d9 e1 bd
       -0.114404164 9.991575e-33 -0.13770323 -0.110277735
000060 66 12 51 bd 11 dd a9 3d 7c d4 56 be c4 50 08 be
       -0.051042937 0.08294118 -0.20979494 -0.1331206
000070 c4 71 b0 be 88 74 53 8a 99 26 86 3e 87 de d8 be
       -0.34461796 -1.01811975e-32 0.26201323 -0.42357275
000080 75 b6 cb bd a4 b7 5f bd c5 bd c5 3d ed b1 06 3e
       -0.0994691 -0.054618493 0.09655336 0.13153811
000090 ec 58 3f bd ee 5f 54 8a 33 c2 bb 3c 6e aa 80 be
       -0.046715662 -1.0225471e-32 0.02291975 -0.25130028
0000a0 96 94 65 be 91 81 71 bd 0c f6 a2 bd 51 d5 f9 3d
       -0.22419962 -0.058961455 -0.07957086 0.1219889
0000b0 26 1f 74 3d 7c cc 55 0a ba 0a 1b be 34 f1 7c bd
       0.059600018 1.0294036e-32 -0.1514081 -0.061753467
0000c0 90 10 d6 3d 12 eb 26 3e 61 bb 69 be a4 52 4c 3e
       0.10452378 0.1630061 -0.22825386 0.199534
0000d0 5d 85 88 be ff a2 55 8a 53 64 5b 3e 3b 7d da bd
       -0.26664248 -1.0286233e-32 0.2142499 -0.10668417

encoder.fc_mu.bias f4 [7]
000000 b7 bb 08 3e f1 fc 24 3e a8 eb 0c 3e fc 7b 61 3e
       0.13352858 0.16112114 0.1376177 0.22019953
000010 f7 cf 97 3d 11 8e b6 3d ca 08 c0 3d
       0.07412713 0.08913816 0.093766764

encoder.fc_logvar.weight f4 [7, 8]
000000 af 5f 7f bd e9 00 83 bc 2a d7 95 bd dd 53 3d bc
       -0.06234711 -0.015991645 -0.0731643 -0.011555639
000010 0c a0 d3 3c f0 4a 68 0a 35 e7 41 bd de 27 f0 3c
       0.025833152 1.1184488e-32 -0.047339637 0.029315885
000020 45 ee 9b 3d ee 0a 44 3e 07 de 82 bd 4f 43 0f bd
       0.07613806 0.19144794 -0.063900046 -0.0349763
000030 44 43 dc bd 9f e5 5b 0a ba b0 22 bc ef b1 79 3d
       -0.107550174 1.05876534e-32 -0.00992983 0.060960706
000040 c9 a3 65 3e 19 f3 4e 3e 43 d0 69 3e 10 db f8 bb
       0.2242576 0.20209922 0.22833352 -0.0075944737
000050 98 65 51 bd 8e 02 5a 0a 49 be 68 bb ae 48 c4 3d
       -0.051122278 1.0496799e-32 -0.003551381 0.09584175
000060 9d 21 22 be 9c 73 1e 3d dd 80 e9 be b9 31 41 be
       -0.15833135 0.038684472 -0.45606127 -0.18866624
000070 58 b9 fb bd 84 45 59 0a 92 8d c4 3c 11 21 89 bc
       -0.12291211 1.04612444e-32 0.023993287 -0.0167394
000080 b1 ea 2f bd 0f d7 88 b9 4b 74 82 be ef 13 12 be
       -0.04294843 -0.00026100173 -0.2547935 -0.14265417
000090 f5 37 4d be af 3f 5d 8a 02 00 4d 3e b2 ee 59 be
       -0.20040877 -1.06527405e-32 0.20019534 -0.21282461
0000a0 55 a2 86 be db c0 6c 3c 0d dd 91 be 92 3d 8b bd
       -0.26295725 0.014450277 -0.2848896 -0.06798853
0000b0 0c 8b e2 bc 8e 97 4f 0a 5a 07 0d be 9a 84 65 bd
       -0.027654193 9.995192e-33 -0.13772336 -0.05603466
0000c0 18 5a 0e bd d6 6d 9d 3e 34 a3 e2 bd 05 01 ea bd
       -0.03475389 0.3074786 -0.11066285 -0.11425976
0000d0 d5 b7 3f be 06 9a 5f 8a 3c 15 da bd 17 f4 16 bd
       -0.1872247 -1.0766028e-32 -0.106485814 -0.036853876

encoder.fc_logvar.bias f4 [7]
000000 4b 24 bc 3c 40 97 ee 3b cb 3b ef bd 70 9a 2f 3e
       0.022966525 0.007281214 -0.116813265 0.17148757
000010 21 2a 17 3e b1 70 26 3e b4 48 c9 3d
       0.14762165 0.16253926 0.0982832

decoder.fc2.weight f4 [8, 9]
000000 4c 4b 1f 3e 82 d2 a3 be 4d fc 88 be 1a 11 41 3e
       0.15556067 -0.31996542 -0.2675499 0.1885418
000010 f4 ff 19 bd 66 b8 56 3d 9a 85 64 3d f8 bd 9f 3e
       -0.03759761 0.05242195 0.055791475 0.31199622
000020 c8 07 cf 3d bb ca 28 be a2 c0 62 3e 1a d9 07 3e
       0.10108906 -0.16483586 0.22143796 0.13266411
000030 18 9d e9 3d e4 6c 6d 3e 1d e7 85 3d 50 ca 81 bd
       0.114069164 0.2318607 0.06538222 -0.06337416
000040 be e2 03 bd f3 bc 1e be 4a a5 30 be bc 8a 4d 3e
       -0.03219866 -0.15501766 -0.17250553 0.20072454
000050 92 62 25 3d e4 39 80 bc 5f 86 dc bd 9b 2f 07 3e
       0.040377207 -0.015652604 -0.10767817 0.13201754
000060 cb 26 3f be 32 0b 81 bd 6e 5e 5b 3e 51 40 ff 3d
       -0.18667142 -0.063009635 0.21422741 0.12463439
000070 1d 1d 04 be cb 17 24 bd 9c e9 07 be 37 9c 16 be
       -0.12901731 -0.040061753 -0.13272709 -0.14708029
000080 0b 45 b8 bd df fb 99 3d 3c 84 23 bd 5b b7 43 3d
       -0.08997544 0.07518744 -0.03992103 0.047782283
000090 2e c1 14 be 12 e1 27 3e 80 6f 2d 3d 58 3f 58 3d
       -0.14526817 0.16394451 0.042342663 0.052794784
0000a0 b7 4c 92 3c 1a 91 d9 3d e7 22 01 be d5 e4 87 bc
       0.017858846 0.10623379 -0.1261097 -0.016588608
0000b0 4c a7 a7 3d d4 24 f6 3b 76 7e 85 3d ae df f2 3d
       0.08186206 0.0075117145 0.06518261 0.1185907
0000c0 8c 37 8a bd a6 d7 c8 3d 8d 50 b4 bd f8 cf 8f 3d
       -0.06748876 0.09806757 -0.08804426 0.07022089
0000d0 83 d1 e7 bd ef 2f 3b be 7f 31 00 3e 0d dd ec bd
       -0.11319258 -0.18280004 0.12518881 -0.115655996
0000e0 30 7c bd 3a c6 45 93 bd ee c3 fd 3b c2 bf ed bd
       0.0014456566 -0.071910426 0.007744304 -0.116088405
0000f0 c3 a5 01 3e 24 d1 dd bc af c7 f6 bd 6f 89 35 3c
       0.1266089 -0.027077265 -0.120498054 0.01108013
000100 e6 f1 c7 bd bd 5a ca bd 9f fb 81 3e 57 32 53 3e
       -0.09762935 -0.09880588 0.25387284 0.20624672
000110 50 aa 8c 3d 1e 06 eb 3c 6f 9d 6d 3e 9b d4 dd bd
       0.06868422 0.02868944 0.23204587 -0.10831567

decoder.fc2.bias f4 [8]
000000 8e e1 e7 bd 0f 98 3a be 54 4c 41 be 44 d3 0b 3e
       -0.11322318 -0.18222068 -0.18876773 0.1365481
000010 b7 cf d9 bd 9f be 00 3f b8 49 c8 bc a0 67 6b be
       -0.106353216 0.50290865 -0.024449214 -0.22988749

decoder.fc1.weight f4 [8, 8]
000000 5f 44 1f 3e b3 3e 7c 3e 96 b9 01 be c0 85 6d be
       0.15553425 0.24633293 -0.12668452 -0.23195553
000010 62 8f 4e be 71 6a 4c be 3a 4d 0f b9 29 e6 ba be
       -0.20171884 -0.19962479 -0.00013666312 -0.36503723
000020 71 40 01 be ac 92 b0 be 3e fe 6c be 3f 76 28 be
       -0.12622239 -0.34486902 -0.2314386 -0.16451357
000030 04 fd 81 3e 87 5e bb 3d 3e cf 33 be ea 6b 90 3d
       0.25388348 0.09148889 -0.17559525 0.07051833
000040 4e 0f e9 3d 31 a4 a1 bc 70 56 19 3e 65 26 25 bc
       0.11379872 -0.019731613 0.1497438 -0.010079955
000050 b3 d7 13 be 0a c4 8d 3e 37 48 08 be 5d 1f 98 bb
       -0.14437751 0.27688628 -0.13308798 -0.0046424107
000060 05 bd bc 3d ff 2b 21 3e 7c 74 9b 3d b1 0c 12 3e
       0.0921574 0.1573944 0.07590577 0.14262654
000070 17 17 23 3e 5e 85 ec bc 5c 1c 80 3e b9 2e f7 bc
       0.15926777 -0.028872188 0.25021636 -0.030173646
000080 c2 19 45 bd a1 64 04 3e 3c 3b ca bd 7c 0e 77 3e
       -0.048120268 0.12929012 -0.09874579 0.24126619
000090 e3 8a 27 3d 3f 76 01 be 7d 4f ce bd 91 f6 e0 3c
       0.040903937 -0.12642764 -0.10073755 0.027461322
0000a0 fd a4 31 3d 16 a4 39 3d bd 9a 2b 3d 80 5c 79 be
       0.043370236 0.0453225 0.041895617 -0.24351692
0000b0 93 c2 32 3b 47 ab 28 be 9e 0b a9 3e 68 00 06 be
       0.002727662 -0.16471587 0.33016676 -0.13086092
0000c0 89 2c d1 bc 7a 6f e5 bb e7 9f 2b 3d 44 d2 11 3e
       -0.025533931 -0.0070018144 0.04190054 0.14240366
0000d0 73 12 65 3e c3 e0 15 bc 0d ad 44 3e e1 5e d1 3d
       0.22370319 -0.009147826 0.19206639 0.10223175
0000e0 0d 3d 66 3e 78 37 41 3e 85 d5 20 be c4 89 be 3d
       0.22484227 0.18868816 -0.15706451 0.093036205
0000f0 83 07 2b 3e 56 a4 e0 3d 81 ee 02 be 09 ca 80 be
       0.16702084 0.109688446 -0.12786295 -0.2515414

decoder.fc1.bias f4 [8]
000000 68 1e 85 3d 00 f9 d5 bd 07 47 f5 bd 1e 2e 85 3d
       0.0649994 -0.104478836 -0.11976438 0.06502937
000010 95 f4 1f 3d c3 76 f0 3d 62 04 29 3d 83 fb a3 bd
       0.03905161 0.11741402 0.041263945 -0.080069564
