c2cvae/heloc_c2c.pth (torch, 5076 bytes, 10 tensors)

encoder.fc1.weight f4 [8, 10]
0	0x8a4a07c0	-9.727404e-33
1	0x8a5b9f36	-1.0574411e-32
2	0x8a53136b	-1.01629326e-32
3	0x8a4fe9d2	-1.0010664e-32
4	0x0a578796	1.0377374e-32
5	0x8a51ef9c	-1.01080495e-32
6	0x8a550169	-1.0255842e-32
7	0x8a5a8b56	-1.05225244e-32
8	0xa6f1ffa0	-1.6792022e-15
9	0x0a4d3fb7	9.8823744e-33
10	0x394e2c78	0.00019662257
11	0x38c03f16	9.167024e-05
12	0x39104c14	0.00013761251
13	0xb99cb7e4	-0.00029891648
14	0x39be07ef	0.00036245535
15	0xbab5be7f	-0.0013865976
16	0xb945c106	-0.00018859291
17	0x3a9f9582	0.0012175294
18	0x3dcff919	0.101549335
19	0xb71aaefc	-9.219857e-06
20	0xb870b79d	-5.7391462e-05
21	0xba2eaaaa	-0.0006663004
22	0xbad310ae	-0.0016102993
23	0x3987a8fa	0.00025875104
24	0x3a0fc6cb	0.00054846396
25	0xb919127f	-0.00014598107
26	0x3a8098ab	0.0009811124
27	0xb98ef754	-0.00027268624
28	0xbc8e274a	-0.017352719
29	0xb8aa33f9	-8.115912e-05
30	0xb891e689	-6.957079e-05
31	0xb9e249fe	-0.00043161208
32	0xba141bb7	-0.0005649882
33	0x38d1738b	9.987418e-05
34	0x392f5aea	0.00016723169
35	0x3a1de1a3	0.0006022697
36	0x3903f19b	0.00012583139
37	0xba1b69e7	-0.00059285614
38	0x3c6a91b8	0.014316969
39	0x35931df0	1.0961066e-06
40	0xba16c239	-0.00057509873
41	0xbaac8d05	-0.0013164586
42	0xbb1918bf	-0.0023360697
43	0x3a189c77	0.0005821655
44	0x3a2b74bc	0.0006540527
45	0x39125840	0.0001395652
46	0x3a94692a	0.0011322845
47	0xba2f6292	-0.00066904083
48	0xbba17628	-0.0049274154
49	0xb8aa4bdc	-8.1203616e-05
50	0xb997c72a	-0.00028949353
51	0x38ff4273	0.00012171725
52	0xb7f417e4	-2.9098192e-05
53	0x39969730	0.00028722873
54	0xb95a493a	-0.00020817379
55	0x39816870	0.0002468261
56	0xb92adce7	-0.00016294756
57	0xb9c4bfcf	-0.00037526942
58	0x3d4fd909	0.05074409
59	0x3982a8fd	0.00024921438
60	0x8a521963	-1.0115907e-32
61	0x8a5539e8	-1.0266468e-32
62	0x0a4f757c	9.988784e-33
63	0x0a557ae6	1.02786916e-32
64	0x8a4e4ca6	-9.932955e-33
65	0x0a4b36ec	9.784424e-33
66	0x8a5670b2	-1.0324921e-32
67	0x0a4e8381	9.943272e-33
68	0x3e40afc7	0.18817054
69	0xbd00e69e	-0.031469934
70	0x38a2fd9a	7.771999e-05
71	0xb980a2e0	-0.00024535414
72	0xba369b13	-0.0006965857
73	0x38bddd05	9.0533904e-05
74	0x39bc14a0	0.0003587352
75	0xb94a426c	-0.00019288965
76	0x39b908b4	0.00035292434
77	0xb8cc8baa	-9.7534925e-05
78	0x3cd545d7	0.026034279
79	0xb850da32	-4.9794275e-05

encoder.fc1.bias f4 [8]
0	0xa6f7f24a	-1.720474e-15
1	0xbdb73663	-0.0894592
2	0x3eafefd6	0.34362668
3	0x3e768629	0.24074616
4	0x3e61c690	0.22048402
5	0xb8d4ea0b	-0.00010152542
6	0xbe45ab90	-0.19303727
7	0x3d9891ea	0.07449706

encoder.fc_mu.weight f4 [7, 8]
0	0x8a4c4a24	-9.836187e-33
1	0xbdf1e4d2	-0.11811222
2	0xbdf3c0f2	-0.11902036
3	0x3d926396	0.07147901
4	0xbd9ef310	-0.07761204
5	0xbcd11e1f	-0.025527058
6	0xbc3eb88f	-0.011640682
7	0xbceee8c5	-0.029163728
8	0x8a4eaeca	-9.9514134e-33
9	0xbe067752	-0.13131455
10	0x3d068235	0.03283902
11	0xbebe5f7e	-0.3718223
12	0xbe8bfca6	-0.27341193
13	0x3ccd1132	0.025032613
14	0xbdd0e3c1	-0.101996906
15	0x3e3e67e8	0.18594325
16	0x8a440c6d	-9.439394e-33
17	0xbe7f14c3	-0.24910264
18	0xbd8ffd2a	-0.07030709
19	0x3eb675b7	0.35636684
20	0x3e901cf0	0.28147078
21	0x3cd5f225	0.02611644
22	0xbd7b56d2	-0.061362095
23	0xbdfd31cc	-0.123630136
24	0x0a548279	1.0231968e-32
25	0x3e1db189	0.15399756
26	0x3e3be60d	0.18349476
27	0xbe0c9738	-0.1372956
28	0x3e780b51	0.24223067
29	0xbc2eed82	-0.010676743
30	0x3deda12c	0.11603007
31	0x3e467e2c	0.19384068
32	0x0a4d54a7	9.886312e-33
33	0x3e477273	0.19477253
34	0x3ec39c9e	0.38205427
35	0xbdb2652c	-0.08710703
36	0x3e63db49	0.2225162
37	0xbc78f9f4	-0.015196312
38	0xbdb61359	-0.08890409
39	0x3e92002a	0.2851575
40	0x8a51ea3e	-1.010704e-32
41	0x3da9ec77	0.08297055
42	0x3d5e8381	0.05432463
43	0x3dcf4c92	0.101220265
44	0xbe5a4c61	-0.21318199
45	0xbb140236	-0.0022584326
46	0xbcc04ac2	-0.023473147
47	0xbdc164da	-0.09443064
48	0x0a4f9944	9.9955135e-33
49	0xbe10f04f	-0.1415417
50	0xbe220089	-0.15820517
51	0x3cada114	0.021194972
52	0xbe0482ff	-0.12940596
53	0xbcd15a68	-0.025555804
54	0x3e107949	0.14108767
55	0xbcdb9902	-0.026806358

encoder.fc_mu.bias f4 [7]
0	0x3d3010c0	0.042984724
1	0x3dff447e	0.12464236
2	0xbdea7284	-0.11447623
3	0xbdc86a65	-0.09785918
4	0xbe38f8d4	-0.1806367
5	0x3c34b2d4	0.011028964
6	0x3da3714a	0.079805925

encoder.fc_logvar.weight f4 [7, 8]
0	0x0a5967dc	1.0467704e-32
1	0x3d7a303a	0.06108115
2	0x3cc6bab5	0.02425895
3	0x3dcd20f2	0.100160494
4	0x3e52b9e4	0.20578724
5	0xbc9a95e6	-0.018870305
6	0xbd4ab77c	-0.04949139
7	0x3c1805a9	0.009278693
8	0x8a5aa1f7	-1.05267804e-32
9	0xbe391b4b	-0.18076818
10	0xbdbefb8a	-0.09325321
11	0xbe180f11	-0.14849497
12	0xbe84111b	-0.257943
13	0x3bdeb5ca	0.0067965733
14	0x3e005f34	0.12536317
15	0x3d2571b1	0.040391628
16	0x8a57b616	-1.038612e-32
17	0x3e29a7de	0.16567943
18	0x3eab6e06	0.3348238
19	0x3e5028d6	0.20328078
20	0x3e3bb65d	0.18331285
21	0x3d20e8ea	0.039284624
22	0x3c948498	0.018129632
23	0xbbc196b9	-0.00590786
24	0x8a5b0f2e	-1.05473214e-32
25	0xbc5539c9	-0.013014265
26	0x3e51e1d4	0.20496303
27	0x3e6194bf	0.22029398
28	0xbe027837	-0.12741171
29	0xbc30d4ac	-0.010792892
30	0xbcb62f73	-0.022239422
31	0x3c99485d	0.018711263
32	0x0a5b8a06	1.0570426e-32
33	0xbcc7e0d7	-0.024399204
34	0x3c8d48d0	0.017246634
35	0x3cb6446b	0.022249421
36	0x3ebfb0a4	0.37439454
37	0xbbbdd843	-0.0057936027
38	0x3c94b524	0.01815278
39	0x3dc049c0	0.09389067
40	0x8a593f7e	-1.04601115e-32
41	0xbd0b5693	-0.03401811
42	0xbe7a771a	-0.24459496
43	0xbdef3127	-0.11679297
44	0x3e1aaa1f	0.15103959
45	0xbb4dd2d5	-0.0031406183
46	0xbb8739d9	-0.004126769
47	0xbd4712f3	-0.048602056
48	0x0a477bca	9.6047836e-33
49	0x3d9c94da	0.07645579
50	0xbeba83a4	-0.3642856
51	0xbe072998	-0.1319946
52	0x3c2d3ecc	0.010574054
53	0x3bf4a8cc	0.007466411
54	0x3afc70b7	0.0019259666
55	0xbe60879c	-0.21926731

encoder.fc_logvar.bias f4 [7]
0	0xbda0dfa9	-0.0785516
1	0x3df92d9c	0.121669024
2	0xbe50e363	-0.20399241
3	0xbdc6257e	-0.0967512
4	0xbdce89a6	-0.10084848
5	0x3da8f672	0.08250131
6	0x3e2f15a4	0.17098099

decoder.fc2.weight f4 [8, 9]
0	0x3c1ade44	0.009452406
1	0x3c528d63	0.012851092
2	0xbdd2e98d	-0.102984525
3	0x3d30a6ca	0.043127812
4	0x3df2165d	0.11820672
5	0xbbdeb9af	-0.0067970376
6	0xbd82b0dc	-0.063813895
7	0x3dfb091a	0.12257595
8	0x3e17e205	0.14832313
9	0xbdb579a8	-0.08861095
10	0xbc7c2cf9	-0.015391582
11	0x3bd59b53	0.00651876
12	0xbdc03de8	-0.09386808
13	0x3dd982b2	0.10620631
14	0xbdd3e0d4	-0.10345617
15	0xbe15f152	-0.14642838
16	0xbc98b8f1	-0.018642874
17	0x3c986dd4	0.018607058
18	0xbdb28ad9	-0.08717889
19	0x3cbd4c5a	0.023107696
20	0x3d4d566d	0.05013125
21	0xbe269d20	-0.16270876
22	0x3dae5fcd	0.08514366
23	0xbe028f55	-0.1274999
24	0xbdedff49	-0.116209574
25	0xbd960cee	-0.07326685
26	0xbd23727f	-0.039904114
27	0x3deb95cb	0.1150318
28	0x3e270227	0.16309415
29	0xbe2a4baa	-0.16630426
30	0xbd668e32	-0.05628795
31	0x3e1899c0	0.14902401
32	0x39c91f4e	0.0003836103
33	0x3d9c4b9d	0.076316096
34	0x3e25b9f0	0.16184211
35	0x3e1c9d9f	0.15294503
36	0x3be82de2	0.007085548
37	0xbd370e42	-0.04469133
38	0x3d20e066	0.039276503
39	0x3e19def8	0.15026462
40	0xbd8706e2	-0.0659311
41	0x3d75bf2a	0.05999676
42	0x3c69edd2	0.014277892
43	0x3d22f014	0.039779738
44	0x3d037e57	0.03210291
45	0x3e4ce50d	0.20009251
46	0x3e4fa193	0.2027648
47	0xbe38b585	-0.18037994
48	0x3bf51cb2	0.0074802274
49	0x3daa926d	0.0832871
50	0x3d9d2da0	0.07674718
51	0x3e4ed25a	0.2019743
52	0x3e3f1d3f	0.186635
53	0x3e224a14	0.15848571
54	0x3e17a471	0.14808823
55	0x3e52d621	0.20589496
56	0xbd61a0b8	-0.055084914
57	0xbc34d259	-0.011036479
58	0x3d300811	0.042976443
59	0x3d011f51	0.031524006
60	0x3e2f2961	0.17105629
61	0x3e05a20e	0.130501
62	0x3dc32bc0	0.09529829
63	0xbd8b5b59	-0.068045326
64	0xbd527ed5	-0.051390488
65	0xbd4f47e5	-0.050605673
66	0xbda58254	-0.08081499
67	0x3dac2e67	0.08407288
68	0xbd72b86d	-0.059257913
69	0xbdedd64c	-0.116131395
70	0xbcfa0aa4	-0.030522652
71	0x3be4aadd	0.0069783763

decoder.fc2.bias f4 [8]
0	0xbe065d89	-0.13121618
1	0x3e7d9b7b	0.24766342
2	0xbe1a6bc1	-0.15080167
3	0xbe9c99fb	-0.30586228
4	0xbe7090a8	-0.23492682
5	0x3e721894	0.23642188
6	0x3eb0e972	0.34553105
7	0xbdd033fc	-0.10166165

decoder.fc1.weight f4 [8, 8]
0	0x3bc2c33e	0.005943685
1	0x3e8da456	0.2766444
2	0x3cd733dd	0.026269848
3	0xbe3d7072	-0.18499926
4	0xbd95ec1a	-0.073204234
5	0x3ea86e49	0.3289664
6	0xbe80ce9b	-0.25157627
7	0xbe9dd0ed	-0.3082346
8	0xbdf6cd27	-0.120508485
9	0xb9d43006	-0.0004047157
10	0x3def502c	0.116852134
11	0x3d97a45d	0.07404397
12	0x3e443ed1	0.19164588
13	0x3dce01a5	0.100589074
14	0xbde56070	-0.112000346
15	0x3d020a28	0.031747967
16	0xbe01d07f	-0.12677191
17	0xbdff3613	-0.12461486
18	0x3d9be157	0.076113395
19	0x3e25a081	0.16174509
20	0x3e5f9c50	0.21836972
21	0xbd9f350c	-0.0777379
22	0x3d138900	0.036019325
23	0x3e4bf74d	0.19918557
24	0xbe4203ed	-0.1894681
25	0x3e35281f	0.17691086
26	0xbd8abd20	-0.06774354
27	0x3e3538de	0.17697474
28	0x3de7e398	0.11322707
29	0x3c1e9db4	0.009681154
30	0xbdde7e32	-0.108639136
31	0xbd83b4bf	-0.06430959
32	0x3e0bd99b	0.13657229
33	0xbc5b0aae	-0.013369245
34	0x3d196a4d	0.037454892
35	0xbe3ad150	-0.18243909
36	0xbdfb29ab	-0.12263807
37	0x3dc5cd7e	0.09658335
38	0xbc215b5a	-0.00984844
39	0xbd9efb7b	-0.0776281
40	0x3bf254a7	0.0073953453
41	0xbe1df130	-0.15424037
42	0x3e2e8151	0.17041518
43	0x3e5d0bd9	0.21586551
44	0x3d3ddbdd	0.046352256
45	0xbd011277	-0.03151175
46	0xbe560e9c	-0.2090401
47	0xbe462a01	-0.1935196
48	0x3df41b4b	0.11919268
49	0xbe42a935	-0.1900986
50	0x3dd6ddda	0.104915336
51	0x3dac303b	0.08407637
52	0xbda0e343	-0.07855847
53	0xbda9d46c	-0.082924694
54	0xbd8d3130	-0.068941474
55	0xbe04df79	-0.12975873
56	0xbdd43920	-0.10362458
57	0xbcde5bb5	-0.027143339
58	0x3e596fab	0.21234004
59	0x3db9955c	0.09061691
60	0x3e5245d1	0.20534445
61	0x3e34165e	0.17586657
62	0xbe75c898	-0.24002302
63	0xbdb15b3e	-0.08659981

decoder.fc1.bias f4 [8]
0	0xbe23009f	-0.15918206
1	0x3db4a2d9	0.08820123
2	0x3e1c9aad	0.15293379
3	0x3cfc274f	0.030780463
4	0xbdad9287	-0.084752135
5	0x3e4f13fc	0.20222467
6	0x3deca581	0.11555005
7	0x3e08cb74	0.13358861
