c2cvae/heloc_vae.pth (torch, 8148 bytes, 10 tensors)

encoder.fc1.weight f4 [16, 20]
0	0xbcaccccf	-0.021093754
1	0xbc47ea15	-0.012201806
2	0xbc12c926	-0.00895909
3	0xbc97de4b	-0.018538615
4	0xbc4192ce	-0.011814786
5	0xbbfcb8a8	-0.0077124424
6	0xbbfc3a36	-0.007697369
7	0xbcc87c3f	-0.024473308
8	0xbcb3b2a5	-0.02193577
9	0xbcb4a10a	-0.022049446
10	0xbc36f2c1	-0.0111662755
11	0xbbe6d92b	-0.0070449314
12	0xbca7deb6	-0.020491939
13	0xba493fc6	-0.00076770445
14	0xb9fdefab	-0.00048434487
15	0xbbded8c1	-0.0068007414
16	0xbbdfe24d	-0.006832397
17	0xbaf67991	-0.001880454
18	0xbabddec2	-0.0014485943
19	0xbce5977a	-0.028026331
20	0xbd1daabe	-0.03849291
21	0xbd11d077	-0.0355992
22	0xbce894db	-0.028391292
23	0xbd06e722	-0.03293527
24	0xbd06d8ca	-0.03292159
25	0xbd214221	-0.039369706
26	0xbd0483b6	-0.03235217
27	0xbd1fa454	-0.038975075
28	0xbd219fb3	-0.03945894
29	0xbd15d5e9	-0.036580954
30	0xbcfd5628	-0.030924872
31	0xbd276f81	-0.040877823
32	0xbd0ef49a	-0.03490124
33	0xbc8a36b8	-0.016871795
34	0xbc63674f	-0.013879611
35	0xbce73796	-0.028224748
36	0xbd0b02b7	-0.033938136
37	0xbd11a163	-0.0355543
38	0xbcbe6504	-0.023241527
39	0xbd0a2285	-0.033724327
40	0xbc5a6758	-0.013330303
41	0xbbcf0a75	-0.0063183852
42	0xbb9f1b44	-0.0048555452
43	0xbc2254a5	-0.009907876
44	0xbbb1ac13	-0.005422124
45	0xbbb08539	-0.005386975
46	0xbb88ec62	-0.0041785697
47	0xbc905466	-0.01761837
48	0xbc507391	-0.012722866
49	0xbc1bb497	-0.009503505
50	0xbb93d7ed	-0.0045118243
51	0xba3e4bc8	-0.0007259217
52	0xbc338c63	-0.010958764
53	0xbb672372	-0.003526893
54	0xbb6ae7ea	-0.0035843798
55	0xbb0fb562	-0.002192818
56	0xbae82c12	-0.0017713329
57	0xb891833c	-6.938583e-05
58	0xba8b904d	-0.0010647863
59	0xbc926b45	-0.017873416
60	0xbca2c6b2	-0.019870136
61	0xbc8b023b	-0.016968837
62	0xbc479108	-0.012180574
63	0xbc888a03	-0.016667372
64	0xbc0a4d3c	-0.008441266
65	0xbc8dff37	-0.01733361
66	0xbd0eced9	-0.034865234
67	0xbca35690	-0.019938737
68	0xbcab9c9a	-0.020948697
69	0xbcf6eca6	-0.03014214
70	0xbc18bf97	-0.009323022
71	0xbc61a014	-0.013771076
72	0xbc990cf7	-0.01868294
73	0xbc820a47	-0.015874041
74	0xbc4f37be	-0.012647567
75	0xbc0e7cf7	-0.008696786
76	0xbc3b395d	-0.011427251
77	0xbbd8992e	-0.0066100573
78	0xbbcf3ffb	-0.0063247657
79	0xbce4dd7e	-0.027937647
80	0x3bd9d373	0.006647521
81	0x3abcb7b8	0.0014398014
82	0xb96d8db6	-0.00022654873
83	0x39b52da1	0.00034557006
84	0xbbb9869a	-0.0056617977
85	0xbcc6a889	-0.024250286
86	0xbbf1da7a	-0.0073807808
87	0x3add4f7b	0.0016884649
88	0x3c7700d7	0.015075884
89	0x3d048b33	0.032359313
90	0xbb8707f7	-0.0041208225
91	0xbb8c63c0	-0.004284352
92	0x3c214c14	0.009844799
93	0xba3d6df0	-0.000722616
94	0xbb548036	-0.0032425052
95	0x3a3c3048	0.00071788253
96	0x3b17ce6d	0.002316381
97	0x3c8f0422	0.017458025
98	0x3b068f04	0.0020532021
99	0x3c104fc5	0.008808081
100	0xbb6c5127	-0.0036059113
101	0xbbdddf83	-0.0067710294
102	0x3ac88c22	0.0015300552
103	0xbb6dd9c7	-0.0036293135
104	0x3af0f01d	0.0018382106
105	0xbc3fd4de	-0.011708466
106	0xbc535ece	-0.012901021
107	0xbbc91a97	-0.006137203
108	0xbc4b1a0b	-0.012396346
109	0xbc7b5d61	-0.0153420875
110	0x3ac6a73f	0.0015156044
111	0xbb08a294	-0.0020848857
112	0xb7eb3d48	-2.804272e-05
113	0xbb9b1373	-0.004732543
114	0xbb679842	-0.0035338555
115	0x3bab8b0c	0.0052350815
116	0x3bb73cd7	0.0055919695
117	0x3c42f860	0.0119000375
118	0x3be872ac	0.007093748
119	0xbc03fecf	-0.008056357
120	0xbc4f9c9b	-0.012671615
121	0xbc4faf5b	-0.012676085
122	0xbbbed5f3	-0.0058238446
123	0xbc88bfaf	-0.016692964
124	0xbc322e58	-0.010875307
125	0xbbd40b80	-0.0064710975
126	0xbb76eb4d	-0.0037676871
127	0xbca57764	-0.020198531
128	0xbc969b0b	-0.018384477
129	0xbc8a1e0a	-0.016860027
130	0xbc248c10	-0.010043159
131	0xbbb7cb46	-0.005608949
132	0xbc88a405	-0.016679773
133	0xb79516fb	-1.7772885e-05
134	0xb77d2d7d	-1.5090566e-05
135	0xbbade810	-0.005307205
136	0xbbc0aaf8	-0.005879756
137	0xba743f58	-0.00093173
138	0xbb228e41	-0.0024804028
139	0xbcf465be	-0.02983367
140	0x3be7ee38	0.0070779584
141	0x3a100ee0	0.00054953806
142	0xbbe31d64	-0.006930994
143	0xbb84c151	-0.0040513654
144	0xbc3203d7	-0.010865173
145	0xbcd85550	-0.026407868
146	0xba8cf372	-0.0010753705
147	0xbc1080c5	-0.008819764
148	0x3bd8ca50	0.0066159144
149	0x3cb8ce10	0.022559196
150	0xbb9fac2a	-0.0048728185
151	0xbbe82e5a	-0.0070856037
152	0x3a3ded3a	0.00072451273
153	0xbae2d1b4	-0.0017304928
154	0x3b44d23d	0.0030032538
155	0x3b81c416	0.003960143
156	0x3ae61eb4	0.0017556758
157	0x3c3e64d7	0.011620722
158	0xba9b8b0a	-0.0011866998
159	0xbb747fa3	-0.0037307523
160	0xa68c7357	-9.745714e-16
161	0x0a4e1fbb	9.924507e-33
162	0x8a524e75	-1.0125888e-32
163	0x924c7d86	-6.452577e-28
164	0x955699cc	-4.333828e-26
165	0x8a59502d	-1.0463249e-32
166	0x8a4e0320	-9.919127e-33
167	0xb0eb44ef	-1.7118092e-09
168	0xaa877ab2	-2.4065954e-13
169	0x232cd857	9.3699504e-18
170	0x0a50687c	1.0034487e-32
171	0x8a561fe4	-1.0309723e-32
172	0x0da9e0f5	1.0469586e-30
173	0x0a4747d7	9.595013e-33
174	0x8a549875	-1.0236103e-32
175	0x0a5ae408	1.0539206e-32
176	0x0a581521	1.04039956e-32
177	0x8a5b8e22	-1.0571199e-32
178	0x8a50f5e2	-1.0061081e-32
179	0xa9d54cc1	-9.472415e-14
180	0xbce5cf47	-0.02805294
181	0xbcca4a51	-0.02469364
182	0xbc54864a	-0.01297147
183	0xbcd96284	-0.026536234
184	0xbceb5af0	-0.028729886
185	0xbc113653	-0.00886305
186	0xbbdaa8ca	-0.0066729533
187	0xbcfb1d3f	-0.030653594
188	0xbcfe2cd0	-0.031027228
189	0xbd035c12	-0.032070227
190	0xbcd84c46	-0.026403558
191	0xbc80156e	-0.015635218
192	0xbcd79ee9	-0.026320891
193	0xba3079a5	-0.00067319936
194	0xb9e545df	-0.00043730342
195	0xbc8ec4c2	-0.017427806
196	0xbc52e8ff	-0.012872933
197	0xbc3ba73a	-0.011453444
198	0xbb450b1e	-0.003006644
199	0xbcf48636	-0.029849153
200	0xbc986e84	-0.018607385
201	0xbca30ecd	-0.019904518
202	0xbc8f7330	-0.01751098
203	0xbcae70d6	-0.021294039
204	0xbc90c976	-0.017674189
205	0xbc90f0c3	-0.01769293
206	0xbc32ca75	-0.010912527
207	0xbce7144c	-0.02820792
208	0xbcfe8a9f	-0.031071959
209	0xbd0887bf	-0.033332583
210	0xbc6fc1b9	-0.014633589
211	0xbc83140e	-0.016000774
212	0xbd073837	-0.033012595
213	0xbbf1509b	-0.0073643452
214	0xbc276918	-0.010217927
215	0xbc7550c5	-0.01497287
216	0xbc702dcc	-0.014659356
217	0xbc5d3ad2	-0.013502793
218	0xbc3c763b	-0.011502798
219	0xbd23c514	-0.03998287
220	0xbb11325b	-0.0022155258
221	0x3b222818	0.0024743136
222	0x3c2afcb3	0.010436225
223	0x3b9529fd	0.0045521245
224	0x3b552b26	0.003252694
225	0x3cbc56ff	0.022990702
226	0x3cb8de17	0.022566838
227	0x3b0f8145	0.002189712
228	0xbc48f6dd	-0.012265888
229	0xbd05cb7c	-0.03266476
230	0x3b0b211f	0.0021229459
231	0x39aadd27	0.00032589698
232	0xbc7bcff1	-0.015369401
233	0x3b0626f3	0.0020469993
234	0x3bb16819	0.0054140207
235	0xbc259b48	-0.010107823
236	0xbc580c87	-0.0131865805
237	0xbce2f97f	-0.02770686
238	0xbc24a7fa	-0.010049814
239	0xbc379fc3	-0.011207524
240	0xbb471657	-0.0030378306
241	0xbb83219f	-0.0040018107
242	0xbb3ad53a	-0.002850844
243	0xbb88f79b	-0.0041799075
244	0x39334f63	0.00017100344
245	0xbcbfb82a	-0.023403246
246	0xbc4c0ebd	-0.012454686
247	0xbbe6a0c7	-0.007038209
248	0x39aae3c7	0.00032594634
249	0x3bdf6aae	0.006818137
250	0xbafbabab	-0.0019200941
251	0xba060d8a	-0.0005113712
252	0x3bd741f0	0.0065691397
253	0xba768faf	-0.0009405566
254	0xbb423e74	-0.0029639276
255	0x3b327df7	0.0027235725

encoder.fc1.bias f4 [16]
0	0x3d41cbdf	0.047313567
1	0xbd1bd39f	-0.038043614
2	0x3cf8ea82	0.03038526
3	0x3d66d484	0.056355014
4	0x3d1c10b5	0.03810187
5	0x3da22b0c	0.07918367
6	0x3d331f1d	0.043730844
7	0x3db3ec46	0.087853
8	0xb37e8891	-5.926319e-08
9	0xbcfee63d	-0.031115646
10	0x3d92d442	0.07169391
11	0x3d8a92de	0.06766294
12	0x3d57c25c	0.05267559
13	0x3d3df6a2	0.046377786
14	0xbc31168d	-0.010808599
15	0x3d582932	0.052773662

encoder.fc2.weight f4 [8, 16]
0	0x3bd8bb49	0.006614123
1	0x3b63b7ed	0.003474708
2	0x3b2a5135	0.0025988345
3	0x3daaa0ee	0.08331476
4	0xbd053d24	-0.03252901
5	0x3dfb53b6	0.12271826
6	0x39b444cc	0.00034383533
7	0x3e441a18	0.19150579
8	0xb4da750b	-4.0690824e-07
9	0xbd2d1c61	-0.042263392
10	0xbc851461	-0.016245069
11	0x3e0fe4cc	0.14052123
12	0x3d804a85	0.062642135
13	0xbd05c11f	-0.032654878
14	0x3c353c59	0.011061751
15	0xbd87c7f7	-0.06629937
16	0xbcc8ca29	-0.02451046
17	0x3c77fff9	0.015136712
18	0x3aa2861c	0.0012399587
19	0x3ca779ee	0.020443883
20	0x3d127249	0.035753522
21	0xbd611132	-0.05494804
22	0x3c065c51	0.008200721
23	0xbd0e0acf	-0.034678277
24	0xba7e73ad	-0.0009706568
25	0x3c488b52	0.012240248
26	0xbdb54755	-0.08851496
27	0x3dbf8b42	0.09352733
28	0x3e1742bc	0.14771551
29	0xbdea884a	-0.11451776
30	0xba00b3a7	-0.0004909583
31	0x3c8f6319	0.017503308
32	0x3af4d092	0.0018677881
33	0xbbfe73eb	-0.0077652833
34	0x3a8c3d95	0.0010699505
35	0x3cd60530	0.02612552
36	0xbde9825a	-0.11401816
37	0xbdb4002b	-0.087890945
38	0xbb9e023d	-0.004822044
39	0x3d652b73	0.05594964
40	0xb7568bf7	-1.2787982e-05
41	0xbcb9b443	-0.022668963
42	0x3d26fe21	0.0407697
43	0x3d2f3584	0.042775646
44	0x3cb2264d	0.021746779
45	0x3dc02392	0.093817845
46	0x3b93f28c	0.004514998
47	0x3d0be503	0.03415395
48	0x3c013991	0.00788726
49	0xbcf24ce0	-0.029577672
50	0xbb968e78	-0.0045946203
51	0x3d8393f2	0.06424703
52	0x3e101084	0.140688
53	0xbdb79333	-0.08963623
54	0x3c88114d	0.016609812
55	0xbdb40804	-0.08790591
56	0x2a58957c	1.9236517e-13
57	0x3d03288c	0.03202109
58	0xbc6377b9	-0.013883525
59	0xbc097f17	-0.008392117
60	0x3d4244d7	0.047428932
61	0x3de75988	0.112963736
62	0x3b9a9f0d	0.0047186674
63	0xbd586a13	-0.052835535
64	0x3d617f16	0.05505284
65	0xbd152233	-0.036409568
66	0x3c55602c	0.013023417
67	0x3c360c0a	0.011111269
68	0xbd4a99d7	-0.04946312
69	0x3e000d14	0.12504989
70	0x3c9d7310	0.019219905
71	0xbd567c23	-0.05236448
72	0x34333aca	1.6692061e-07
73	0x3cd0b663	0.025477594
74	0x3d1ecfea	0.0387725
75	0x3cb76d4a	0.02239098
76	0x3d6ff571	0.05858368
77	0xbd1f8603	-0.038946163
78	0x3aacafbf	0.0013174935
79	0x3d985f7c	0.07440087
80	0xba21a228	-0.0006165826
81	0xbc2aeeb6	-0.01043289
82	0x3b35c679	0.0027736707
83	0x3d97bb20	0.07408738
84	0x3d838026	0.06420927
85	0xbd272cb7	-0.040814128
86	0xbb8bd8b8	-0.0042677782
87	0x3d4ebc0f	0.050472315
88	0x1a71fd2c	5.0042143e-23
89	0xbd230e8c	-0.039808795
90	0x3e087f86	0.13329896
91	0xbb9d83b4	-0.00480696
92	0x3d331876	0.0437245
93	0xbd607660	-0.05480039
94	0x3995f50f	0.00028602078
95	0x3ca60010	0.020263702
96	0x3e37a10a	0.17932525
97	0x3c600c3d	0.013674793
98	0xbba11b2e	-0.00491657
99	0x3de3f67c	0.111309975
100	0xbcaf4199	-0.021393584
101	0xbcdde104	-0.027084835
102	0xbc77c96d	-0.015123707
103	0x3d5e0254	0.05420144
104	0xae22e0b0	-3.7034098e-11
105	0x3c2eef51	0.010677175
106	0xbba0a1e6	-0.0049021123
107	0xbb84e1f3	-0.0040552556
108	0x3dd3bc42	0.10338642
109	0xbc3a8f23	-0.0113866655
110	0x3acb780b	0.0015523446
111	0xbd33badb	-0.04387937
112	0xbca9d018	-0.02072911
113	0xbcf08047	-0.029358042
114	0xbac42ec8	-0.0014967555
115	0x3d56465d	0.052313197
116	0xbdd8d374	-0.105872065
117	0xbcbcb1f1	-0.023034068
118	0xbc00576d	-0.007833344
119	0xbcefa527	-0.029253555
120	0x25e8f0e3	4.0408816e-16
121	0x3c2b129a	0.010441447
122	0x3cd52dda	0.02602284
123	0x3d21c65e	0.03949582
124	0x3c227fd4	0.009918172
125	0x3cd06bd3	0.02544204
126	0x3a851571	0.0010153485
127	0x3b186ed4	0.0023259418

encoder.fc2.bias f4 [8]
0	0xbcca85d4	-0.024722017
1	0xbbffeaea	-0.0078099864
2	0x3b8c01ab	0.00427266
3	0x3ada0b72	0.0016635491
4	0xbb4b235c	-0.0030996418
5	0xbc2efa8e	-0.010679854
6	0xbba02b44	-0.00488797
7	0x3c487e5f	0.0122371605

encoder.fc3.weight f4 [8, 16]
0	0x3b776d7f	0.0037754474
1	0xbd01913d	-0.03163265
2	0x3a77c349	0.0009451402
3	0x3b971cb4	0.004611576
4	0xbb8b8e3f	-0.0042589004
5	0xbb91004e	-0.004425085
6	0xb90d093a	-0.00013450245
7	0xbbd4cedb	-0.0064943857
8	0xb36dec42	-5.5395738e-08
9	0x3d065d47	0.0328038
10	0x3ad3d838	0.0016162461
11	0xbb7462a8	-0.003729025
12	0xbb8b7d72	-0.0042568976
13	0x3bdbf343	0.0067123487
14	0x38b04510	8.405198e-05
15	0xb9bf4c06	-0.00036487
16	0x3adf8d8c	0.0017055734
17	0xbc40b7b1	-0.011762545
18	0x39a26d02	0.00030980265
19	0x3bbf6b75	0.0058416673
20	0x3a229626	0.00062021834
21	0x3ba5eedf	0.005063876
22	0xba4d0c89	-0.0007821997
23	0x3a8a0e17	0.0010532764
24	0xb326f89e	-3.8876003e-08
25	0xbba21b5b	-0.0049471087
26	0xbc208fa7	-0.009799874
27	0x3bc48536	0.0059973253
28	0x3a9521bc	0.0011377851
29	0xba358c1a	-0.0006925479
30	0xba8e9d76	-0.0010880667
31	0xbbbd81e2	-0.0057833055
32	0x39843079	0.00025213117
33	0xbcabcc1b	-0.020971349
34	0xb99f4585	-0.0003037864
35	0x3bc4f8bc	0.0060110968
36	0x38358a98	4.328284e-05
37	0xbbaa792b	-0.0052024326
38	0x384e6f65	4.921797e-05
39	0xbc2c6984	-0.010523204
40	0xae9190f9	-6.619589e-11
41	0x3b979a36	0.0046265377
42	0xbc34a000	-0.011024475
43	0x3c08aef9	0.008342498
44	0x3c0e3f5d	0.008682099
45	0x391cf9dc	0.00014970399
46	0x31261289	2.4166715e-09
47	0xbb94221d	-0.004520668
48	0x3a907807	0.0011022099
49	0x3c0b5da4	0.008506212
50	0xba228193	-0.00061991176
51	0xbaa578d1	-0.0012624507
52	0xbbe14e48	-0.006875787
53	0x39b5d738	0.0003468336
54	0xb9ae99f8	-0.00033302582
55	0x3ad90992	0.0016558638
56	0x8a57b92a	-1.0386699e-32
57	0x3c12885b	0.0089436425
58	0xbb15c486	-0.0022852733
59	0x3ba4f63f	0.0050342376
60	0xbb8521d0	-0.0040628687
61	0x3c087794	0.008329291
62	0xb6bfd0a7	-5.716534e-06
63	0xbae558ff	-0.0017497836
64	0x3a85980e	0.001019241
65	0xbc12d008	-0.008960731
66	0xb9712517	-0.00022997368
67	0x3c1f6a85	0.009729986
68	0xbba6d625	-0.005091446
69	0xbbc2bc79	-0.005942878
70	0xbad8522b	-0.001650398
71	0x3c1d9ff0	0.009620652
72	0x3621e43f	2.4123726e-06
73	0xbcff7bb3	-0.031186914
74	0xbbbc0562	-0.0057379464
75	0x3ae87bf8	0.0017737141
76	0x3c172d9c	0.009227183
77	0xb99d5f17	-0.0003001622
78	0xb824f413	-3.932796e-05
79	0xbc05c215	-0.008163949
80	0x3bd90361	0.0066227173
81	0xbc0759a7	-0.008261121
82	0x3b5fe9e5	0.0034166512
83	0x3b665ce8	0.0035150591
84	0xbc5ad088	-0.013355382
85	0xb9933e94	-0.0002808465
86	0xb98d31a5	-0.00026930604
87	0x3baa7be3	0.0052027567
88	0xb1bdbeaa	-5.5223e-09
89	0x3c9e928e	0.019356992
90	0xbc159a46	-0.00913102
91	0x3c2b9da5	0.010474597
92	0x3c31bd69	0.010848382
93	0x3b6dccc2	0.0036285375
94	0xb8319c2a	-4.2345528e-05
95	0xbc4cdfed	-0.01250456
96	0x3b99faa9	0.0046990705
97	0xbc860615	-0.016360322
98	0xbb434ecc	-0.0029801605
99	0x38c7b6f4	9.523137e-05
100	0xbbd36c9b	-0.0064521558
101	0xbb79674b	-0.0038055952
102	0xb9537ede	-0.0002016979
103	0xbb81e80e	-0.0039644307
104	0x118b54cb	2.198259e-28
105	0x3bb64214	0.0055620763
106	0xbb1b2a1f	-0.002367623
107	0x3bbd7dd9	0.0057828245
108	0x3c295036	0.010334065
109	0x3b66843a	0.0035174028
110	0x39111726	0.00013836901
111	0xbbd691e3	-0.006548153
112	0x3b7fbb26	0.0039021461
113	0x3c831ce5	0.016004989
114	0x3b73e140	0.0037213117
115	0x3c2c3d17	0.010512612
116	0xbb139c87	-0.0022523717
117	0x3bac2b87	0.0052542123
118	0xba30be0b	-0.0006742186
119	0xbbbe9ca8	-0.0058170147
120	0x8a505f04	-1.0032706e-32
121	0x3ce0116f	0.027352063
122	0xbbea9ef6	-0.007160063
123	0x3babf2f8	0.00524747
124	0x3bc16bc8	0.005902741
125	0x3b104c6f	0.0022018214
126	0xba0deb6f	-0.00054138055
127	0xbbfc05ae	-0.0076911068

encoder.fc3.bias f4 [8]
0	0x3ae1def2	0.001723258
1	0xba1a3ab9	-0.0005883384
2	0x3add8044	0.0016899188
3	0x39d043d0	0.00039723376
4	0xba1243fc	-0.00055795885
5	0x3a6b405e	0.000897413
6	0x3a3d1fc0	0.0007214509
7	0x398e1cb0	0.00027105724

decoder.fc.weight f4 [16, 8]
0	0xbbc506af	-0.0060127596
1	0x3d23e26f	0.040010866
2	0x3bf2f16a	0.0074140327
3	0xbbe0760a	-0.006850009
4	0xbc88af73	-0.016685223
5	0x3c5a20c8	0.01331348
6	0x3c4d76d8	0.012540542
7	0x3cbf0b6e	0.02332088
8	0x3c458483	0.012055519
9	0xbc9d7c6a	-0.019224364
10	0x3c08e571	0.008355484
11	0xbd1b9194	-0.03798063
12	0x3c7d736d	0.015469414
13	0xbb3c7a6f	-0.00287595
14	0x3c2712bb	0.010197337
15	0xbb5c58e3	-0.0033622317
16	0x38c5e368	9.43605e-05
17	0xbb3c621f	-0.0028745008
18	0xba5c687b	-0.0008407903
19	0xb92beec8	-0.00016396784
20	0xb8830498	-6.2474224e-05
21	0x3b093d54	0.0020941095
22	0x3897a1b2	7.230359e-05
23	0xba8998df	-0.001049783
24	0x3c9bf5ed	0.019038165
25	0xbccf9f9c	-0.025344662
26	0x3b0a63e3	0.0021116666
27	0x3c52d142	0.012867274
28	0xbabc3f98	-0.0014362214
29	0xbb693801	-0.003558636
30	0x39b52a20	0.00034554396
31	0xbc028e24	-0.007968459
32	0x3a622060	0.000862604
33	0xbbe0d166	-0.0068608997
34	0xbc09ea97	-0.008417747
35	0x37420c64	1.1566186e-05
36	0xbb8f6022	-0.0043754736
37	0xbb173e95	-0.0023078073
38	0x3c872cce	0.016500857
39	0x3c8d89e0	0.017277658
40	0xbb7f208d	-0.0038929314
41	0x39325be5	0.00017009636
42	0xbb9018ae	-0.0043974733
43	0x3c265da6	0.010154163
44	0xbb257c37	-0.002525104
45	0x3bf88623	0.0075843497
46	0xb9e52aca	-0.00043710164
47	0xbad15eed	-0.0015973725
48	0xbc11939c	-0.0088852905
49	0x3bc666ca	0.006054734
50	0xbbaf06fd	-0.0053414092
51	0xbbf1d323	-0.007379906
52	0x3ba18860	0.0049295872
53	0xbb866f7c	-0.0041026454
54	0x3c1eb94a	0.009687731
55	0xbbcc6401	-0.0062375073
56	0x3ad50bc5	0.0016254118
57	0x3cc8454c	0.024447106
58	0x3b2b1320	0.0026103929
59	0xbbab372e	-0.005225084
60	0x3b6a2002	0.0035724645
61	0xbc4d0486	-0.0125132855
62	0xbc51c8d8	-0.012804233
63	0x3cbf30be	0.023338672
64	0x3cbf09f7	0.023320181
65	0xbcf8d75c	-0.030376129
66	0x3d3eacf3	0.046551656
67	0x3ca22e47	0.019797457
68	0xbcb7b07f	-0.022423027
69	0x3d2ea9f7	0.04264256
70	0x3b078c37	0.002068294
71	0x3c97a7c3	0.018512612
72	0xbc2e860e	-0.010652078
73	0x3c8faf32	0.017539594
74	0xbd7ad231	-0.06123561
75	0xbd303027	-0.04301467
76	0x3bde0129	0.0067750406
77	0xbd5d225b	-0.053987842
78	0x3d83a66f	0.06428229
79	0x3d36c299	0.044619177
80	0x38e5d6d6	0.00010959587
81	0x3c054f2e	0.008136554
82	0x3c0f7f43	0.008758369
83	0x3c6e80ab	0.014557044
84	0xbbe36958	-0.006940048
85	0xbc822da5	-0.015890906
86	0xbbb6675d	-0.005566521
87	0xbc47a690	-0.012185708
88	0xbd183751	-0.03716213
89	0xbc243ad1	-0.010023789
90	0xbc15ee71	-0.009151087
91	0xbb66ebba	-0.0035235719
92	0xbaa91f9f	-0.00129031
93	0xbc9d8fe1	-0.019233646
94	0x3bc391f5	0.005968327
95	0x3c8f712c	0.01751002
96	0xbcb5b5b7	-0.022181375
97	0xbd0e522b	-0.03474633
98	0xbd4a6144	-0.049409166
99	0x3c975258	0.018471882
100	0xbb9593e2	-0.004564748
101	0xbaec775d	-0.0018040944
102	0xbd746b08	-0.059672385
103	0xbc6f15c1	-0.014592589
104	0xbb9f7e3d	-0.0048673437
105	0x3b3c37b2	0.002871972
106	0x3c0b55aa	0.008504311
107	0xbcd45659	-0.02592008
108	0x3b1682b2	0.0022966084
109	0xbc562c15	-0.013072033
110	0xbca04906	-0.01956607
111	0xbc300c16	-0.010745069
112	0x3b8bc7d2	0.004265764
113	0xbbbfbb1d	-0.005851163
114	0xbba47fc1	-0.0050201123
115	0x3c823081	0.01589227
116	0x3c2cfd0d	0.010558379
117	0xba0498f8	-0.00050581945
118	0xbc496802	-0.012292864
119	0xbc335c29	-0.010947266
120	0x3c3cb180	0.011516929
121	0xba5a55bf	-0.0008328817
122	0x3b96bbd5	0.004600028
123	0x3c32d36c	0.010914665
124	0x3b7f52a8	0.003895918
125	0xb9e93fa0	-0.00044488627
126	0xbb81b4b2	-0.003958308
127	0x3c03eda7	0.008052266

decoder.fc.bias f4 [16]
0	0xbe15278e	-0.1456587
1	0xbe469421	-0.19392444
2	0xbcaf362d	-0.021388138
3	0xbe43255b	-0.19057219
4	0xbe04a950	-0.12955213
5	0x3ef90dac	0.48643243
6	0xbdc1420a	-0.09436424
7	0xbe1d869d	-0.15383382
8	0xbdaefcb3	-0.08544292
9	0xbe1b04c8	-0.15138543
10	0xbe12391c	-0.14279598
11	0xbe56fd68	-0.20995104
12	0xbe88957a	-0.26676542
13	0xbe55d277	-0.20881067
14	0xbe11e97e	-0.14249226
15	0xbdc3a8a1	-0.09553648

decoder.fc_output.weight f4 [20, 16]
0	0xbcdbc980	-0.026829481
1	0xbcf2d791	-0.029643806
2	0xbbdb8f9e	-0.00670047
3	0x3b87d6df	0.0041454877
4	0xbcc98250	-0.02459827
5	0x3d0e55de	0.034749858
6	0xbce0a1d2	-0.027420912
7	0xbcc04d04	-0.023474224
8	0x3d5dc7da	0.05414567
9	0xbd8333c2	-0.064063564
10	0x3b56e991	0.0032793025
11	0x3cd053c3	0.025430566
12	0x3d08639d	0.033298124
13	0xbb6a544e	-0.0035755816
14	0xbd2a2fc5	-0.041549463
15	0x39fdc7b4	0.0004840471
16	0x3d03689f	0.032082196
17	0x3c9751cd	0.018471623
18	0x3ae92a80	0.0017789155
19	0x3b740bfe	0.0037238593
20	0xbbbc0976	-0.0057384325
21	0x3d0a954d	0.03383379
22	0xbd311e10	-0.04324156
23	0xbc0a3f46	-0.008437937
24	0xbcb94e3e	-0.022620317
25	0x3b6e6749	0.003637748
26	0xbd687419	-0.056751344
27	0xbd42ab45	-0.047526617
28	0x3c6b73b4	0.0143708475
29	0xbc8854cc	-0.016641997
30	0xbc669d6c	-0.014075618
31	0x3bad501e	0.0052890917
32	0x39dcaf69	0.0004209236
33	0xbc3eefc0	-0.011653841
34	0xbb1e3ff4	-0.0024147006
35	0x3a8d40ee	0.0010776797
36	0xbd8b2998	-0.06795043
37	0xbc1560fd	-0.009117362
38	0x3c9c0bfd	0.019048685
39	0x3c1913b8	0.00934308
40	0xbd5410c1	-0.05177379
41	0xbb525625	-0.0032094803
42	0xbddceb9f	-0.10787129
43	0xbcc78407	-0.024354948
44	0xbc94b992	-0.018154893
45	0x3c9b62a0	0.018967927
46	0xbc6d5164	-0.014484737
47	0xbad45b31	-0.0016201494
48	0xbc13e2c8	-0.009026237
49	0x3b9f18af	0.0048552374
50	0xbbbdb0c8	-0.0057888962
51	0xbab09c4c	-0.0013474314
52	0xbc5159df	-0.012777775
53	0x3d1c1cbd	0.038113344
54	0x3b712b4f	0.0036799496
55	0xbcc0d4f4	-0.023539044
56	0xbd37f10d	-0.04490762
57	0xbaa4d79e	-0.0012576466
58	0xbc7a76e3	-0.015287134
59	0xbcc5441b	-0.024080327
60	0x3c31eb33	0.0108592985
61	0xbc72c784	-0.014818076
62	0xbc4f2bfb	-0.012644763
63	0xbbc2c650	-0.005944051
64	0xbb927b87	-0.004470292
65	0x3d13f66f	0.03612369
66	0xbb1b7f95	-0.0023727168
67	0x3b296405	0.002584697
68	0xba2357ec	-0.0006231058
69	0x3c2617b5	0.010137488
70	0x3c036796	0.008020302
71	0x3ce124a6	0.027483296
72	0xbc4d74ce	-0.012540055
73	0x3d36063f	0.04443955
74	0xbd50531c	-0.05086051
75	0xbd863ee2	-0.06554963
76	0xbcc67681	-0.024226429
77	0xbbd79fbf	-0.0065803225
78	0x3b37f92b	0.00280721
79	0x3b60e6e1	0.0034317302
80	0x3cf5b7b2	0.02999482
81	0x3cdc02f4	0.026856877
82	0x3a245afb	0.00062696607
83	0xbb18d4bc	-0.002332016
84	0x3d36aea0	0.04460013
85	0xbb8272ee	-0.003980986
86	0x3c8cc565	0.017183969
87	0xbbe780a6	-0.0070648966
88	0xbd44d10e	-0.048050933
89	0x3c5c9a1c	0.013464477
90	0x3cc8a4da	0.02449267
91	0xbc7f049b	-0.015565063
92	0xbc81a1cf	-0.015824227
93	0x3b8788b8	0.004136171
94	0x3d1717e9	0.036888037
95	0xb9847b87	-0.00025269037
96	0x3b81880f	0.003952987
97	0x3ccff79b	0.025386622
98	0x38f4db1b	0.00011675638
99	0xba4263de	-0.0007415394
100	0x3d272daf	0.04081505
101	0x3b8ca467	0.004292059
102	0x3b539fcb	0.003229129
103	0xbc79ba79	-0.015242212
104	0xbd25bba8	-0.040462166
105	0x3c985572	0.018595431
106	0x3d0503fe	0.03247451
107	0xbc738c60	-0.014865011
108	0x3bc6ee6e	0.0060709035
109	0x3bb0d11d	0.005396022
110	0x3d0bafc2	0.034103163
111	0xb86efef6	-5.6981073e-05
112	0x3c9cdc16	0.019147914
113	0xbc637f0e	-0.013885273
114	0xbbd067f3	-0.006360048
115	0x3b2cb37e	0.0026352103
116	0xbccb35aa	-0.024805862
117	0x3de43437	0.11142772
118	0xbba5e7c4	-0.005063029
119	0xbcba1d75	-0.022719124
120	0x3cc35ec5	0.0238489
121	0xbad17659	-0.0015980705
122	0xbcb23ee9	-0.021758514
123	0xbc944221	-0.018097939
124	0x3c91f411	0.017816575
125	0x3aa77061	0.001277458
126	0xbc27dddf	-0.010245769
127	0xb9f95d86	-0.0004756266
128	0xbd0add82	-0.033902653
129	0x3d6ca1e9	0.057771597
130	0xba9464db	-0.0011321561
131	0xbc517db4	-0.012786318
132	0xbd0166bd	-0.03159212
133	0x3e46a55d	0.19399019
134	0xbbf777a6	-0.007552105
135	0xbd4fa61f	-0.050695535
136	0x3d51ccf7	0.05122086
137	0x3b8a6b34	0.0042242054
138	0x3c3b036c	0.01141439
139	0x3c30b087	0.010784275
140	0xbcb66673	-0.022265648
141	0xbbeb3490	-0.007177897
142	0xbc239739	-0.009984785
143	0x3bbdbd2f	0.0057903747
144	0xbce67454	-0.028131641
145	0xbbfaf93c	-0.0076591056
146	0x3c29889c	0.010347512
147	0xbc8a0458	-0.016847774
148	0xbd309393	-0.043109488
149	0x3e8bd464	0.2731048
150	0x3c806c7d	0.015676731
151	0x3cbf8206	0.02337743
152	0x3a6f6768	0.0009132535
153	0xbd4b29a5	-0.049600262
154	0xbcbee007	-0.023300184
155	0x3c98184d	0.018566275
156	0x3cca6006	0.02470399
157	0x3c5294d9	0.012852871
158	0xbd1b51f0	-0.03791994
159	0x3a8266a6	0.0009948805
160	0xbc25fa26	-0.010130441
161	0x3d03b6f4	0.0321569
162	0xbb227f8f	-0.002479527
163	0x3a08c2c2	0.00052170095
164	0xbbc88bf6	-0.0061202003
165	0xbb568382	-0.0032732193
166	0x3cbd458b	0.02310445
167	0x3d49f274	0.049303487
168	0xbcc5d596	-0.024149697
169	0x3cd36dca	0.025809187
170	0xbd3c94cd	-0.046040345
171	0xbc829561	-0.01594037
172	0xbd2866dd	-0.041113723
173	0xba55d6b4	-0.00081572984
174	0xbb985b53	-0.0046495586
175	0x3ad5b6a8	0.0016305046
176	0xbc8f0e9f	-0.017463027
177	0xbb2a80f4	-0.0026016803
178	0xbadb558e	-0.0016733871
179	0xbb16ce29	-0.0023011065
180	0xbc63a5ba	-0.013894493
181	0x3c9b5702	0.018962387
182	0x3c3b655c	0.01143774
183	0x3cfc473f	0.030795692
184	0xbcd48432	-0.025941942
185	0x3be1bacb	0.0068887225
186	0xbb4092d5	-0.0029384394
187	0x3ce52e87	0.027976288
188	0xbc855f7f	-0.016280888
189	0xbcb365df	-0.021899162
190	0xbcb230e8	-0.021751836
191	0x3b959f3b	0.004566101
192	0x3d8f8649	0.07008035
193	0xbc6ddb3e	-0.014517603
194	0x3a21c982	0.00061716896
195	0x3c4d9d6b	0.012549738
196	0xbd5eee66	-0.054426573
197	0x3df0dba2	0.11760642
198	0xbcd82ef7	-0.026389582
199	0x3bd35def	0.0064504067
200	0xbd6e2358	-0.058139175
201	0x3d2a02f1	0.04150671
202	0xbc6705c3	-0.014100495
203	0xbc0f380b	-0.008741389
204	0xbd7c98f9	-0.061669324
205	0xbcabcf6c	-0.02097293
206	0x3c9ec4f6	0.019381028
207	0xbcaf8f83	-0.021430736
208	0x3aa03124	0.0012221676
209	0x3cbba95e	0.022907909
210	0x371af00d	9.2350065e-06
211	0xb9979c1e	-0.0002891728
212	0xbc833a53	-0.016019022
213	0x3b10a8df	0.0022073311
214	0x3b8b018b	0.0042421273
215	0xbbf7edcf	-0.007566191
216	0x3c01cf22	0.0079229195
217	0xb978677e	-0.00023689677
218	0xbc56bcd7	-0.013106546
219	0x3b66576e	0.0035147327
220	0xbd0d9cca	-0.034573354
221	0xbc01eb42	-0.007929625
222	0x3b0f3dbd	0.0021856867
223	0x3586bd97	1.0038956e-06
224	0x3b1d303b	0.0023985046
225	0x3cadf81f	0.021236477
226	0x360c323b	2.0890864e-06
227	0xb972d113	-0.00023156805
228	0xbc73a80b	-0.014871608
229	0x3b4a5df3	0.0030878752
230	0x3be5e1c8	0.0070154406
231	0xbc36eeba	-0.011165315
232	0x3b9765cb	0.004620289
233	0x3a110f74	0.0005533614
234	0xbc7ab9ff	-0.015303134
235	0x3bb3cfab	0.0054874024
236	0xbd301dac	-0.042997047
237	0xbbfb43e2	-0.0076680044
238	0x3b1b45df	0.002369277
239	0x3565da1b	8.5626533e-07
240	0x3c2900d8	0.010315143
241	0xbc16d4f5	-0.009206046
242	0xbb80eb6e	-0.0039343154
243	0xba882734	-0.001038766
244	0xbd187726	-0.037223004
245	0xbc8424c9	-0.016130822
246	0x3cd800f1	0.026367636
247	0xba45b8cd	-0.0007542491
248	0x3bec36e1	0.0072086905
249	0x3c03263d	0.008004722
250	0xbc2c86ef	-0.010530218
251	0xbcf72310	-0.030168086
252	0xbca8ef11	-0.020621808
253	0x3c864045	0.016388068
254	0xbb27f308	-0.0025627036
255	0x3991046e	0.00027659856

decoder.fc_output.bias f4 [20]
0	0x3f1a5d81	0.60298926
1	0x3e6c6b23	0.23087744
2	0x3da7322d	0.08163867
3	0x3e92437a	0.28567106
4	0x3e892c2f	0.26791522
5	0x3d00f30c	0.031481788
6	0x3c904297	0.017609878
7	0x3f5bd086	0.85865057
8	0x3f0b2eb9	0.5436817
9	0x3f19dd69	0.6010347
10	0x3e682cf4	0.22673398
11	0x3dbcf478	0.09226316
12	0x3e984389	0.29739025
13	0x3ca688c8	0.020328894
14	0x3c9a6f0a	0.018851776
15	0x3e2515b5	0.16121562
16	0x3e0c0886	0.13675126
17	0x3d86be41	0.06579257
18	0x3d8780ba	0.066163495
19	0x3f0b33ac	0.5437572
