c2cvae/lending_club_vae.pth (torch, 5878 bytes, 10 tensors)

encoder.fc1.weight f4 [16, 8]
000000 9c 0f 5c 0a 71 59 54 0a ac cd 54 8a fa 37 52 8a
       1.05955505e-32 1.0224251e-32 -1.0246111e-32 -1.012166e-32
000010 0f e9 51 8a b6 f8 55 8a dd 19 5a 8a e9 e9 52 8a
       -1.01068174e-32 -1.0302354e-32 -1.05011825e-32 -1.0155126e-32
000020 d0 43 4a 8a 8f 02 4f 8a 02 3b 52 8a 45 ee 45 8a
       -9.7387e-33 -9.967169e-33 -1.012223e-32 -9.5300185e-33
000030 1f 68 57 8a 68 90 47 8a 55 26 54 8a 7b c3 46 8a
       -1.03714565e-32 -9.608661e-33 -1.0214638e-32 -9.570119e-33
000040 cb 2d 59 8a 63 f7 68 8a ed 51 45 8a 6b 91 70 8a
       -1.0456783e-32 -1.1216922e-32 -9.5006135e-33 -1.158293e-32
000050 8b 9e 54 8a 55 53 55 8a 27 01 4f 8a 2c 5b 4a 0a
       -1.0237247e-32 -1.027125e-32 -9.966904e-33 9.743094e-33
000060 09 b5 5a 8a b0 96 64 0a 87 31 51 8a bb 6b 51 8a
       -1.0530367e-32 1.1006142e-32 -1.0072299e-32 -1.0083246e-32
000070 bf 42 58 8a 6d fc 54 8a 36 e8 4b 8a ce 2a 53 8a
       -1.0412575e-32 -1.0254905e-32 -9.8177685e-33 -1.0167331e-32
000080 4d f8 50 8a 70 e4 51 8a 98 6a 4f 8a b8 52 66 8a
       -1.0061536e-32 -1.0105948e-32 -9.9867355e-33 -1.1089655e-32
000090 d9 e0 57 8a 8b 93 51 8a 08 cb 58 8a 1f df 58 8a
       -1.03941626e-32 -1.0090734e-32 -1.0438208e-32 -1.0441986e-32
0000a0 97 33 52 0a d6 f6 63 8a 4a a1 4c 0a 38 84 52 8a
       1.0120835e-32 -1.0976077e-32 9.852578e-33 -1.0136e-32
0000b0 35 b8 55 8a 23 57 5a 8a fa 2d 56 8a 15 74 5c 8a
       -1.02902224e-32 -1.0512707e-32 -1.03123724e-32 -1.0614447e-32
0000c0 2e 8c 51 0a fd a7 69 8a 44 23 51 8a 10 56 5a 8a
       1.0089349e-32 -1.1250137e-32 -1.0069617e-32 -1.0512505e-32
0000d0 17 d0 45 8a 94 a2 54 8a 1f 16 4e 8a b5 02 5b 8a
       -9.524342e-33 -1.0238006e-32 -9.9227e-33 -1.05449756e-32
0000e0 53 1d 5c 0a 08 31 5b 0a 37 1e 54 8a bb 22 47 8a
       1.059813e-32 1.0553688e-32 -1.02131115e-32 -9.5880335e-33
0000f0 4d 9c 4b 8a 4d fe 65 8a 11 87 61 8a e7 de 4f 8a
       -9.8034914e-33 -1.10737776e-32 -1.0858759e-32 -1.0008611e-32
000100 03 c3 52 8a 85 c1 58 0a 16 59 4b 8a 40 f6 57 8a
       -1.014781e-32 1.0436419e-32 -9.79085e-33 -1.0398188e-32
000110 e8 5d 4b 8a 74 27 51 8a 8e 88 55 8a 09 43 47 8a
       -9.791756e-33 -1.0070404e-32 -1.028126e-32 -9.5941094e-33
000120 46 eb 4d 8a f5 eb 5f 8a e2 5d 4f 0a d6 fa 54 0a
       -9.914641e-33 -1.0781438e-32 9.984345e-33 1.0254606e-32
000130 aa 86 53 8a e4 38 52 8a 35 51 45 8a 69 ae 5b 8a
       -1.0184608e-32 -1.0121832e-32 -9.500478e-33 -1.0577269e-32
000140 e1 b0 4b 0a 72 1d 5f 8a 1c e6 59 8a 6b ab 49 8a
       9.807362e-33 -1.07425975e-32 -1.0491449e-32 -9.710038e-33
000150 41 0c 5a 0a 5c 3a 4b 8a 1a f6 4d 8a d6 90 4a 8a
       1.0498623e-32 -9.785071e-33 -9.9166775e-33 -9.753187e-33
000160 49 45 50 8a 3f e9 5c 0a 61 d4 5a 0a df 67 4e 8a
       -1.0027867e-32 1.06364834e-32 1.0536262e-32 -9.938075e-33
000170 da a4 53 0a 4a b5 54 8a 0b 78 54 8a e4 66 52 8a
       1.01902856e-32 -1.02415254e-32 -1.0230006e-32 -1.0130484e-32
000180 9d 47 59 8a ea 93 2e 8a 6f 29 4d 8a 6c 82 59 8a
       -1.0461639e-32 -8.405615e-33 -9.878184e-33 -1.04726996e-32
000190 78 e6 58 8a bb b9 5b 8a 17 3b 5a 8a 1d 18 56 8a
       -1.0443368e-32 -1.05793985e-32 -1.0507432e-32 -1.03082604e-32
0001a0 74 40 50 0a 55 c0 5f 0a dd 16 4d 0a 7d 77 49 8a
       1.0026958e-32 1.0773233e-32 9.874691e-33 -9.700271e-33
0001b0 57 e6 45 8a c9 44 51 8a 53 1c 4e 8a 51 c3 4f 8a
       -9.528527e-33 -1.0075921e-32 -9.9238664e-33 -1.00034224e-32
0001c0 35 91 52 8a 15 c5 5c 0a e0 5f 73 8a 7c f8 72 8a
       -1.01384426e-32 1.0629682e-32 -1.17180565e-32 -1.1698611e-32
0001d0 9d 1b 55 8a 6c c1 52 8a 27 2a 52 8a 91 fd 50 8a
       -1.02607704e-32 -1.0147511e-32 -1.011906e-32 -1.0062526e-32
0001e0 a8 29 67 8a fa 42 64 8a 4e 01 5f 8a bf 91 5c 8a
       -1.113008e-32 -1.09903976e-32 -1.0737305e-32 -1.06200265e-32
0001f0 1b a2 49 8a 37 5d 4f 8a 5d d9 49 8a 38 98 51 8a
       -9.7082866e-33 -9.984219e-33 -9.7186795e-33 -1.0091613e-32

encoder.fc1.bias f4 [16]
000000 16 59 46 8a 97 38 54 8a a0 98 43 0a f6 1e 4b 0a
       -9.5501084e-33 -1.0218072e-32 9.417614e-33 9.7799176e-33
000010 6b 44 49 0a 17 f7 4a 0a f4 c4 57 8a ca 0d 54 0a
       9.690666e-33 9.772419e-33 -1.0388916e-32 1.0210022e-32
000020 bb e9 4e 0a 7b 2b 65 0a 47 00 51 8a 2e c6 49 0a
       9.962499e-33 1.1034127e-32 -1.0063036e-32 9.7150714e-33
000030 8b c7 5b 8a 9c 44 4e 8a 00 e9 5b 8a 90 97 57 0a
       -1.0581996e-32 -9.931443e-33 -1.0588289e-32 1.0380379e-32

encoder.fc2.weight f4 [4, 16]
000000 4b 3d 46 0a a9 46 5d 0a 80 71 4f 8a da b0 5a 0a
       9.544881e-33 1.0654053e-32 -9.9880344e-33 1.052958e-32
000010 49 3a 70 0a 7f 77 5a 8a 9f 9d 4d 8a a3 6b 59 0a
       1.1566542e-32 -1.0518793e-32 -9.900036e-33 1.0468414e-32
000020 2f 66 54 0a c8 d8 46 0a b0 ad 4f 0a 62 5e 59 8a
       1.0226647e-32 9.574125e-33 9.9993545e-33 -1.04659214e-32
000030 9c 87 45 0a 1c 92 5a 8a 6f 68 5b 8a 87 56 59 0a
       9.51071e-33 -1.0523798e-32 -1.0564108e-32 1.0464444e-32
000040 d1 67 4d 0a 9f a4 59 8a 79 6b 4e 8a 3f 7d 54 8a
       9.889917e-33 -1.0479132e-32 -9.9387526e-33 -1.0230985e-32
000050 d9 fb 50 0a a9 34 50 8a b3 ad 5b 8a df a8 4b 0a
       1.0062203e-32 -1.002474e-32 -1.0577136e-32 9.8058556e-33
000060 a4 38 4e 8a 5d 3e 57 8a 0d 20 59 8a d0 9f 5b 8a
       -9.929192e-33 -1.0363603e-32 -1.0454198e-32 -1.0574524e-32
000070 ce 20 5a 0a 22 9e 4a 0a 87 34 5c 0a 3e 44 58 8a
       1.0502488e-32 9.755688e-33 1.0602494e-32 -1.04128566e-32
000080 4f 2c 57 8a bf 7b 58 8a d1 32 4e 8a 29 c1 4d 0a
       -1.0360207e-32 -1.0423296e-32 -9.928097e-33 9.90672e-33
000090 92 c6 5c 8a 39 bb 43 0a 87 23 4f 0a 44 cd 70 0a
       -1.06299616e-32 9.424121e-33 9.9733694e-33 1.1594186e-32
0000a0 5f fd 44 8a 3a a6 4d 0a 28 e1 5a 0a 9d 4d 61 8a
       -9.4847105e-33 9.901655e-33 1.05386654e-32 -1.08479534e-32
0000b0 d3 3e 55 0a 4e bd 4f 0a 92 ba 56 8a 91 b5 4a 8a
       1.0267393e-32 1.0002292e-32 -1.0338815e-32 -9.760095e-33
0000c0 f4 09 59 8a 2d 0c 6d 8a 05 07 48 8a e8 6e 5b 8a
       -1.0450042e-32 -1.1413425e-32 -9.63097e-33 -1.05653256e-32
0000d0 b9 ec 5d 0a 98 85 58 8a 17 18 4b 0a 3b 5c 52 0a
       1.06852855e-32 -1.0425148e-32 9.778625e-33 1.0128479e-32
0000e0 0b c5 56 8a 12 fe 53 0a bb e0 5a 0a f3 1b 5b 0a
       -1.0340785e-32 1.0207066e-32 1.0538585e-32 1.0549723e-32
0000f0 e6 37 5a 0a 61 23 52 8a a6 e6 6c 0a fc 10 74 8a
       1.05068315e-32 -1.0117786e-32 1.1406367e-32 -1.1751367e-32

encoder.fc2.bias f4 [4]
000000 3e 1d 4d 37 46 5b 74 37 2c d7 db 33 b4 c0 dc b6
       1.2225761e-05 1.4564785e-05 1.0237122e-07 -6.5789445e-06

encoder.fc3.weight f4 [4, 16]
000000 5c ce 5b 0a 44 cb 5b 0a 38 25 5c 0a 94 b2 71 8a
       1.0583278e-32 1.05826965e-32 1.0599615e-32 -1.1637315e-32
000010 8a 5c 4e 0a 9b 60 50 0a 27 22 59 0a 0b ab 5b 0a
       9.935944e-33 1.0033005e-32 1.0454593e-32 1.0576636e-32
000020 71 c0 5b 8a 6e ac 50 0a 83 77 53 8a f5 ee 51 0a
       -1.0580661e-32 1.0047266e-32 -1.0181758e-32 1.0107927e-32
000030 9e c3 53 8a 0c 65 49 0a d9 0f 6e 0a b1 38 4e 0a
       -1.0196072e-32 9.696803e-33 1.1462264e-32 9.929202e-33
000040 62 53 5a 0a 4b 6e 59 0a b0 88 52 0a fc 0a 59 8a
       1.0512001e-32 1.0468914e-32 1.013684e-32 -1.0450236e-32
000050 6a 7c 5c 8a e3 a3 5c 0a d0 66 59 0a 0f 9c 54 0a
       -1.06160144e-32 1.0623438e-32 1.0467507e-32 1.023678e-32
000060 56 bc 56 0a 52 c2 5b 0a 03 50 57 8a aa bf 58 8a
       1.0339147e-32 1.0581014e-32 -1.0366922e-32 -1.043607e-32
000070 f7 62 46 8a 75 30 56 0a 98 b3 63 8a fa e0 59 0a
       -9.5519664e-33 1.0312839e-32 -1.096343e-32 1.0490483e-32
000080 3a 59 53 8a 11 eb 54 8a 65 9d 51 8a 80 47 52 0a
       -1.0176062e-32 -1.025164e-32 -1.00925866e-32 1.012458e-32
000090 f2 35 59 8a c3 7f 53 0a 26 18 59 8a c6 77 5b 0a
       -1.0458316e-32 1.018331e-32 -1.0452712e-32 1.0566993e-32
0000a0 cf 56 53 8a b3 0d 52 8a 14 fd 5c 8a fe aa 5c 8a
       -1.0175607e-32 -1.0113709e-32 -1.06402134e-32 -1.0624775e-32
0000b0 b0 2c 5a 8a 14 02 58 0a 65 91 62 0a d5 0b 45 8a
       -1.0504723e-32 1.04004126e-32 1.090885e-32 -9.48743e-33
0000c0 cc e2 5b 0a c3 c3 59 0a e2 4d 53 0a e3 9c 50 0a
       1.0587122e-32 1.0484989e-32 1.01739286e-32 1.0044343e-32
0000d0 c4 7b 67 8a 14 bf 5a 8a e6 d3 4c 8a 79 76 55 8a
       -1.1145523e-32 -1.0532256e-32 -9.8620964e-33 -1.0277859e-32
0000e0 56 cb 59 0a 93 96 55 8a 16 f0 4d 0a 88 0c 4e 8a
       1.0486413e-32 -1.0283897e-32 9.915546e-33 -9.920896e-33
0000f0 dc 13 55 8a b6 de 47 8a aa c5 53 0a 98 08 5b 0a
       -1.0259312e-32 -9.623389e-33 1.0196457e-32 1.0546083e-32

encoder.fc3.bias f4 [4]
000000 a6 cb dc 36 a2 56 45 b7 a2 3a 66 b5 4c fa 2f b6
       6.5802187e-06 -1.1762286e-05 -8.5767e-07 -2.6222724e-06

decoder.fc.weight f4 [16, 4]
000000 41 a6 77 bb 87 8f a7 bc 7d 3b c5 3b 0d 1d 93 3c
       -0.0037788304 -0.020454181 0.0060190544 0.017958188
000010 75 55 0e 3c ed 34 b8 3a 88 e5 17 3c dc be c0 bc
       0.008687367 0.0014053859 0.009271033 -0.023528509
000020 79 68 a7 3b d3 81 73 3c 80 4e 1a bb ab f3 2c ba
       0.0051088897 0.0148624955 -0.0023545325 -0.00065975887
000030 1e 24 c4 ba e1 84 33 3c 2a 0a f6 bb 1b c5 99 37
       -0.0014964377 0.010956974 -0.007508536 1.8330806e-05
000040 8c 4f 3a b8 f3 e5 97 b9 3f 30 2c 3a 49 b1 ff b9
       -4.441994e-05 -0.0002897229 0.00065684685 -0.00048769478
000050 02 59 05 3b 52 2c 80 3b a2 6e 97 ba 98 fb 67 3b
       0.0020347242 0.0039115334 -0.0011553357 0.0035397764
000060 90 ee 4d 3d e8 e3 8e bc 51 f9 27 bb a8 19 d3 3b
       0.05027634 -0.017442659 -0.0025630782 0.0064422674
000070 60 68 a7 bb 30 a6 9e 3a b9 08 f7 bb 33 67 cb 3b
       -0.005108878 0.0012103971 -0.0075388816 0.0062073707
000080 1d 24 94 bc c2 da 1d ba e0 06 aa bc fe 62 cc ba
       -0.018083626 -0.0006021672 -0.020755231 -0.0015593467
000090 f3 a7 86 3b 96 9e 11 3d ef c1 05 3c 16 70 8b bb
       0.0041093766 0.03555163 0.008163913 -0.004255305
0000a0 5c 71 6b bc d0 15 a2 b9 13 f3 b8 bc 4b cf b5 3b
       -0.014370289 -0.000309153 -0.022576844 0.005548393
0000b0 1d d3 b0 3c 82 94 e3 3b d8 57 d4 bc 03 ab b6 bb
       0.021585042 0.0069451937 -0.025920793 -0.0055745854
0000c0 ca 0f d9 ba 5b 28 15 ba ae 36 c2 3a 75 43 5b bb
       -0.0016560492 -0.00056899124 0.0014817321 -0.0033456956
0000d0 b6 d5 fe bb 6b 81 73 3a e1 ff 2e bc 11 fe 1c 3c
       -0.007776941 0.0009288999 -0.0106811235 0.0095820585
0000e0 1c 7c f1 39 18 ea 7b bb ba 99 d8 bb bf f3 2e 3c
       0.0004605957 -0.0038439091 -0.0066101225 0.010678231
0000f0 d3 3b 30 3c 81 71 b2 3b d9 47 86 3b e0 78 3e 3c
       0.010756451 0.0054456596 0.0040979204 0.0116254985

decoder.fc.bias f4 [16]
000000 4f 36 01 be 26 2d 00 be cf a8 b3 bd bf bd a7 bd
       -0.12618373 -0.12517223 -0.08772432 -0.08190488
000010 61 f4 aa bb 09 3e 31 bd 34 41 a6 bd 8a 7a 71 bd
       -0.0052171205 -0.043272052 -0.08117905 -0.058954753
000020 95 16 d0 bd d7 c4 1a be 12 7a 38 be 5f b3 10 be
       -0.10160557 -0.15114151 -0.18015316 -0.14130925
000030 2b cd aa bc 08 86 93 bd 36 9c 6f bd b1 90 0e be
       -0.020849785 -0.07203299 -0.058498584 -0.13922383

decoder.fc_output.weight f4 [8, 16]
000000 0a 57 8c bc 2b ac 48 ba 3a ea 79 bc d0 b3 ba 3b
       -0.017131347 -0.00076550496 -0.015253598 0.005697705
000010 fa 32 db 3c e6 63 27 3b 5f ee 19 bb 68 19 a2 3b
       0.026757706 0.0025541722 -0.0023488028 0.0049468763
000020 70 7a 29 bc 22 b8 cf bc 90 27 fe bb 55 d0 4a 3c
       -0.010344133 -0.025356356 -0.007756181 0.012378772
000030 fd 6e 1a bc d1 bd cc 3a 86 80 94 bb 54 32 d1 3a
       -0.009425876 0.0015620535 -0.0045319228 0.0015960434
000040 e0 60 67 3b a1 fb a8 ba a6 da 3a b8 8e e2 a6 38
       0.0035305545 -0.0012892374 -4.4549488e-05 7.957696e-05
000050 96 33 98 2d f2 3c 6d b6 ae eb 0c 3c 92 c2 63 39
       1.7303308e-11 -3.5351227e-06 0.008601112 0.0002172089
000060 8d e2 19 bc ac 0c 5a 3b 81 b8 2b 3c 0d 8e 3d 3c
       -0.009392393 0.0033271713 0.010481001 0.011569512
000070 2e 86 37 1b a2 66 c6 35 0c 75 12 36 66 17 2a a5
       1.5180761e-22 1.478202e-06 2.1823826e-06 -1.4753077e-16
000080 6d 4c 05 3d a6 33 f3 3c 04 00 a5 3c 93 25 c1 3b
       0.03254359 0.029687714 0.020141609 0.005894372
000090 ee de 12 bb 7a a2 06 3c 97 b6 02 bb 2d 6b 48 bb
       -0.0022410708 0.008217448 -0.0019945258 -0.003058146
0000a0 53 4f a3 3c 07 25 17 3d a2 e9 f1 bc ab c7 13 bd
       0.019935286 0.036900546 -0.02953035 -0.03607909
0000b0 7b 63 1a 3b 3e 43 1a bc a1 cf 92 3c 93 8e 50 3c
       0.002355783 -0.009415446 0.01792127 0.012729305
0000c0 2d 83 3c 3b 88 6c c4 bb a8 dc 73 3c b0 fb 19 3c
       0.002876471 -0.0059943832 0.0148841515 0.009398386
0000d0 26 3c b4 bb a3 f0 b0 ba f0 91 10 bc 1b cd be bb
       -0.0055003343 -0.001349945 -0.008823857 -0.0058227903
0000e0 54 99 19 3c 86 ed 9c bc b3 73 09 3d ff 26 ec 3a
       0.009374935 -0.019156229 0.033557605 0.0018016993
0000f0 c3 da d1 3a bd 6d d9 3b a5 bf 8f 3c 46 1f 35 bc
       0.0016010631 0.0066353963 0.017547438 -0.011054819
000100 ea 14 9b bc dd a5 9c 3c 79 83 bf 3b ab ea 69 bb
       -0.018930871 0.019122059 0.00584453 -0.0035692852
000110 28 34 23 bc bf 51 e3 39 73 dc 08 bc ef 0d 95 bb
       -0.0099611655 0.0004335772 -0.00835334 -0.00454878
000120 30 02 09 bc 17 24 f6 bc 5d e3 2f 3c b0 02 01 3d
       -0.008362338 -0.030046506 0.01073536 0.031496704
000130 a2 4d 37 3b d9 c6 29 bb 3d 09 c7 3b fc 59 89 bb
       0.0027969857 -0.0025905876 0.0060740993 -0.004191635
000140 ad cd e2 b9 aa 30 a3 3b 7a 64 39 b9 da a0 f0 34
       -0.0004325932 0.0049801664 -0.00017680405 4.4820518e-07
000150 f5 70 43 31 93 a6 e4 b4 be cd 1d 3c a0 45 b5 b9
       2.8440443e-09 -4.2589508e-07 0.009631572 -0.00034574885
000160 77 0c 4a bc 8d 56 8b bb 40 f3 24 bc 84 0d 3b 3b
       -0.012332073 -0.004252261 -0.010067761 0.0028541991
000170 9a 83 2f ad ff 6c 22 b5 e8 89 83 34 43 1e 3f b4
       -9.97682e-12 -6.0508313e-07 2.4500991e-07 -1.779927e-07
000180 3a 74 2f 3b d0 78 bb bb df 97 63 3c 1c 74 36 b8
       0.0026772157 -0.005721189 0.013891189 -4.3500317e-05
000190 b7 19 c4 b6 50 8f 0d ba e5 4c d9 3b 30 36 8b bb
       -5.844249e-06 -0.00054000784 0.006631481 -0.004248403
0001a0 c4 0a 23 3c 9e 3a 2d 3c 2b 34 2b bd d3 49 c9 3b
       0.009951297 0.010573057 -0.041797798 0.0061428337
0001b0 01 18 70 37 51 b9 1d bb 40 78 b8 38 24 5e ff 3b
       1.4310704e-05 -0.0024066756 8.796202e-05 0.007793205
0001c0 87 3a a1 3b 24 6c 43 bb b9 34 c7 bb f9 ca a2 39
       0.004920307 -0.0029819096 -0.006079283 0.00031050274
0001d0 ea f9 a8 b8 0b 65 47 36 1f 25 76 3c 95 c6 e8 bb
       -8.0574144e-05 2.9712126e-06 0.015023499 -0.007103751
0001e0 b6 1a 5f bc 30 f5 57 bc 0c 00 47 3d 75 c5 04 bc
       -0.013617208 -0.013181016 0.04858403 -0.008103718
0001f0 42 78 ac 36 83 2e 34 38 ca d9 4e 39 e6 9c c7 b8
       5.1399993e-06 4.295866e-05 0.00019726824 -9.518284e-05

decoder.fc_output.bias f4 [8]
000000 77 0d 00 3f d5 71 2c 3c 3e ff 33 3e 71 12 43 3e
       0.50020546 0.010525187 0.17577836 0.19050004
000010 ae 2b 5b 3f 18 d8 5a 3f 3d e3 5a 3f 1a c9 5a 3f
       0.85613525 0.8548598 0.8550299 0.85463107
