c2cvae/lending_club_c2c.pth (torch, 4150 bytes, 10 tensors)

encoder.fc1.weight f4 [4, 6]
000000 9e 6b 5c 8a e6 13 4b 0a c2 16 46 8a d0 44 56 8a
       -1.0612855e-32 9.777837e-33 -9.5376335e-33 -1.03166674e-32
000010 59 a5 62 8a 5e 92 4b 8a 65 64 58 0a 41 b9 57 8a
       -1.09126026e-32 -9.801623e-33 1.0418904e-32 -1.0386716e-32
000020 fc bc 45 0a c1 3e 4a 0a 87 50 ad 3d 71 fb 53 8a
       9.520749e-33 9.737749e-33 0.08462625 -1.0206571e-32
000030 e2 5d 5d 0a 6d 19 55 8a 11 2c 57 0a 14 ea 53 0a
       1.065842e-32 -1.0260359e-32 1.03601614e-32 1.0203306e-32
000040 b6 df 36 37 07 68 aa 37 32 0c 55 8a 76 fa 45 8a
       1.0900132e-05 2.031402e-05 -1.0257871e-32 -9.5323114e-33
000050 55 d8 44 0a 2b 03 69 8a f8 88 ea 3d 9d 8c ac bd
       9.477744e-33 -1.1219138e-32 0.11451906 -0.08425257

encoder.fc1.bias f4 [4]
000000 fe 02 5b 8a a9 ac c9 bd 06 de 16 3f 04 a1 ea bd
       -1.0545029e-32 -0.098473854 0.5893253 -0.114564925

encoder.fc_mu.weight f4 [3, 4]
000000 d8 d6 59 8a cb 2c 67 b5 2b 1b aa be f7 7f 4d be
       -1.04885776e-32 -8.611939e-07 -0.33223853 -0.20068346
000010 ae 20 5c 0a 8b ac 41 35 49 0f 68 be 4a 38 98 3d
       1.0598761e-32 7.2149186e-07 -0.22662081 0.07432611
000020 b4 00 dd 09 16 bb 8b bb 34 fe 7f 3e fe 0f 80 be
       5.3204476e-33 -0.0042642457 0.24999315 -0.250122

encoder.fc_mu.bias f4 [3]
000000 42 81 48 3e 99 c4 08 3e ad de 16 be
       0.19580558 0.13356246 -0.14733382

encoder.fc_logvar.weight f4 [3, 4]
000000 d1 b6 58 8a f9 7d bc 8e f5 96 a4 3e 72 b0 91 3e
       -1.0434406e-32 -4.6466885e-30 0.3214642 0.2845493
000010 b7 5f 52 0a c1 86 40 98 ec 81 c5 bd d2 a6 80 be
       1.0129134e-32 -2.4883452e-24 -0.09643921 -0.25127274
000020 75 3f 53 8a 4a 36 c4 32 a7 93 c4 be 50 28 6f be
       -1.01712154e-32 2.284209e-08 -0.383939 -0.23355222

encoder.fc_logvar.bias f4 [3]
000000 b4 00 42 be b8 c6 68 3d 0d b5 67 3e
       -0.1894558 0.056830138 0.22627659

decoder.fc2.weight f4 [4, 5]
000000 bc f5 ed bb aa 16 4e bc dd 61 60 bc 7c bb 54 3e
       -0.00726196 -0.012578646 -0.013695207 0.20774645
000010 f1 87 f1 bd 78 a5 c0 bd 60 03 f0 bd 05 22 16 3e
       -0.11793507 -0.09406561 -0.11719394 0.14661415
000020 41 e3 fc bd 61 cd 28 3e 27 77 26 3e 86 29 56 3e
       -0.12348033 0.16484596 0.1625639 0.20914277
000030 6d 5f 52 be 5a 87 4c be d2 e4 13 bd 7c f9 17 be
       -0.20544215 -0.19973508 -0.036106892 -0.14841264
000040 b2 fe 41 be bb 7e 4b 3e 58 80 b2 3d dd 2c b9 3d
       -0.18944815 0.19872563 0.08715886 0.0904176

decoder.fc2.bias f4 [4]
000000 c3 50 03 3e dc 70 e6 bd 52 2d 85 be cb 1f bb 3d
       0.12823777 -0.11251995 -0.2601114 0.091369234

decoder.fc1.weight f4 [4, 4]
000000 53 92 72 bd ea ea ef 3a 1a 03 f3 bd 2e 57 03 be
       -0.059221577 0.0018304263 -0.11865826 -0.12826225
000010 18 a9 47 3d b1 81 03 3e 6e ea ff bd fb f8 61 be
       0.048745245 0.12842442 -0.12495886 -0.22067635
000020 d3 23 99 3e 18 29 52 3e 6b 49 6d 3e 8f 3f df 3d
       0.29910144 0.20523489 0.23172538 0.10900795
000030 fe 65 e6 3d 40 17 24 3d 22 73 1a 3e b4 8a 09 3e
       0.11249922 0.040061235 0.15082982 0.13431817

decoder.fc1.bias f4 [4]
000000 23 be 39 bc 4b 63 86 bb 6b 89 0f 3d fa 7e 8b 3c
       -0.011336836 -0.004101192 0.03504316 0.01702832
